src/pepper_training/training_results/2022-11-11-decrease_networksize/model/critic-decrease_networksize.pkl (torch, 38807 bytes, 5 tensors)

linear1.weight f4 [64, 11]
0	0x3ddd5b83	0.1080847
1	0xbcad1bc4	-0.021131404
2	0x3d7a0dcf	0.061048325
3	0xbe0043fb	-0.12525932
4	0xbe3a08ef	-0.1816747
5	0x3d8d025e	0.06885217
6	0x3dff075a	0.12452574
7	0x3e750a2a	0.23929659
8	0xbe9b9bba	-0.30392247
9	0xbe890e8d	-0.26768914
10	0x3dbae94e	0.091265306
11	0xbe35b053	-0.17743044
12	0x3e73734d	0.23774453
13	0xbe7984a2	-0.24367002
14	0xbe6f8b6d	-0.2339303
15	0x3e703540	0.23457813
16	0x3e5a1ba6	0.2129961
17	0x3e90ad21	0.28257087
18	0xbdab2588	-0.08356768
19	0x3db61498	0.08890647
20	0xbe58a00e	-0.21154806
21	0xbd4bc5f7	-0.04974934
22	0x3dc5d3e2	0.09659554
23	0xbe253a17	-0.16135441
24	0x3c88a075	0.016678074
25	0x3e7fc85a	0.24978772
26	0x3e009a34	0.12558824
27	0xbd067a57	-0.032831516
28	0x3e8f0a53	0.27937564
29	0x3de5d19c	0.112216204
30	0x3e554e3b	0.20830624
31	0x3ea0054b	0.31254038
32	0xbe87b574	-0.26505625
33	0xbe8e75e4	-0.27824318
34	0xbe8acdfe	-0.27110285
35	0x3e84b99d	0.25922862
36	0xbe849e30	-0.25901937
37	0x3e19d4cf	0.15022586
38	0x3e0daef9	0.13836278
39	0x3e91fb36	0.2851197
40	0xbbcc890f	-0.0062419246
41	0xbce2176d	-0.02759906
42	0xbd3d39d9	-0.046197746
43	0xbe06b0b8	-0.1315335
44	0xbd1db155	-0.038499195
45	0x3d835538	0.064127386
46	0x3d08c4b7	0.033390727
47	0xbe5d6551	-0.2162068
48	0xbe961830	-0.2931533
49	0xbe1462ca	-0.1449081
50	0xbe851bcf	-0.2599778
51	0xbe836d68	-0.25669408
52	0x3c1b0c80	0.009463429
53	0xbe0a6cc8	-0.13518059
54	0xbe3f48cc	-0.18680114
55	0x3e3613a3	0.17780928
56	0xbe788144	-0.24268061
57	0xbe2ab95a	-0.16672269
58	0xbd733f0a	-0.05938629
59	0x3dd04f5c	0.101713866
60	0x3dc74f34	0.09731904
61	0xbe3d2f14	-0.1847499
62	0x3e840f4a	0.25792915
63	0x3e1e8a18	0.15482366
64	0xbe009fcf	-0.12560962
65	0x3de79882	0.113083854
66	0xbe3127a9	-0.17300285
67	0x3e888fd3	0.2667223
68	0xbd9c3a74	-0.076283365
69	0x3dac1253	0.084019326
70	0x3e9340a1	0.28760245
71	0xbd73f59e	-0.05956041
72	0xbc948e27	-0.01813419
73	0xbe36f060	-0.17865133
74	0xbe526912	-0.20547894
75	0xbe598709	-0.21242918
76	0xbd272e56	-0.040815674
77	0x3dde0ca6	0.10842256
78	0x3c35fbe6	0.011107421
79	0x3da5e5ce	0.081004724
80	0xbdf7abd1	-0.12093318
81	0xbe1347b6	-0.14382824
82	0x3cae9d2b	0.021315178
83	0xbda7a535	-0.081858076
84	0xbd026041	-0.031830076
85	0x3dc9c640	0.09852266
86	0xbd03d1a7	-0.032182362
87	0x3d9bf82b	0.07615694
88	0x3dfd4f84	0.12368682
89	0x3e937d06	0.28806323
90	0xbe0079f8	-0.12546527
91	0x3e5eb8c1	0.21750166
92	0x3e7cb37f	0.24677847
93	0xbcca6279	-0.024705159
94	0x3daf6fee	0.08566271
95	0xbe176c89	-0.14787497
96	0x3ba6b74a	0.0050877677
97	0xbe282559	-0.16420497
98	0x3d5c52ec	0.053790018
99	0x3e6da246	0.23206434
100	0xbe9b2644	-0.30302632
101	0x3cf07353	0.029351866
102	0xbc827f97	-0.01592998
103	0xbe5921c0	-0.21204281
104	0x3de9c327	0.114141755
105	0x3dcf4e55	0.101223625
106	0xbcba302f	-0.022728054
107	0xbe92997c	-0.28632724
108	0xbbc8eb3c	-0.0061315577
109	0x3c4d5381	0.012532116
110	0xbe7742e7	-0.24146615
111	0x3e8f7077	0.2801549
112	0xbe1e18fe	-0.15439221
113	0xbde2d908	-0.11076552
114	0xbdfd3a6f	-0.12364661
115	0xbe0f9997	-0.14023434
116	0x3cb1b9f2	0.021695111
117	0xbdefc7ca	-0.117080286
118	0xbe446bce	-0.19181749
119	0x3e6b7fc9	0.22997965
120	0x3dda3225	0.106540956
121	0xbdef3416	-0.116798565
122	0x3dd824bc	0.105538815
123	0x3e57f731	0.2109039
124	0x3e171f38	0.14758003
125	0xbe61853b	-0.2202348
126	0xbbe719c3	-0.0070526316
127	0xbe58a617	-0.21157108
128	0xbe0c1f64	-0.1368385
129	0xbe2b338f	-0.16718887
130	0x3ea826b2	0.32842022
131	0xbe00b3c7	-0.1256858
132	0x3e2d1524	0.16902596
133	0xbe4dec89	-0.20109762
134	0xbe0b90cc	-0.13629454
135	0x3e99144d	0.298983
136	0xbe427661	-0.1899047
137	0xbbbfe11c	-0.0058556926
138	0x3e90ed3d	0.28305998
139	0x3e8633f8	0.26211524
140	0xbaae0ca1	-0.001327891
141	0x3ea2229d	0.31667033
142	0xbea57417	-0.32315132
143	0x3e76699f	0.24063729
144	0x3cde7170	0.0271537
145	0x3e8a06b1	0.2695823
146	0xbe71ab67	-0.23600541
147	0xbe387c99	-0.1801628
148	0xbe556cd0	-0.2084229
149	0xbe074dd8	-0.13213289
150	0x3d10aa35	0.035318572
151	0x3e284ec0	0.1643629
152	0x3cc6eaf8	0.024281964
153	0x3d195390	0.037433207
154	0x3d36a900	0.044594765
155	0xbb41cc42	-0.002957121
156	0x3e52d0e8	0.20587504
157	0x3e5e59fe	0.21714017
158	0x3e9eb26e	0.30995506
159	0x3e2507d5	0.16116269
160	0xbe6ea32a	-0.2330443
161	0x3e791b8d	0.24326916
162	0xbc1691bc	-0.009190019
163	0x3e57809c	0.21045154
164	0x3ddf1a73	0.10893717
165	0xbe3df1f8	-0.18549335
166	0x3df25dc8	0.118342936
167	0xbd02fbc2	-0.031978376
168	0x3e67a702	0.22622302
169	0x3e5dcc99	0.21660079
170	0x3d349aff	0.04409313
171	0xbd369bfc	-0.044582352
172	0xbe90d2cb	-0.28285822
173	0xbe083c29	-0.133042
174	0x3dcf0702	0.101087585
175	0xbea4aec4	-0.32164586
176	0x3dfbef9d	0.12301562
177	0x3dcbbe87	0.099484496
178	0x3e3e420b	0.18579881
179	0x3db89d98	0.090144336
180	0xbe11ac45	-0.14225872
181	0xbe62ce59	-0.22149028
182	0x3d6f724e	0.05845862
183	0x3e36dc38	0.17857444
184	0xbe27b70a	-0.16378418
185	0x3e70b6e2	0.23507264
186	0x3e8eb4d2	0.2787233
187	0xbe60d036	-0.21954426
188	0x3e54f0e8	0.20795023
189	0x3e7a80ce	0.24463198
190	0xbd8307cb	-0.06397971
191	0x3e79dfab	0.24401729
192	0x3e82a738	0.25518203
193	0x3e512ec1	0.20427991
194	0x3dba1588	0.09086138
195	0xbd55389f	-0.05205595
196	0xbd09ebe9	-0.033672247
197	0xbe82af1f	-0.25524232
198	0x3e81189e	0.25214094
199	0x3e50cfd4	0.2039178
200	0xbe8a0485	-0.26956573
201	0xbe83f884	-0.2577554
202	0x3e96cac7	0.29451582
203	0xbe8237f6	-0.2543332
204	0x3e965fb7	0.293699
205	0x3e7cad56	0.24675497
206	0xbe6777e0	-0.22604322
207	0x3daeab0c	0.08528718
208	0xbe8c5dfa	-0.27415448
209	0xbe2bb2c8	-0.16767418
210	0xbd872d31	-0.066004165
211	0xbdda6dc7	-0.106654696
212	0xbe6b583d	-0.22982879
213	0x3d84b2a0	0.064793825
214	0x3d0e2da9	0.034711514
215	0xbd86e44f	-0.06586515
216	0xbc2c8b50	-0.010531262
217	0xbe6803a1	-0.22657634
218	0xbe5c1595	-0.21492608
219	0x3e29e4d8	0.16591203
220	0xbe769d20	-0.24083376
221	0xbe1e9d16	-0.15489611
222	0x3ca329a4	0.019917317
223	0xbe69cd3e	-0.228322
224	0x3e9734f6	0.29532593
225	0x3dd478e9	0.10374624
226	0x3e68b2c3	0.22724442
227	0x3ded0d74	0.115748316
228	0xbdc1e836	-0.09468119
229	0x3e5c4a65	0.21512754
230	0xbe6a1076	-0.22857842
231	0xbd78dff6	-0.06076046
232	0x3e51e026	0.20495662
233	0xbe85d5dd	-0.26139727
234	0xbdf059d7	-0.117358856
235	0x3e6a249f	0.22865532
236	0x3e96550b	0.29361758
237	0x3e82474d	0.25445023
238	0x3e00450e	0.12526342
239	0x3d9ffbd2	0.07811703
240	0xbe91da80	-0.28487015
241	0x3dcd64c4	0.10028985
242	0xbe24dc1f	-0.16099595
243	0x3df43000	0.11923218
244	0x3e9a37a6	0.3012058
245	0xbe679da3	-0.22618727
246	0xbbc3f428	-0.0059800334
247	0x3e9e401d	0.3090829
248	0xbe8781ad	-0.26466122
249	0x3e145c52	0.14488342
250	0x3ddd459c	0.108042926
251	0xbcc1e01b	-0.023666432
252	0xbe2245c0	-0.1584692
253	0xbe671e0a	-0.22570053
254	0x3cd7032d	0.026246632
255	0x3d99d289	0.075108595

linear1.bias f4 [64]
0	0x3ea441f6	0.32081574
1	0x3e973429	0.29531983
2	0xbd1bf8cd	-0.03807907
3	0x3e83d8e6	0.25751418
4	0xbe99ef5c	-0.3006543
5	0xbe849317	-0.2589347
6	0x3d243c3b	0.040096503
7	0xbe30698c	-0.17227763
8	0x3d61278a	0.054969348
9	0xbe679a4b	-0.22617452
10	0x3cab72b1	0.020928713
11	0x3dbec006	0.09313969
12	0xbe172fba	-0.147643
13	0x3e3ac2d1	0.18238379
14	0xbe7708a9	-0.24124397
15	0x3dfbfdf4	0.12304297
16	0xbe5d4c96	-0.21611246
17	0xbd53e8e8	-0.05173579
18	0x3e934f9c	0.28771675
19	0xbdbcdb33	-0.092214964
20	0x3e84eb81	0.25960925
21	0x3cb930b5	0.022606233
22	0x3e92ad33	0.28647766
23	0xbd6f2b38	-0.058390826
24	0xbd841c74	-0.064507395
25	0x3e5e41ab	0.21704738
26	0x3d72ba99	0.059259985
27	0x3e242fc4	0.16033846
28	0x3e91bdeb	0.28465208
29	0x3e62cb26	0.22147807
30	0x3d012f7a	0.031539418
31	0xbe5189b2	-0.20462683
32	0xbe957a8b	-0.29195055
33	0xbe50919e	-0.20368049
34	0x3db2c8ae	0.08729683
35	0xbdcecebb	-0.100980245
36	0x3e987360	0.29775524
37	0xbe9bd6e5	-0.3043739
38	0x3d8c846a	0.068611935
39	0xbe296e82	-0.16546062
40	0x3e2a9112	0.16656902
41	0x3db57fe2	0.08862282
42	0xbcc74024	-0.024322577
43	0x3e06c36e	0.13160488
44	0xbe89a82d	-0.2688612
45	0xbe442a4e	-0.19156763
46	0xbe7301e8	-0.23731196
47	0xbe485afa	-0.19565955
48	0xbe38a82b	-0.18032901
49	0xbe296fba	-0.16546527
50	0x3dd53bfb	0.10411831
51	0xbe81bfad	-0.2534155
52	0x3e6d3aab	0.23166911
53	0x3d3de8b3	0.046364497
54	0xbe8a7871	-0.27045015
55	0xbe9246fb	-0.2856978
56	0x3e3265f9	0.17421712
57	0xbe780d64	-0.24223858
58	0x3e952c4d	0.2913536
59	0xbe5518b3	-0.20810203
60	0xbe98d90b	-0.2985309
61	0x3dc06698	0.09394568
62	0x3e959344	0.29213917
63	0x3df7aaf0	0.120931506

linear2.weight f4 [128, 64]
0	0x3d826302	0.063665405
1	0x3cf8d6a1	0.03037578
2	0xbda1190b	-0.07866105
3	0xbdc580db	-0.09643718
4	0x3d2ec6cc	0.042670056
5	0x3dd416d6	0.10355918
6	0x3bbb1f54	0.0057105217
7	0x3cf4c428	0.02987869
8	0xbd897207	-0.06711202
9	0xbd857a68	-0.06517488
10	0xbd912e32	-0.07088889
11	0xbd8f419c	-0.06994936
12	0xbd7cc56b	-0.06171171
13	0xbdefbdbe	-0.11706112
14	0x3d50f8e6	0.051018618
15	0x3d801c52	0.06255402
16	0xbda5ba3e	-0.080921635
17	0xbc7334e9	-0.014844158
18	0x3d7fbc69	0.06243554
19	0xbdbc7c58	-0.09203404
20	0xbd1183f1	-0.03552622
21	0xbc8bbd84	-0.017058142
22	0xbc454226	-0.012039697
23	0xbd47dac8	-0.04879263
24	0x3db7cf82	0.08975126
25	0x3deec203	0.116580985
26	0xbd22a784	-0.039710537
27	0x3bf2c17f	0.0074083204
28	0xb897269d	-7.2074334e-05
29	0xbcc37bf8	-0.023862824
30	0x3cc7cfd8	0.0243911
31	0xbcad0f14	-0.021125354
32	0x3dbeea70	0.09322059
33	0xbcf9d7f3	-0.03049848
34	0xbc235395	-0.009968658
35	0xbd153d64	-0.0364355
36	0xbdec6fa4	-0.11544731
37	0xbda2f681	-0.07957173
38	0x3dc6308a	0.09677227
39	0x3da536a5	0.08067063
40	0xbd82c1e1	-0.06384636
41	0xbd67b749	-0.05657128
42	0x3d726e10	0.059186995
43	0x3d0aea52	0.03391487
44	0x3d78629a	0.06064091
45	0xbdf4d185	-0.11954025
46	0xbdd15586	-0.102213904
47	0x3d781d11	0.060574595
48	0xbd85d8e3	-0.065355085
49	0x3dc0eef2	0.09420575
50	0x3dee3dc6	0.11632876
51	0x3c190060	0.009338468
52	0x3dadaca4	0.08480194
53	0xbda4cc2f	-0.080467574
54	0x3d8568f0	0.06514156
55	0xbd230d68	-0.039807707
56	0x3d27335e	0.040820472
57	0x3d7a2398	0.0610691
58	0xbdfb3657	-0.12266224
59	0xbd43644b	-0.04770307
60	0x3d46ce24	0.048536435
61	0x3d3f7d08	0.0467501
62	0xbdb0ec82	-0.0863886
63	0x3d6e406b	0.058166903
64	0x3d9f7578	0.07786077
65	0x3c9a4a17	0.018834157
66	0xbc84eed9	-0.016227173
67	0x3e14cf80	0.1453228
68	0xbdb4e892	-0.08833422
69	0xbd869b8c	-0.06572637
70	0x3dcc5c67	0.09978562
71	0xbb7d3ac4	-0.0038639763
72	0x3d81e6aa	0.06342824
73	0x3dcb6bbd	0.09932659
74	0xbd0c2d3f	-0.034222838
75	0xbc7c2f4a	-0.015392134
76	0x3b90e63b	0.004421977
77	0x3d4de62e	0.050268345
78	0x3e06ac99	0.13151778
79	0x3df753d1	0.120765336
80	0xbda7830d	-0.08179293
81	0x3d9f2d3b	0.07772299
82	0x3d72d64f	0.05928641
83	0xbd09d8c5	-0.033653993
84	0xbd3ae4db	-0.04562841
85	0x3dcf5265	0.101231374
86	0x3e1b681b	0.15176432
87	0x3c3a43f1	0.011368738
88	0x3ddb29ef	0.107013576
89	0x3e1e383c	0.15451139
90	0x3def0854	0.1167151
91	0x3d1b6c25	0.03794493
92	0x3dc06b61	0.09395481
93	0x3dc89959	0.09794874
94	0x3c0dcee9	0.008655288
95	0x3c9c6e25	0.01909549
96	0xbdd60846	-0.10450797
97	0x3cabc8fd	0.020969862
98	0x3c51d0ab	0.012806098
99	0x3dce30de	0.100679144
100	0xbd6a8ff1	-0.05726618
101	0xbdde5c9d	-0.10857508
102	0x3d903c07	0.07042699
103	0xbcbe3eae	-0.023223247
104	0xbd9bd7dc	-0.07609531
105	0xbcb14c29	-0.021642761
106	0xbdc35bdb	-0.095390044
107	0x3dd77f93	0.1052238
108	0x3dd11c0a	0.10210426
109	0xbd258c68	-0.040417105
110	0x3d6ff882	0.058586605
111	0xbd3d5a01	-0.046228413
112	0x3c55772b	0.0130289
113	0x3db8aca0	0.090173006
114	0xbd6d2295	-0.057894308
115	0xbdcf5fbf	-0.10125684
116	0xbc94e51d	-0.018175656
117	0x3db73c4e	0.08947049
118	0x3bfd30f1	0.0077267815
119	0xbd67c07c	-0.05658005
120	0x3e045235	0.12921984
121	0x3da1c4a2	0.07898833
122	0xbd176fca	-0.036971845
123	0x3c8c10dd	0.017097885
124	0xbd4a2781	-0.04935408
125	0x3de7e282	0.113225
126	0x3df5c2f2	0.120000735
127	0x3e156e6e	0.14592907
128	0xbdde2d69	-0.10848505
129	0xbdded4fa	-0.10880466
130	0x3de13e46	0.10998206
131	0x3c877f0c	0.016540073
132	0x3c547d40	0.012969315
133	0xbdd14000	-0.10217285
134	0x3dbddacd	0.092702486
135	0x3dbb5782	0.0914755
136	0xbbddc98f	-0.0067684124
137	0xbd1976a9	-0.03746668
138	0x3d3a1d7a	0.045438267
139	0xbdb4b45b	-0.088234626
140	0x3ddfecf6	0.109338686
141	0x3c5542d5	0.013016422
142	0x3c6d6dcd	0.014491511
143	0x3c8c69f7	0.017140372
144	0xbd089ca8	-0.033352524
145	0xbc8dd6f4	-0.017314412
146	0x3d726cd5	0.05918582
147	0xbde3fb92	-0.111319676
148	0xbc7e3759	-0.015516126
149	0xbdcdb41e	-0.1004412
150	0xbd6535fd	-0.05595969
151	0xbcf3a5e9	-0.029742198
152	0xbd68f564	-0.056874648
153	0x3da6c781	0.08143521
154	0x3baeb6c1	0.0053318446
155	0xbd65524a	-0.05598668
156	0xbdb0fe62	-0.0864227
157	0x3c11f965	0.008909558
158	0xbc8fd5c3	-0.017557984
159	0x3dc0843a	0.0940022
160	0xbd2ae624	-0.041723385
161	0xbd6c9c0e	-0.057766013
162	0xbc1d9021	-0.009616883
163	0x3c9a6740	0.018848062
164	0x3b4917ab	0.0030684273
165	0x3d56051d	0.05225097
166	0xbdb5d811	-0.08879102
167	0xbdc694cd	-0.0969635
168	0x3d06abb7	0.032878604
169	0x3d5e34d5	0.054249603
170	0xbd6994f3	-0.057026815
171	0xbceea9b1	-0.02913365
172	0x3df146f9	0.11781115
173	0xbdcab9bf	-0.098987095
174	0xbd46f56d	-0.0485739
175	0x3d88b05a	0.066742614
176	0xbd2aeb27	-0.041728165
177	0xbe020878	-0.12698543
178	0x3a5e408a	0.0008478245
179	0x3c876438	0.01652728
180	0x3cd57532	0.02605686
181	0xbd3dcebe	-0.046339743
182	0xbd8da230	-0.069157004
183	0xbdd5afc3	-0.104339145
184	0x3d4151d2	0.04719717
185	0xbdfee73e	-0.1244645
186	0x3ccb5a74	0.024823405
187	0x3de4d493	0.11173358
188	0xbd7f326b	-0.06230394
189	0xbd36bfe7	-0.044616606
190	0x3dd51215	0.104038395
191	0x3d3f5a87	0.046717193
192	0xbc8d1ac4	-0.017224677
193	0xbc937910	-0.018002063
194	0xbd105434	-0.035236552
195	0xbcc9a22c	-0.024613462
196	0xbde065be	-0.10956906
197	0xbddc1d8a	-0.10747822
198	0xbc4b859c	-0.012421992
199	0x3d7df26f	0.06199878
200	0x3d1c1655	0.038107235
201	0x3d467262	0.048448928
202	0x3d82ff1e	0.06396316
203	0xbd9aa566	-0.075510785
204	0x3d8430f6	0.06454651
205	0xbd11305c	-0.03544651
206	0xbd5a865d	-0.053350795
207	0xbbb1ec3f	-0.005429774
208	0xbdada930	-0.084795356
209	0x3dd89f38	0.105772436
210	0xbd51da0c	-0.051233336
211	0xbcb01e58	-0.021498844
212	0xbc160bff	-0.0091581335
213	0xbd8555f3	-0.06510534
214	0xbdaaf719	-0.083479114
215	0x3d589579	0.052876923
216	0x3ba405a9	0.0050055576
217	0xbd55d0e3	-0.052201163
218	0xbd840cbd	-0.06447742
219	0xbcc6f7b7	-0.024288042
220	0x3dcb8f5a	0.099394515
221	0xbdb77a7c	-0.08958909
222	0xbdd3ec33	-0.10347786
223	0x3d9ae1a7	0.07562571
224	0x3d90b0b2	0.07064952
225	0xbb5ea5e6	-0.0033973395
226	0xbd665730	-0.056235492
227	0xbbb94858	-0.005654376
228	0x3d8b553e	0.06803368
229	0x3d679e1c	0.05654727
230	0x3d0b3f3f	0.033995863
231	0x3d930da7	0.07180338
232	0x3d81266d	0.06306157
233	0xbde84d15	-0.11342827
234	0x3dbd5289	0.09244258
235	0x3d86013c	0.06543204
236	0x3dd49fa7	0.10382014
237	0xbd799c1b	-0.06093989
238	0xbb8d08d1	-0.0043040295
239	0x3d4fbcc8	0.050717145
240	0xbdb2d598	-0.08732146
241	0xbdea6445	-0.11444906
242	0xbd598f7a	-0.053115346
243	0xbddcbe5e	-0.10778497
244	0xbdd9202c	-0.106018394
245	0x3d7a91dd	0.061174262
246	0xbdc03979	-0.09385962
247	0xbd6c4c53	-0.057689976
248	0xbdf9db32	-0.12200011
249	0xbd29080c	-0.04126744
250	0xbdfe1556	-0.12406413
251	0xbcce4621	-0.025179924
252	0x3dac62d9	0.08417291
253	0xbc30c7a7	-0.010789788
254	0x3d355ef9	0.044280026
255	0xbd321c98	-0.0434843

linear2.bias f4 [128]
0	0xbd13c62e	-0.03607767
1	0xbcf1a2d5	-0.02949659
2	0xbc62f973	-0.013853419
3	0x3d9eb744	0.07749799
4	0x3dfabeb4	0.12243405
5	0x3dd8339a	0.10556717
6	0x3c980697	0.01855783
7	0xbd734e8e	-0.059401087
8	0xbcba2958	-0.022724792
9	0x3d2fc37a	0.04291103
10	0x3ccf67e7	0.0253181
11	0x3da81f31	0.08209074
12	0x3d0122c6	0.031527303
13	0x3dcca6e3	0.099927686
14	0x3dddfc63	0.108391546
15	0x3d2b9d12	0.04189784
16	0x3db1631d	0.086614825
17	0x3cb01805	0.021495828
18	0x3e1e148d	0.15437527
19	0xbc579829	-0.013158836
20	0xbdb53369	-0.08847696
21	0x3dbc8c76	0.09206478
22	0xbd036d74	-0.032086805
23	0x3d4e5acb	0.050379556
24	0x3dc1bfe6	0.0946043
25	0xbd240115	-0.040040094
26	0xbdd4cfd8	-0.103912055
27	0xbd674e55	-0.056471188
28	0xbdbee17c	-0.093203515
29	0xbc80c57e	-0.015719172
30	0x3d10af42	0.03532339
31	0xbdcefe21	-0.10107065
32	0x3e121d3b	0.14268963
33	0x3d8693c9	0.065711565
34	0xbd5796f6	-0.052634202
35	0x3d28899e	0.041146867
36	0x3d5aeb5e	0.05344712
37	0xbd6bd365	-0.05757465
38	0x3dcbe2c2	0.0995536
39	0xbddde4a3	-0.108346246
40	0xbd3b1c80	-0.045681477
41	0xbd07359d	-0.033010114
42	0x3dc53c2a	0.09630616
43	0xbdc97ce6	-0.098382756
44	0x3d0280be	0.03186106
45	0xbd99a377	-0.075018816
46	0xbd8b3885	-0.067978896
47	0x3cef02cf	0.029176144
48	0x3dd6e9fd	0.104938485
49	0x3d7c2e5f	0.06156766
50	0x3dce6c7c	0.100792855
51	0x3d16afff	0.036788937
52	0xbbc91d54	-0.0061375294
53	0xbda149b4	-0.07875386
54	0x3d8e8714	0.06959358
55	0xbdb6bcf8	-0.08922762
56	0xbd9c224f	-0.07623731
57	0x3ddbf8d9	0.10740823
58	0xbd730c64	-0.05933799
59	0xbc15949e	-0.009129671
60	0xbbf17936	-0.007369186
61	0xbd1cd2a3	-0.038286816
62	0xbdcbe9ee	-0.09956728
63	0x3c9a8a86	0.018864881
64	0x3cdaa6bf	0.026690839
65	0xbd4bc930	-0.049752414
66	0x3dccb533	0.099954985
67	0x3d862b51	0.06551231
68	0xbdc9cea1	-0.098538645
69	0x3e10181b	0.14071696
70	0x3dd2b2a2	0.10287978
71	0x3d93c7bd	0.072158314
72	0xbdd7165a	-0.1050231
73	0xbc91e7d1	-0.017810734
74	0xbde28fe0	-0.11062598
75	0xbd2923ea	-0.041294016
76	0x3e033f5a	0.12817135
77	0xbdab9d05	-0.083795585
78	0x3dc1bbba	0.09459634
79	0xbcf4f4d9	-0.029901909
80	0x3dbe478e	0.09290992
81	0x3d8990ea	0.06717093
82	0xbc582530	-0.01319246
83	0x3d7b057c	0.061284527
84	0xbd649597	-0.055806722
85	0xbdae52d6	-0.085118935
86	0x3d9371d0	0.071994424
87	0xbe03ab78	-0.12858379
88	0xbdf7d292	-0.1210071
89	0x3dc9b00e	0.09848033
90	0x3ce7044d	0.028200293
91	0x3d4492e4	0.04799165
92	0x3c5713a3	0.01312724
93	0xbdc02e18	-0.09383792
94	0xbc86a8a6	-0.01643784
95	0xbcb3a0fb	-0.021927347
96	0x3d5fec1f	0.054668542
97	0xbd50c819	-0.050972078
98	0xbd8aa6e2	-0.067701116
99	0x3d7f318f	0.062303122
100	0xbd7bc10a	-0.061463393
101	0xbdedd119	-0.11612148
102	0x3d4d6bae	0.05015152
103	0xbd12732c	-0.035754368
104	0x3dc5b5fa	0.0965385
105	0xbd8b1808	-0.06791693
106	0x3ddd6e92	0.10812105
107	0x3e1b07fd	0.15139766
108	0x3c172e3a	0.00922733
109	0x3da93ec9	0.082639284
110	0x3d93a229	0.07208664
111	0x3d8d178d	0.068892576
112	0x3e03af3b	0.12859814
113	0x3dd1fd54	0.10253397
114	0x3d5ada22	0.053430684
115	0xbdec7417	-0.1154558
116	0xbd053709	-0.03252319
117	0x3d870636	0.065929815
118	0x3db29abb	0.08720919
119	0xbdb8b06e	-0.09018026
120	0x3d4152c2	0.047198065
121	0x3dab00f3	0.083497904
122	0x3d4811fc	0.048845276
123	0xbdbc6df4	-0.092006594
124	0xbdd19c3a	-0.10234876
125	0x3c06ddaf	0.008231564
126	0x3decc649	0.115612574
127	0xbd0c2ec8	-0.0342243

linear3.weight f4 [1, 128]
0	0x3c7a45f4	0.015275467
1	0xbd314e18	-0.043287367
2	0x3d845a7a	0.064625695
3	0x3b9c869e	0.00477679
4	0xbdca5637	-0.098797254
5	0x3d1390d7	0.036026802
6	0x3c380d6f	0.011233672
7	0xbdc337b3	-0.09532108
8	0xbd3b88c8	-0.04578474
9	0x3cf7a923	0.030232018
10	0xbd55f648	-0.052236825
11	0xbde9aa30	-0.11409414
12	0xbd702ad6	-0.0586346
13	0xbd82a255	-0.06378619
14	0xbdd42c8d	-0.1036006
15	0xbdaff6ed	-0.08592019
16	0xbd959724	-0.073042184
17	0xbd39d151	-0.045365635
18	0xbd8533bd	-0.06504009
19	0xbaa22f00	-0.0012373626
20	0xb9d13b2c	-0.00039907673
21	0xbdc47cdb	-0.09594127
22	0x3a580b00	0.0008241385
23	0x3c1130f4	0.008861769
24	0xbd0b77b4	-0.034049705
25	0xbcd7a365	-0.02632303
26	0x3d47478e	0.048652224
27	0xbde027a8	-0.10945064
28	0xbc849bf0	-0.016187638
29	0x3d96546c	0.07340321
30	0xbd5b9ebc	-0.053618178
31	0x3ccd79dc	0.025082521
32	0xbdd74a0f	-0.105121724
33	0x3cf172fb	0.029473772
34	0x3cade767	0.021228505
35	0x3d3e8e46	0.0465224
36	0xbdb0c873	-0.08631983
37	0x3c989391	0.018625053
38	0x3d8260da	0.06366129
39	0x3caee51d	0.021349484
40	0xbbfbdee0	-0.007686481
41	0xbd9b74c8	-0.07590634
42	0xbdba88bc	-0.09108111
43	0x3d86464f	0.06556379
44	0x3d9fbc3d	0.077995755
45	0x3d03ec05	0.032207508
46	0x3d2c808e	0.042114787
47	0xbd3c0ab4	-0.045908645
48	0x3cc04912	0.023472343
49	0xbd9f2666	-0.07770996
50	0x3d2f14db	0.0427445
51	0xbbb97cb8	-0.0056606196
52	0xbd1acaba	-0.03779099
53	0x3d94c887	0.0726481
54	0xbc41634d	-0.01180346
55	0xbd500dbf	-0.05079436
56	0xbd6c3f27	-0.057677414
57	0x3cb70b7e	0.022344347
58	0xbd94caac	-0.07265219
59	0xba2c063d	-0.0006562209
60	0xbba0a5fa	-0.0049025984
61	0xbdbe2a65	-0.0928543
62	0x3d32e818	0.043678373
63	0x3d9ac4c6	0.07557063
64	0x3cd6a8d8	0.026203558
65	0xbd913e00	-0.07091904
66	0xbd9a60d4	-0.07538
67	0xbd776983	-0.06040336
68	0xbdbe5941	-0.092943676
69	0xbdb89dd4	-0.09014478
70	0x3ca73211	0.020409616
71	0x3d1b8243	0.037966024
72	0xbd3b6c90	-0.04575783
73	0xbdcf8c84	-0.10134223
74	0x3d5240aa	0.0513312
75	0xbd9a8096	-0.07544057
76	0xbd9f86a4	-0.077893525
77	0xbdcb2bee	-0.09920488
78	0x3c075f7a	0.0082625095
79	0x3d2dd5a8	0.042440087
80	0xbd8d124a	-0.06888254
81	0x3d03aed7	0.032149162
82	0x3d18b142	0.03727842
83	0x3b1c4a93	0.002384816
84	0x3d803dea	0.06261809
85	0x3cb85b6e	0.022504535
86	0x3b9bae8a	0.0047510313
87	0x3c3fabdf	0.011698692
88	0x3d247664	0.04015197
89	0xbde6fa63	-0.11278226
90	0xbdf3df26	-0.119077966
91	0xbde4a72f	-0.111647
92	0xbd850489	-0.06495006
93	0xbd6108d1	-0.05494005
94	0xbd80ccbd	-0.06289051
95	0x3be1ab12	0.0068868482
96	0xbbda1079	-0.0066547957
97	0x3d25ab8c	0.040446803
98	0x3d9e2532	0.07721938
99	0x3d0d9bd1	0.034572426
100	0x3cad9f9b	0.02119427
101	0x3d4d073a	0.05005572
102	0xbdb775bf	-0.08958005
103	0xbda084ff	-0.07837867
104	0xbd3a0afc	-0.04542063
105	0xbcd96c92	-0.026541028
106	0xbddd7cdb	-0.1081483
107	0xbd450ff0	-0.048110902
108	0xbb0d48d3	-0.00215583
109	0x3c4e71bb	0.012600358
110	0x3d4aa719	0.049475763
111	0xbb9580be	-0.0045624664
112	0xbd95082e	-0.07276951
113	0xbdd5e9f5	-0.104450144
114	0xbdd821b2	-0.10553302
115	0x3da30105	0.07959179
116	0x3d9f22a2	0.077702776
117	0xbde65dbd	-0.11248348
118	0xbc13e9bf	-0.009027897
119	0xbd981541	-0.07425929
120	0x3c9a2a25	0.018818924
121	0x393bf4c3	0.0001792489
122	0x3d09e597	0.03366622
123	0xbdad2057	-0.08453434
124	0xbd953ea0	-0.072873354
125	0xbd9fc31e	-0.078008875
126	0xbded00cb	-0.11572417
127	0x3da95adb	0.082692824
