src/pepper_training/training_results/2023-1-5-random_cube_2/model/critic-random_cube_2.pkl (torch, 542615 bytes, 5 tensors)

linear1.weight f4 [256, 11]
00000000: fc15 0cbd d47e d2ba 6520 80bd b99e 503e
00000010: cd29 20be d797 593e 6097 5abe e6fd 0b3e
00000020: 4ecb 843d cfe8 7e3d 23ae 29bd aedf 633e
00000030: 8f0c 67be ebab 513e 593a 363e 72a2 bebb
00000040: 7791 28be efd4 a23e 86fd 4dbe f3fb 883e
00000050: ab20 8d3e d9d4 213e 489e 59be 22d2 963e
00000060: 9027 0abe 9850 293d 6e8d 57be b449 643e
00000070: 7221 393e a081 003c 4a33 d0bd 203f 09bd
00000080: ff9a 73be 83e9 9cbe 030f bb3e 510b c13d
00000090: e850 ebbc 176d 443c d788 323d 28d8 88be
000000a0: 453c 50be 7d9e 34be a97d 1bbe 4302 75be
000000b0: 3eeb 5a3d 7925 433d 5ebc 8e3e 8dc7 6ebe
000000c0: 7b1b acbd 0c8e 8abd 32c9 4ebd 7f11 353e
000000d0: 2fe6 3f3c 1ee5 3d3d 76ff f9bd 8930 05bd
000000e0: cb5e 78bd 814e 643e 1890 30be 6761 7dbd
000000f0: 6d82 3f3e 2470 143e 3960 373a e082 8b3e
00000100: 13c2 04bd 5464 1ebe 5ac6 5fbe 2743 72be
00000110: f9db 46bd fc15 2bbe fd9c 1e3d aac8 de3d
00000120: 376e b53e 6976 1fbe 8a23 1cbe 2909 a9bd
00000130: eedf 7dbe 88f1 5f3d 0b08 91bb f7f9 e8bd
00000140: 582a 81be cd41 823d 1061 3c3e 0166 8e3d
00000150: 5640 1ebd cd07 13be bef6 96bb e9cc f4bd
00000160: cab3 56be 1a66 02be e101 a6bd f0ef 303a
00000170: c446 8a3d d2d0 9b3d e525 443e f335 96be
00000180: d06b 993e 15c7 14be 59d9 1f3d 1fba a4be
00000190: 18da 1bbd 478b 66be 5bf3 3bbc dce7 7b3e
000001a0: 07d0 803a 17dc 113e 6271 c83d 6585 47be
000001b0: 3960 6cbd 5741 143e c350 3fbe 100c b9be
000001c0: d708 353c d48c 733e c8ec a1bc 1b12 e3bd
000001d0: 9bde d4bc 83d2 8a3d 6268 a63e 76db 96bd
000001e0: 6d57 143e 656c c83d 446f 6ebe 7974 a33c
000001f0: 4046 c6bd d98e 893e 8fd6 0fbe 8d55 5fbd
00000200: dca8 b4bd d946 443e 5cac 28be dbf5 dd3d
00000210: 4472 1abe aad8 8dbe 0a74 333e 4d61 33be
00000220: 092c 023e 129c 4e3e 7e78 01be 0c2b acbe
00000230: 36b1 713d 9d69 103d 537e 9fbe 646a adbe
00000240: a259 a0be 2b0b 473d 63d6 ea3d 4360 c73d
00000250: 025d 3d3e b514 393e 8591 b0be 4ee1 2c3e
00000260: 6ebf 953d e66e 103e cc73 fd3b abc2 8a3d
00000270: ab8a 8abd 9a6e 4abd 214a a23e 867c 13be
00000280: 59ce 253e 1973 32be 71f7 f2bd 0dca 753e
00000290: 9355 2dbe e814 7e3e a7fa 0f3c 5910 aa3e
000002a0: 2e0f 54bd 2fda 133d 8213 6e3e 0937 07be
000002b0: 760e 95be f4e8 483e d2b6 9b3e 2761 53be
000002c0: f306 9ebe 97bb 3f3e 844a 903e de85 3b3e
000002d0: 43f6 e53d bd66 92bd 62f6 143e 8172 133e
000002e0: 6a5e 1fbe 3d93 8f3e a3a5 b0be 5586 1a3e
000002f0: 5a44 84be 565d a63e 2888 a63d 7442 413e
00000300: a9de 54bd 11c6 b73e 6ac4 263e 12c1 b8bd
00000310: 3773 793e 7d80 29bd 94df 6fbe 435f 99be
00000320: e0a8 5cbe 4657 80be 0847 bbbd f374 fa3d
00000330: 7b38 a23e 8319 a0bd c58f 4cbe 1ac0 5b3e
00000340: 9bde d43d 3c8b 27be c40c e63d d9e3 83be
00000350: 7055 29be 6dfe 42be 7c89 bb3d 2444 613e
00000360: b802 0abd 6a27 66be 3408 1bbe bc1f 01be
00000370: 1840 89be 42fa 3b3e e1cf 883e 6c35 6cbe
00000380: 6a22 593d cb7c 243d 4448 2bbc 165e 2abe
00000390: 9447 d3bc 9427 993d 1f7c a3be b2da 833e
000003a0: 2e03 da3d c871 763e 6cbd 4e3e ebec 27be
000003b0: a855 193e 3c4a 293e aa04 8ebd 805a a5bd
000003c0: 1cf0 7d3e c351 7ebe 1995 64be 5e5a 89bd
000003d0: 6602 ad3d d3ff 9f3e 7136 4b3e 4682 4d3d
000003e0: cb00 a43e 486b 6cbe 499d 783e 7062 64bd
000003f0: ebd2 01bd 6400 23be 65d5 2cbe 5941 e83d
-0.034200653 -0.0016059526 -0.06256179 0.20373048 -0.15640946 0.21249329 -0.21346807 0.13671073
0.0648409 0.062233742 -0.041425835 0.22253296 -0.22563384 0.20475738 0.17795695 -0.005817705
-0.1646174 0.3180308 -0.20116243 0.26754722 0.27563986 0.15803851 -0.21251786 0.29457194
-0.13491654 0.041336626 -0.21050045 0.2229374 0.18079165 0.007843405 -0.101660326 -0.033507466
-0.23789595 -0.30646905 0.3653489 0.094259866 -0.028725103 0.0119889 0.043587532 -0.26727414
-0.20335491 -0.17638583 -0.15184654 -0.23926644 0.053447 0.04764316 0.27878088 -0.2331831
-0.08403679 -0.067653745 -0.050484844 0.17682455 0.011712595 0.04636108 -0.122069284 -0.03251699
-0.060637277 0.22295572 -0.17242467 -0.06186047 0.18702097 0.14495903 0.0006995234 0.27248287
-0.032411646 -0.1546796 -0.21853009 -0.23658429 -0.048549626 -0.16707605 0.038723934 0.108781174
0.3543565 -0.15572514 -0.15247932 -0.082537 -0.24792454 0.0546737 -0.0044260076 -0.11375802
-0.25227618 0.06360207 0.18396401 0.069530495 -0.038635574 -0.14358445 -0.0046070507 -0.11953146
-0.20967022 -0.12734261 -0.08105827 0.00067496207 0.06751779 0.07608189 0.1915508 -0.29338035
0.29965067 -0.14529069 0.03902564 -0.3217325 -0.038049787 -0.22514068 -0.011471595 0.24600166
0.0009827622 0.14244114 0.09787251 -0.1948448 -0.057708953 0.1447805 -0.18683152 -0.36142015
0.011049471 0.2378419 -0.019766226 -0.11087438 -0.025985053 0.06778433 0.32501513 -0.073660776
0.14486475 0.097862996 -0.23284632 0.019953 -0.09681368 0.26866797 -0.14046691 -0.054524947
-0.0882127 0.19167651 -0.16472 0.10837909 -0.15082651 -0.27704364 0.17524734 -0.17517586
0.1271211 0.20176724 -0.1264362 -0.33626592 0.059006892 0.03525697 -0.31151065 -0.33870232
-0.31318384 0.048594635 0.11466672 0.09735157 0.18492511 0.18074305 -0.34486023 0.16882822
0.07311903 0.14104804 0.0077347513 0.06775411 -0.0676473 -0.049421884 0.3169718 -0.1440297
0.16191997 -0.17426719 -0.11863602 0.24002858 -0.16927175 0.24812663 0.0087877875 0.33215597
-0.05177229 0.036096748 0.23249629 -0.13204588 -0.29112595 0.19620115 0.30412918 -0.2064253
-0.30864677 0.18723904 0.2818185 0.18312785 0.11228611 -0.07148502 0.14547113 0.14399149
-0.1556336 0.2804202 -0.3450137 0.15090306 -0.25833398 0.32493085 0.081314385 0.18873006
-0.051970158 0.358933 0.16285864 -0.090212 0.24360357 -0.0413823 -0.23425132 -0.2995549
-0.21548796 -0.25066584 -0.091444075 0.122293375 0.31683716 -0.07817366 -0.19976719 0.2146
0.10394021 -0.16361707 0.112329036 -0.2575977 -0.16536498 -0.19042368 0.091570824 0.2199865
-0.033694 -0.22475973 -0.15139848 -0.12609762 -0.26806712 0.18357185 0.267211 -0.23067254
0.053011335 0.040158074 -0.010454241 -0.16637453 -0.025790967 0.07478252 -0.31930634 0.2575279
0.10645138 0.24066842 0.20189446 -0.16398971 0.14974082 0.16532224 -0.06934483 -0.08073902
0.24798626 -0.24835877 -0.22322501 -0.06706689 0.08447723 0.31249866 0.19844986 0.050173067
0.32031855 -0.230878 0.2427875 -0.05575794 -0.031695288 -0.15918118 -0.16878279 0.11340589

linear1.bias f4 [256]
00000000: cb05 ca3d a68c 153e 7e0f 6abe 294c 50be
00000010: 053e 15be a4e1 753e fbdc 283e efd4 b83e
00000020: 9cc6 903e 700f 5d3e 4aee bd3e 7629 173e
00000030: 1d86 503e 2bd1 03bd 01e0 01bd ff42 663e
00000040: 7df1 283e 5c44 773e a661 bf3e de2d 8ebe
00000050: 091d ae3e 0fcd 8fbe bfd7 5b3e 4587 b33e
00000060: 863f 3cbe 523c 73be 956d 003e 4c0d 95be
00000070: 6f12 83be 1263 403e 8735 a2bc e943 383e
00000080: 5f25 53bd 3863 a73e c21f 85be 4748 9f3e
00000090: cb9f 44be cf0c 9a3e 0e57 603b 9c01 39be
000000a0: edc6 8d3e b221 a93d 1cc4 31bc 8d73 fc3d
000000b0: e631 603e 8a90 2b3e a189 c73e f380 b9bd
000000c0: 7048 dc3d b4a0 a63e 1292 a43e 6a76 48be
000000d0: cb42 283d 5870 97be 0b1a 96be 788d 23be
000000e0: 6b65 763e 12f3 47be 0c23 bc3e 1cdd 773e
000000f0: ca5c a43d 78c4 963e 354b 533e 3fd5 fe3c
00000100: 9cd5 c83e f397 0a3d 9798 abbd e241 b93e
00000110: 7c03 9b3e 7b8a fc3d 01db a73e 47ef 113e
00000120: e111 bf3c 44b1 883e bfde fd3d feb7 37bd
00000130: f4c4 79be 43a5 b53e f9bf 893d dde7 3d3e
00000140: 449b ce3d f11c 073d b299 81be 0659 e5bc
00000150: e1c1 bb3d 5cab b13e 4425 853e aeac 73be
00000160: 9dea 593e 2481 c93a 2c61 17bd 7381 45be
00000170: 38a3 473e 98f3 593e 965b f1bd 0c06 b13e
00000180: 6aee a13d f50b a7bd 3e99 25be e185 893e
00000190: 06d4 6dbd fd59 00be b3da 803e 43e2 1ebe
000001a0: 21de 03bd f4cb 8ebe ce6b 4b3e f964 1a3e
000001b0: 4b88 ac3e 62a7 923d 1fa8 6a3e e341 a0bd
000001c0: 17dc 733e 89d0 093e 6e3e b03e e6d4 8abe
000001d0: bfb6 9b3e c59f 29be bb00 c8bd 099f 59be
000001e0: d905 463e 74cc e93c db07 fe3d 8cf2 4d3d
000001f0: 080d 75bd c1cc 8f3e 621a 0fbe fd04 8d3e
00000200: 1dc4 fbbd 7b23 45be 5e1e 98be 6627 86be
00000210: 98dc 9b3e e2f3 443e 2477 933c 4462 af3e
00000220: db96 993d 0076 0e3d 92b6 443e 5afc 993e
00000230: 6687 91be fa59 833d 2903 0b3e 9960 753d
00000240: a362 9cbd 622e 473e 14e7 113e 7eab 9d3d
00000250: 0160 32be e4f7 59be 465a 813e d75f 20be
00000260: 6463 b93e 5172 b4bc 0214 bd3e acd1 87be
00000270: edfe 94be 1fa7 66bd 9ca9 03be 6ae8 6e3d
00000280: 5b24 0c3c 665f 8d3d 4c78 0bbe 395b 123e
00000290: 7c06 653e 96ed 87be 2f93 f0bd 3f7a 55bd
000002a0: 2670 d8bd 4ba7 98be 77f6 313e b877 063e
000002b0: 16d2 6fbd ee8d 913e 25df 313d 5b44 03bd
000002c0: e639 ad3d e4d4 c03d 0940 b03e e8b8 43be
000002d0: 0270 86be f8af b83c be66 5ebe 91f0 5abd
000002e0: ccc2 ba3e 35a2 8f3e 9144 c63d 7e65 f53d
000002f0: 7d40 16bd af51 b43d 2a46 54bd 435f 38bd
00000300: 0b0c 993e 4609 dd3a 0d88 bbbc c6d3 a63e
00000310: f679 dcbd 72d8 8abe 2be0 02be b5c9 c83e
00000320: 2a4c 983e 5510 5ebe f4b3 b23e 33bb 1cbd
00000330: c9b0 ae3e c8b2 7dbe 6ba7 5f3e e95d 6fbd
00000340: 007a 11bd 78d6 8fbe 9bb0 66be 47ff b83e
00000350: d941 ad3e 96dc 2cbe 236a 73bc 7ad1 a73e
00000360: 9e86 a93e 5fbb bc3e f612 983e 87cc 3f3e
00000370: 614d 92bc d7d7 ae3e f887 a53e 4815 983e
00000380: 0a35 4a3e a261 25be 2757 16be 255b babd
00000390: 7cd5 b33e fa1e 2c3e 535d b43e b444 a83e
000003a0: 57fb cbbd 3ea7 23bc 0fb5 d23d 6da1 d43d
000003b0: 9776 813e 54a0 f0bd f826 a43c 638b 9f3d
000003c0: 9e66 873e 7007 9a3e 0073 753e e852 8cbe
000003d0: ad79 893e 0f06 263d 62df 69be 517f 083e
000003e0: a475 6cbe 6a8a d83d 9004 c6bd 524d 48be
000003f0: 48d3 ddbd 60e2 9a3c f860 483e aa03 203d
0.09864386 0.14604434 -0.22857472 -0.20341553 -0.1457444 0.24011856 0.16490547 0.36099955
0.28276527 0.2158792 0.37095863 0.1476191 0.2036366 -0.0321819 -0.031707767 0.22486494
0.1649837 0.24147171 0.37379187 -0.2776937 0.34006527 -0.28086135 0.2146902 0.3506414
-0.18383607 -0.23753479 0.12541802 -0.29111707 -0.256 0.18787792 -0.019800914 0.17994656
-0.05154931 0.32692885 -0.26000792 0.3110983 -0.19201581 0.30087897 0.0034231576 -0.1806702
0.2769083 0.0825838 -0.010849979 0.12326727 0.21894035 0.16754356 0.3897219 -0.09057798
0.10756004 0.32544482 0.32142693 -0.19576421 0.041079324 -0.295779 -0.29316744 -0.15971935
0.24062125 -0.19526318 0.3674549 0.2420544 0.080255106 0.2944677 0.20634158 0.031107543
0.3922547 0.033836316 -0.083787136 0.36183077 0.30276096 0.123311006 0.32784274 0.14251433
0.023323955 0.26697743 0.12396001 -0.044853203 -0.24391538 0.35477647 0.06726069 0.1854548
0.10088208 0.032986585 -0.25312573 -0.027996551 0.09167839 0.3470105 0.26004994 -0.23796341
0.21280904 0.001537357 -0.036957905 -0.19287662 0.19495857 0.2128433 -0.11785047 0.34574926
0.07906802 -0.081565775 -0.16171739 0.26859954 -0.05806353 -0.12534328 0.25166854 -0.15516
-0.03219426 -0.2788998 0.19865343 0.1507758 0.33697733 0.07160832 0.22915696 -0.07825067
0.23814426 0.13458456 0.3442263 -0.27115554 0.30412862 -0.16564853 -0.09765764 -0.21252073
0.19338168 0.028539874 0.12403842 0.05028014 -0.05982688 0.28085902 -0.13974908 0.27542868
-0.12293265 -0.19251816 -0.29710668 -0.26201934 0.30441737 0.19233659 0.018001147 0.34254658
0.074994765 0.034780502 0.1921027 0.3007534 -0.28423613 0.06413646 0.13575424 0.059906576
-0.07636001 0.19451287 0.14248306 0.07698725 -0.17419435 -0.21285969 0.25264186 -0.1566156
0.36208642 -0.022027167 0.36929327 -0.26527154 -0.29100743 -0.056311723 -0.1285767 0.058327116
0.00855359 0.069029614 -0.13620108 0.14292611 0.22365755 -0.2654845 -0.11746823 -0.052118536
-0.105682656 -0.29815134 0.17379175 0.13131607 -0.058549963 0.28428596 0.043425698 -0.03204761
0.08458309 0.09415606 0.34423855 -0.19113505 -0.2625733 0.022544846 -0.2171888 -0.05345208
0.36476743 0.28053442 0.09681047 0.11982249 -0.036682595 0.088046424 -0.051824726 -0.045012724
0.29892 0.0016863726 -0.022892023 0.32583445 -0.1076545 -0.2711826 -0.12780826 0.3921639
0.2974561 -0.21685918 0.34902918 -0.038264465 0.3411925 -0.24775231 0.21841209 -0.05843917
-0.03551674 -0.28093314 -0.22528307 0.3613226 0.338393 -0.16881022 -0.014856848 0.32777005
0.33110517 0.36861703 0.29701966 0.18730365 -0.017859163 0.34149048 0.32330298 0.29703736
0.19746795 -0.16150525 -0.14681683 -0.09099416 0.35123813 0.16808692 0.3522745 0.32864916
-0.09960049 -0.009988604 0.102884404 0.10382352 0.2528579 -0.1174933 0.020038113 0.07790258
0.26445478 0.300838 0.2396965 -0.27407002 0.26850644 0.04053312 -0.2283912 0.13329817
-0.23091751 0.105732754 -0.09668839 -0.19560745 -0.10831314 0.018906772 0.1956824 0.039065994

linear2.weight f4 [512, 256]
00000000: edeb 1e3c fe1a 6dbd 4473 efbc fca2 103d
00000010: 77fe 9abb 39fc 12bd 173a 14bd 38be 84bd
00000020: c09b 51bb a332 adbc dac5 393d d1ef 843c
00000030: 48d5 19bc 21ed 9e3c 0810 90bd b6e2 533d
00000040: ea72 17bc 280c 8d3c 5280 08bc 0c74 353d
00000050: 110e 093d 0bb9 15bd 0e0d 803b 73ff 0d3d
00000060: 3f3e 6a3d 3029 d0bc dc61 423d 341e 193d
00000070: e494 2abb 28cd 9c3b ff17 5fbd eab9 b53c
00000080: e177 173d a7b1 933c 5697 09bd ad6f b23c
00000090: f89b 9e3c b384 023d e8a6 1ebc 654c 0bbd
000000a0: 070c 733c f3c4 44bd 3ad9 2b3d 6478 0dbd
000000b0: d27f b73b b19c 00bd a647 febc 27d0 75bd
000000c0: fac7 e83c 2e69 03bd 78a1 73bd a934 1bbd
000000d0: b40c 9d3c 2a7e 1ebd f0bd f5bc ca52 243d
000000e0: 8d23 29bd c404 db3c 49e2 c93c 8bea 84bd
000000f0: f503 ad3b 990e 8bbc 6af7 1d3c bcb4 d5bc
00000100: af27 c83b 1e53 033d 28ca b5bc ff03 e33c
00000110: 2402 803c c497 2c3d 7958 65bd 6258 0d3c
00000120: 0402 803b 2a7e 033d 7807 15bd 0929 3ebd
00000130: 7af1 da3c 6796 3a3d e7f2 f93b ff4a 433d
00000140: 4408 4fbd ef4a 933c e3d1 27bd f3bd 3b3b
00000150: 07d6 8ebd dd2c f7bc 0736 1e3d 3ed5 51bd
00000160: 09a2 4e3d 0113 e3bc be3a 01bd e308 453d
00000170: 86f0 65bc b963 a5bb 2225 6c3c 644c 533d
00000180: 5b11 8c3c e731 6cbd 47cb 883b 2a64 70bd
00000190: cb09 51bd 00b7 a2bc 84b4 fbbc 91ad b43b
000001a0: a064 653c ef25 afbc 7cbb 51bd 7d85 86bd
000001b0: e6fd 563c 5977 69bc 3ec0 de3b e76c dd3c
000001c0: c5ef 463c 855a c53c 03c6 8cbd e4c1 373c
000001d0: 5d08 863c b2d2 c2bc e16b 67bd 99f3 5abc
000001e0: 6e88 1b3b 1f5f 963c a77d 213c 9d74 e1bc
000001f0: fa28 813d b4ca 9ebc 9a02 303d 10a4 b03c
00000200: 9072 0f3d d076 423c e223 253d 7a6d 453d
00000210: 6913 8f3c 32ae b93c 4e75 4a3d c95a cf3c
00000220: 50e4 253c de72 183d ef88 33bc ce44 4cbd
00000230: f4e4 81bc ea2c 5b3d 6544 47bd 2598 7bbd
00000240: 3ada abbc 73c3 143d a3d9 853c 6f09 0a3d
00000250: 2e7b 01bd 90e8 343d 60d3 e53c ac7e 01bc
00000260: c5c5 78bc 12be 103d 876a fbbc 101c 4a3d
00000270: f015 823c 475c c9bc 0bdb 3ebd 488b 7c3d
00000280: ecfb 4bbd fe13 b23c af56 7f3a 956c 333c
00000290: 158e eb3c 9c43 253d 1d6a 3c3b afdc 843d
000002a0: aec4 80bd 9b16 49bd 68d5 723c 5e47 01bd
000002b0: e11f ea3b d0f7 1f3c 87bf 4d3d 2292 193d
000002c0: bf2b febc 89b7 08bd fe1f 3dbd f2d5 1ebd
000002d0: ef6e 1c3d 31d8 f53b 9f7f 03bd b3f2 823a
000002e0: 7f6b 1ebd 89d8 3ebd 5798 ef3c f265 f33b
000002f0: b39a 08bc 6cb3 7dbc 8150 47bd 61f6 d5bc
00000300: b63a 623c 5473 963b 08ed 733d d837 44bd
00000310: 59a4 e03c b82f 48bc f289 8e3c c7aa adbc
00000320: 4045 e9bb 077b ec3c d9af 103d 61e0 683d
00000330: a5f6 f03c 7d51 f53c 9fcf 86bd ba08 58bd
00000340: e891 42bc 58af 4dbd 78ad c3bb d93e cc3c
00000350: fa86 58bd 299e 5ebd 9254 a7bc 21b8 ccbc
00000360: bb9b d53b 6015 4a3d adbb 18bc 26a2 32bd
00000370: 4191 31bd c21e d43c 3873 85bc ed83 97bd
00000380: cf22 86bd 2a4d 9ebc 262a 753c e301 55bd
00000390: 6f02 acbc 9be6 53bd 0113 103d d72f 78bd
000003a0: 8b4b a63c d197 173c e4db c03c 52e7 663b
000003b0: 0aa7 b63c f308 3d3d b284 d13b 238e 7cbd
000003c0: 76d3 893c cc95 ef3c 2021 b73c 4a65 293d
000003d0: eaca 1e3d 4d95 1a3d 7551 383d 369f afbc
000003e0: 4a2c a13b 7b6c 21bd fc63 85bd 9036 e53c
000003f0: 9079 8a3c 97cd 9c3c 7e26 2c3d e133 a7bc
0.009699804 -0.05788707 -0.029229768 0.035311684 -0.0047300416 -0.03588507 -0.03618821 -0.06481594
-0.0031983703 -0.02114231 0.0453547 0.016227635 -0.009389229 0.019400181 -0.07034308 0.05172988
-0.009243706 0.01721771 -0.008331375 0.044300124 0.03346068 -0.036553424 0.0039078062 0.034667443
0.05718827 -0.025410265 0.047456607 0.03738232 -0.0026028687 0.0047851987 -0.054466244 0.022183377
0.03697956 0.018029047 -0.03359159 0.021781767 0.019361481 0.031864833 -0.009683348 -0.034008402
0.0148344105 -0.048039388 0.04195521 -0.03453864 0.005599954 -0.031399433 -0.031040024 -0.060012963
0.028415669 -0.03208273 -0.05948016 -0.037892018 0.019171096 -0.03869454 -0.029997796 0.040118016
-0.04129367 0.02673567 0.024644034 -0.06490048 0.0052800127 -0.016974734 0.009641508 -0.026087157
0.0061082463 0.03206169 -0.022191122 0.027711866 0.01562602 0.042136922 -0.055992577 0.008627029
0.0039064903 0.03210274 -0.036384076 -0.046425853 0.026726473 0.04555359 0.007627833 0.047678944
-0.050544992 0.017980067 -0.040971648 0.0028647154 -0.06974416 -0.03017276 0.038625743 -0.051228754
0.050447498 -0.027719023 -0.03155016 0.04810418 -0.014034396 -0.0050472883 0.01441315 0.051586524
0.01709812 -0.057664778 0.004174623 -0.058689274 -0.05103473 -0.019862652 -0.030725725 0.005513855
0.014001042 -0.021380393 -0.05120419 -0.065684296 0.013122058 -0.014249646 0.0067978194 0.027029468
0.012142126 0.024091015 -0.06873705 0.011215661 0.01636141 -0.023782108 -0.056499366 -0.013363742
0.0023732441 0.018355904 0.009856618 -0.027521426 0.06306644 -0.019383766 0.04297123 0.021562606
0.035021365 0.011869147 0.040317424 0.048200108 0.01746531 0.02266607 0.049428277 0.025311844
0.010125235 0.03721892 -0.0109579405 -0.049870305 -0.015856244 0.05350963 -0.04864921 -0.061424393
-0.020978082 0.036319207 0.016339129 0.033700403 -0.031611614 0.0441671 0.028054893 -0.007903736
-0.015183871 0.035337515 -0.030690445 0.04934317 0.015879601 -0.024580134 -0.046595614 0.061656266
-0.0498008 0.021738049 0.0009740395 0.010951181 0.028754273 0.04034768 0.0028749772 0.064874046
-0.06287514 -0.049093824 0.014821388 -0.0315622 0.0071449135 0.009763673 0.050231483 0.03749288
-0.03102672 -0.033378158 -0.04617309 -0.038778253 0.038191732 0.0075025787 -0.03210413 0.0009990543
-0.038676735 -0.046593223 0.029247446 0.0074279243 -0.008337664 -0.015484672 -0.04866076 -0.02611846
0.013807943 0.004591385 0.059552222 -0.04790482 0.027422117 -0.012218408 0.017399762 -0.021199597
-0.007118851 0.028867258 0.03532395 0.05685461 0.029414484 0.029946083 -0.06582569 -0.052742697
-0.011875607 -0.05021605 -0.005971607 0.024932312 -0.0528631 -0.054350052 -0.020426068 -0.024990143
0.0065188087 0.04933679 -0.009322089 -0.043611668 -0.043351416 0.025893573 -0.016290292 -0.0739821
-0.06549608 -0.019323904 0.014963662 -0.052003752 -0.020997254 -0.051733594 0.035174374 -0.0605925
0.020299694 0.009252504 0.023542352 0.0035233092 0.022296447 0.046151113 0.0063939923 -0.06165899
0.016824465 0.029246233 0.022354662 0.041356362 0.038767733 0.03774004 0.04499956 -0.021438222
0.0049186097 -0.039410096 -0.06513211 0.027980119 0.016903669 0.019141002 0.042028897 -0.02041048

linear2.bias f4 [512]
00000000: 1e47 e93c 77fe 8dbd 1664 3bbd 8c07 b53d
00000010: 7e22 b13c caa8 bdbc b25f f03a 4844 b43c
00000020: ac94 50bd c162 973d c43c f43d acdf a93c
00000030: 0522 6dbd b9a5 bc3c 60e4 b43c 8956 343d
00000040: 35fa 06bd 4978 6a3d 703a 83bd 915f 18bd
00000050: f881 47bd 94df d53c 30c3 2fbd d088 6dbd
00000060: 96f9 47bd 5ec3 e23d 8a89 d63d b2ca 533b
00000070: 5280 353d 82a1 0fbd 4a4c d63d 8242 4dbd
00000080: 888f 023e 39b8 aa3d 73e9 26bd 2771 fc3d
00000090: ed6d 7cbd 2c07 303c 47f9 c43c 486a b93d
000000a0: e6e5 baba 4875 5c3c eef2 163d 9461 b33c
000000b0: 8c1a 46bd e40c 63bd cf29 e23d 5695 173d
000000c0: c0cd 3bbd c334 063d dbdc e8bc 2b06 043e
000000d0: 0a60 60bd b6c4 dabc b158 43bd a168 74bb
000000e0: a888 98bc f9ea 54bd 4496 de3c 4d1e 5e3d
000000f0: 52c7 183d 5321 68bd 22e9 0e3c 981b d4bc
00000100: 6c0a f33d cc7c 6ebd 1f24 e73b 944e d73c
00000110: 9438 f73c de4e cf3c 0062 b13d 916d a93c
00000120: ff19 113e d06b 1b3e b7d1 343d a76c 033e
00000130: e895 b83d 858e b73d 10a2 25bd d05d 15bc
00000140: 4739 a03d 7abb 41bd c374 a43b d633 1dbd
00000150: bd29 63bd 82df 6bbd 6a07 033e 9ff6 a3bc
00000160: 9fb0 8a3d 70f4 643d 8435 803d 00f2 2abc
00000170: 8074 ff3d 31e4 25bd 232b b33d 4712 c43d
00000180: 589c e13a 53ca 243c b534 493d efa7 e7bc
00000190: afbe 0e3d 5c0c 21bd fbff d4bc 2f70 f83c
000001a0: ef95 cd3d 26cf fe3c 4dce 493d 9013 17bd
000001b0: 4b64 44bc 2f3d 4bbc fccd c0bc 3756 583d
000001c0: a8f8 24bd a19c bf3b 0e3d 8d3d d3a6 ea3c
000001d0: 373f a1bc 79cb 5cbd 7191 a43d fb98 263d
000001e0: e648 e3bc cdfd 1f3d 1da8 173d 8735 163e
000001f0: e1e4 8a3d 20e8 51bd ad06 663d 1293 833d
00000200: 73e7 f33d 0094 5fbc f5f0 143c 8f74 6fbc
00000210: ff02 143e 73c0 233d b6a1 38bc 7778 953c
00000220: f769 1a3d 7ef3 ce3b bfdc 4d3c 59d5 7c3d
00000230: 3614 14bc 308c 3ebd 5061 58bd 1894 413d
00000240: 1e20 d73d 74c5 67bb 6c39 9abc b6bd 4dbd
00000250: f22b 233d 96d4 0e3e 5ac9 9a3c e99b 413d
00000260: 632e 5bbd 2090 b43c 6641 5ebd 373b 1d3d
00000270: 0f9f ac3d 670d f73c 354c ef3d a97f 713c
00000280: f0cb df3b 1b59 f53c dada 6cbd dffb 4bbc
00000290: 520d 243d f2d3 3b3d e084 c13c 14c6 82bd
000002a0: 9c8a 5cbd 1800 8c3d beed e33c ab8c d2bc
000002b0: 42df 8bbd 25dc 41bc 0619 df3c f181 3fbd
000002c0: f11e 93bc b3ea 50bd e528 2c3d a415 df3c
000002d0: df7a 333c d5cb 8f3d 57ef 7dbd 53c4 81bc
000002e0: aa1d 113e d6a0 f8bc 71da e83c 41e5 3dbb
000002f0: 7821 da3c e1d3 90bc d463 143d f1b5 bc3d
00000300: 7c0e 66bd d7a0 c63c 79c9 d4b9 144b a13d
00000310: add1 e4bc b45a 1bbd 4f6c 4bbd aedb 0b3d
00000320: 9045 01bd aa64 08bd 27cc 273c a345 203d
00000330: 3f4c c63d 0fca e53c c0f4 83bd 01f3 173e
00000340: 3284 863c b89e 4dbc 9db2 903c 4922 0f3e
00000350: 3372 3ebd 37da b53d 14e4 59bd caf4 4c3d
00000360: 3e6b 41bd a5cc 5bbd d03f 2c3d 5537 ed3d
00000370: 3c51 4ebd dbbf e33d d07d 99bc e7b8 23bd
00000380: b9a7 de3c 863f 82bd 01a6 003e be4b 40bc
00000390: 0b23 e5bc cf63 f43d 4efa b0bc cda3 433d
000003a0: 6027 3f3d adac 12bd 05d1 e13d b4af 4fbd
000003b0: c459 5e3d 925d 733c d58b c83d fd87 fdbc
000003c0: c372 0e3e eff3 2d3d 608c 673c 96b1 873d
000003d0: 9efc 9f3d bc89 55bd 6888 943d 878e b33d
000003e0: 481a 673d 72f4 12bd 7f80 683d c891 66bc
000003f0: caa4 0f3c 7b08 963d 9756 663d 30aa 5cbd
0.028476294 -0.06933301 -0.045749746 0.0883933 0.021622892 -0.023151774 0.0018339066 0.022005215
-0.050923035 0.07391883 0.119256526 0.020736538 -0.05789377 0.023028241 0.022081554 0.04402784
-0.03295346 0.05724362 -0.064076304 -0.037200514 -0.048707932 0.026107587 -0.042910755 -0.057991803
-0.048822008 0.110724196 0.10475452 0.003231686 0.04431183 -0.035066135 0.1046377 -0.050112255
0.12750065 0.08335919 -0.04074998 0.123262696 -0.06162827 0.010743897 0.024044646 0.09053475
-0.0014259189 0.013455696 0.03685277 0.021897115 -0.04836516 -0.055432215 0.110431306 0.037007652
-0.045850515 0.03276516 -0.028425625 0.12892978 -0.05477909 -0.026705127 -0.047692005 -0.003729381
-0.01861985 -0.0519819 0.027171262 0.054228116 0.03729946 -0.056672405 0.008722575 -0.025892064
0.11867222 -0.058224484 0.0070538665 0.026282586 0.030178346 0.025306161 0.0866127 0.020682128
0.14170073 0.15177846 0.044145312 0.12834416 0.09012967 0.0896273 -0.040437758 -0.009116605
0.07823425 -0.047297932 0.005018802 -0.038379513 -0.055459727 -0.0575862 0.12795797 -0.020015059
0.06771969 0.055897176 0.06260207 -0.010433674 0.124733925 -0.040500823 0.08748462 0.095737986
0.0017212732 0.0100580035 0.04912253 -0.02827832 0.03484982 -0.039318427 -0.026000967 0.03032693
0.10038363 0.031104635 0.04926901 -0.03688389 -0.011986802 -0.012404724 -0.023535721 0.052816596
-0.0402762 0.005847529 0.06896411 0.028644001 -0.019683463 -0.053904984 0.08035553 0.040673237
-0.027744722 0.039060403 0.03702556 0.14668857 0.067819364 -0.051246762 0.05615871 0.06424536
0.1190938 -0.013646126 0.009090652 -0.014615192 0.14454268 0.039978456 -0.011269024 0.018245919
0.037698712 0.0063156476 0.012564837 0.0617269 -0.009038022 -0.046520412 -0.05282718 0.047260374
0.10504173 -0.0035365494 -0.018826209 -0.05022975 0.03983683 0.13948283 0.01889484 0.047267828
-0.053511035 0.02204138 -0.054261588 0.03838655 0.084287755 0.030157758 0.11684457 0.014739909
0.006829731 0.029949715 -0.0578259 -0.0124501875 0.040051766 0.045856424 0.02362293 -0.06385437
-0.053843126 0.068359554 0.027823325 -0.025701841 -0.068296924 -0.011832272 0.027233612 -0.04675478
-0.01795909 -0.051005077 0.042031188 0.027231999 0.010954588 0.070213 -0.06199583 -0.015840685
0.14171472 -0.03035013 0.028424473 -0.0028975757 0.026627287 -0.017679157 0.036228016 0.0921439
-0.056166157 0.024246616 -0.000405859 0.07875648 -0.027932012 -0.037928298 -0.049663838 0.03414505
-0.03156048 -0.033299126 0.010241545 0.03912891 0.096825115 0.02805045 -0.06443167 0.14838792
0.016420458 -0.0125500485 0.017663294 0.13977922 -0.046495628 0.08879512 -0.053196028 0.050038137
-0.047221415 -0.05366196 0.042053044 0.11582819 -0.05037044 0.11120578 -0.01873675 -0.03997126
0.027179586 -0.063597724 0.12563325 -0.011736808 -0.027970811 0.119330995 -0.02160373 0.047763634
0.04666841 -0.035809208 0.110261954 -0.050704673 0.054284826 0.014853852 0.09792296 -0.030948633
0.13910966 0.04246896 0.014132589 0.06625669 0.07811855 -0.052133307 0.0725258 0.08767419
0.056421548 -0.035877652 0.05676317 -0.014072843 0.008767316 0.07325836 0.056234922 -0.05387324

linear3.weight f4 [1, 512]
00000000: 1f00 ddbc 9bcf dfbc 0692 1a3c 9aa4 cf3d
00000010: 7b8a c2bc 8d30 313d eb1b abbc 9a25 1a3d
00000020: bf32 6dbd a3ae cc3d 1486 003e cc9a ab3a
00000030: 47bf 79bc 44ad ca3a a8e2 daba 607a 22bd
00000040: c4ae 953b 5db0 ce3d 5d09 94bc f84b 23bd
00000050: 08c5 f5bb 8422 00bb 4b14 0bbd 4eba ce3c
00000060: 22d6 16bd a3c3 d23d 59b6 c93d db14 48bd
00000070: 7ef4 cebb 60f6 423c c477 d33d 4b0d 11bd
00000080: 0d42 e13d 2a2f d23d 5769 cf3b 1303 c93d
00000090: b9ad f8bc 3089 9c3c 2175 86bd dfe3 033e
000000a0: 0b73 98bd ec95 913c 136a 14bd 4025 fb3d
000000b0: 8010 223c 0a60 b73c d43b f03d 62a5 3cbd
000000c0: 4855 e33c fca0 25bd f1cd 9dbc f5cf dc3d
000000d0: c2a8 043d 5340 49bd e7f7 653c d236 4fbd
000000e0: 63a5 9fbd 7878 e13c 4603 88bc 26bf 8eb5
000000f0: ba71 c43d b134 12bd 22fd dabc 6b86 09bc
00000100: d57d d23d 0036 71b9 fc58 b6bc b52c 22bd
00000110: 1387 a2bd c229 0fbd 57cc 0c3e 33cf b0bc
00000120: a33f fa3d 1733 c53d 5c5f 033e 85a2 f93d
00000130: 7929 c93d 9a99 db3d fdb5 17bc b701 073d
00000140: 05de df3d 6b8e df3c d4f5 ee3c 97a0 45bc
00000150: a232 8bbd 766b 213d 4af7 053e 2dab 6fbc
00000160: 73c4 0b3e 8f80 0c3d 3423 bb3d 4886 85bc
00000170: 3ecf db3d 77ec bf3a 74f4 083e 43b2 de3d
00000180: 6e49 9cbc cc29 a1bc f06e 02bd 9fdf 12bd
00000190: c59b 47bd 74a6 08bd e93e f43c 626d 8cbc
000001a0: d5f1 d83d 679a e83d 560c e53d 642c 8c3c
000001b0: 616a a2bc 70d3 5abb 26fd cdbb 7d82 173d
000001c0: 1905 043d 37d9 c7bc 945a d23d e067 bc3d
000001d0: beb9 06bd cd89 d5bc a617 f53d adaa 25bc
000001e0: 6233 c6bc 8ce8 42bd 1cad 10bc 5bf1 d93d
000001f0: 6549 df3d 059a 89bc 0da7 073e 5e65 e93d
00000200: 1dcf b93d 2b42 13bd a17d 2e3d 4b48 5abc
00000210: 7d85 f43d fe07 02bc b36c 673b 049e 6cbd
00000220: 7336 21bc 76ea 403c c5a2 c23b cd39 de3d
00000230: 7521 02bd 8e01 bf3c 27b0 273d 32f2 2dbb
00000240: 8b15 fe3d 456a 22bc 0117 cb3c 01c3 1d3d
00000250: 7ccd 09bd 47fe e13d 8890 9e3a dace df3d
00000260: 0da6 833c aa7b aabc 305f 0bbc 9a36 05bd
00000270: fb0d 0a3e 5bf2 fc3c a79c ff3d f2f3 19bd
00000280: a1b9 26bd 34e9 e63d 8af0 adbc 122a 47bc
00000290: 6ed4 373c 6d74 2abd d7f6 253d e442 013d
000002a0: 1d52 2a3d 6641 d13d 2b1c e6bc 0eff f83c
000002b0: 6e0a 91bc adc9 82bd e9d9 053e 762a a5bb
000002c0: 4d9e 0ebd c895 033c fc33 3abc 418d c0bc
000002d0: a052 ef3c 8967 d03d 2ddb 29bd 8f2e 80bd
000002e0: 2c15 033e a673 7bbd 39eb 06bd 8302 87bd
000002f0: d2e4 e8bc f82f f3bc c53b 013e 10c8 da3d
00000300: defe 32bd d25c 793c 1e57 74bd b13f d53d
00000310: 340b e4bc e3b9 933c 2920 683c 18c8 c53d
00000320: 169c 2cbc 22a7 48bc 0f3c 4dbb f5ce 13bd
00000330: 94aa d43d f72e 19bd 86fc 3ebd 16f9 d43d
00000340: c55f 29bd 2131 09bd 3a8e 81bc 7f1a ec3d
00000350: bcd0 aebc f170 f93d b6f8 fe3c 02b6 923c
00000360: 5d94 39bc 15f9 e23c fba4 b23c d87d e13d
00000370: 508c 56bb 69b4 053e 05ff eebb 67bb 20bc
00000380: a01a e73c b0c8 d53a 82b0 0e3e 36d2 c3bc
00000390: fd62 0bbd 434c c93d c374 80bb abb7 11bd
000003a0: 35a0 133d 6864 eabc e8e1 c33d 29cc 9bbc
000003b0: 2134 dd3d d785 64ba 70c6 cc3d 7389 153d
000003c0: 1bd2 e33d 30da edbc 6f17 803c 7a43 073e
000003d0: 9640 ed3d 0030 05bb 63f5 063e 5081 023e
000003e0: 492c 333d 855a 1d3d a226 e03c 8677 a0bd
000003f0: 0363 80bd e19c c33d 5da9 f23d ff59 22bd
-0.026977597 -0.027320674 0.009434229 0.10138817 -0.023747673 0.043259192 -0.020887336 0.037633516
-0.057909723 0.09994247 0.12551147 0.0013092398 -0.015243358 0.0015463014 -0.0016699629 -0.039667487
0.004567953 0.100922324 -0.018070871 -0.03986737 -0.0075002946 -0.0019551823 -0.0339549 0.025235321
-0.036825307 0.10291221 0.09849233 -0.048848014 -0.006315767 0.011899561 0.10325578 -0.035413068
0.10998926 0.10262902 0.006329696 0.098150395 -0.030356275 0.019108385 -0.06565309 0.12879895
-0.07443818 0.017771684 -0.036233973 0.12262964 0.009891629 0.022384662 0.11730161 -0.04605616
0.027750626 -0.04043673 -0.01926324 0.10781852 0.032387502 -0.04913361 0.014036155 -0.05058939
-0.07795217 0.027523264 -0.016603123 -1.0635456e-06 0.09592004 -0.03569478 -0.026732031 -0.008393864
0.10277907 -0.00023003668 -0.022259228 -0.039593417 -0.079359196 -0.034951933 0.13749824 -0.021583175
0.12219169 0.09628885 0.12829345 0.12189201 0.098223634 0.107226565 -0.009259698 0.03296062
0.10931019 0.02728959 0.029169954 -0.012062213 -0.06796767 0.039409123 0.13082615 -0.014628214
0.13649158 0.03430229 0.09137574 -0.016299382 0.10732888 0.0014642616 0.13374501 0.108738445
-0.019077983 -0.01967325 -0.03184408 -0.035857793 -0.048732538 -0.033361867 0.029815154 -0.017142002
0.10593001 0.11357575 0.111839935 0.01711101 -0.019826116 -0.0033390187 -0.006286281 0.036989678
0.032231424 -0.024395568 0.10271183 0.091995 -0.03289198 -0.026066685 0.11967401 -0.010111493
-0.024194423 -0.047585055 -0.008830335 0.10641738 0.10902671 -0.016797075 0.13247319 0.113962874
0.09072707 -0.035951775 0.042600278 -0.0133229 0.11939523 -0.007936476 0.0035312593 -0.057767883
-0.009839642 0.01177465 0.005939814 0.108508684 -0.03177019 0.023316171 0.040939476 -0.0026542065
0.12406453 -0.009913032 0.024791243 0.03851605 -0.03364323 0.11034828 0.0012097517 0.10928126
0.01607039 -0.02081092 -0.008506581 -0.032522775 0.13481896 0.030877283 0.12481051 -0.03758616
-0.040704373 0.11274949 -0.021232862 -0.012156026 0.011220081 -0.04161494 0.040518608 0.031557932
0.041582216 0.10217552 -0.028089603 0.030395057 -0.017705169 -0.06386123 0.13071407 -0.005040462
-0.034818936 0.008031316 -0.011364933 -0.023504855 0.029214203 0.10175998 -0.041468788 -0.0625888
0.12801045 -0.061389588 -0.03293917 -0.06592276 -0.028429423 -0.02968596 0.12620457 0.1068269
-0.04370009 0.015219884 -0.059653394 0.10412539 -0.027837373 0.018032974 0.014167824 0.096573055
-0.010535261 -0.012246879 -0.0031316315 -0.03608604 0.10384098 -0.037398305 -0.046627544 0.10399072
-0.0413511 -0.03349412 -0.01581489 0.11528491 -0.021339767 0.12179745 0.031124454 0.017909054
-0.0113268765 0.027706662 0.021807184 0.11010331 -0.0032737441 0.13057102 -0.0072935843 -0.009810305
0.028210938 0.001631042 0.1393452 -0.023903947 -0.03402995 0.09828999 -0.003920169 -0.03557555
0.036041457 -0.02861233 0.095645726 -0.01901825 0.108009584 -0.00087174535 0.099987864 0.036508035
0.11124059 -0.029034704 0.015636174 0.13209334 0.115845844 -0.00203228 0.13179545 0.12744641
0.043743405 0.038416404 0.027362172 -0.07835297 -0.06268885 0.09551407 0.1184871 -0.03963661
