src/pepper_training/training_results/2023-1-4-with_human_500/model/actor-with_human_500.pkl (torch, 561047 bytes, 6 tensors)

linear1.weight f4 [256, 11]
00000000: 6348 723e 2e92 963e f358 0a3d 3f45 163d
00000010: 5e13 03be 9055 d7bd 5c4a 823d e501 803c
00000020: ed98 54be d469 533e a4a1 14be 2439 863e
00000030: 45ef 38be 1c6a 5b3e 83ff 7f3e 1237 033e
00000040: 0a71 8a3e f4ac e3bd ce2e ed3d af0c 02be
00000050: e615 85be f8ad 2e3c 0209 413e 5f24 aa3d
00000060: 99ca e93d 7cea 303d 4dc7 78be d7c8 933e
00000070: 902b fb3d d5d7 713e ca37 c03c 3ca7 1fbc
00000080: 7867 40be 7219 6ebd e3ff eabc fdaa 0e3e
00000090: 881b 39be fd21 4b3d 95b3 34be 59a9 e23d
000000a0: 6944 fcbd 8813 55be 19d4 ad3c f877 4ebe
000000b0: 57d0 9dbc 69bd c63d e3bd 88be ecf5 99bd
000000c0: b150 93be f374 073e 9d55 68bd 0bb1 8bbd
000000d0: d7ff 153e a36a c13c 7791 7abe 30e6 6ebe
000000e0: cb07 7c3e abc5 d3bd e98f 3fbd b930 e1bd
000000f0: 28d1 a53d 6a6a 64be 40ed 3fbd 70a5 373d
00000100: d60c 44be 4550 6abd 33ed 70be 7fa2 953d
00000110: ae4e 683e 12d3 913e 78b3 7e3e 3ad4 403d
00000120: f441 8e3e 881a d53d 7d01 383e da9d 733e
00000130: 2685 81be 5085 433e 09da 9ebc 8750 3d3d
00000140: 6768 fb3c b1b8 343e e70c 453e c8ec 87be
00000150: a8be aebd bf44 f63c 70ee 64be 8949 9a3e
00000160: 78da 84be 3a1e 0dbe a64f e43c 246a 0f3e
00000170: 24a5 19bd 7375 de3b d284 843e 3ab3 53be
00000180: bbb8 17be c48e c93d 6af5 043c c48d 1dbe
00000190: 2128 92bd 2809 083e 28ff 503e 17c9 4c3d
000001a0: 6852 7b3e 5b20 463e d3d3 49bb 6933 4b3d
000001b0: 4abc 8f3e c66f 11bd 9499 783e beae 4e3e
000001c0: 0a8a cabd afa7 0b3d 6d9a 8fbe 4042 353e
000001d0: 8b16 b93d e4be 65be 7be1 f53d 814b 35be
000001e0: 3bbf 2ebe def0 89be d4a7 79be b765 873e
000001f0: 6ed1 24be e9c4 113e fbf4 06b9 67e4 3dbd
00000200: e1e3 2dbe aecf 16bd 7985 a03e 737d ea3d
00000210: 3072 6fbe 1cc6 863d 106d 1fbc b8b7 dabc
00000220: 992e 37be 242e d3bd f339 48be e472 943e
00000230: e06f 60bd 3b47 97bd 3b28 7a3b 9e9e 233d
00000240: 2548 36bc d344 da3d e415 b23d 180f 8cbe
00000250: 9f09 683e 307f 8f3e 6c2c 34be cf0f 953e
00000260: 14cc 2fbe 3866 31be c48d 593e ac81 6abc
00000270: 80de 9d3e bf33 b3bd 9cf5 17be e912 803e
00000280: 7321 febc d381 823e 0b85 2fbe 807b 7f3e
00000290: 06d9 66bd d412 f93c 0efd cc3d c7c6 b93d
000002a0: 920c 093d bfe8 583e c404 873e 64dd 143e
000002b0: 6884 68bd 5724 bdbb aec8 8a3d c108 6f3e
000002c0: d740 98be 4313 1dbc aaa2 f83c cfe6 50bc
000002d0: c374 a63c 267e 9b3b 2a44 b2bc ee71 cf3d
000002e0: defe a2bd 4b09 8abd 757b 3a3d 3558 cb3d
000002f0: f29c 7dbe 02f2 93bd a05a eb3b 5aa0 66bd
00000300: 8c3d fabd 2451 1dbe 9e89 8dbe 2a24 66be
00000310: 9057 0ebc 740e 2ebe d1fb 293e 66b6 993e
00000320: 527f 443d 1837 07be 1eef 63bd 348a 8fbe
00000330: 4104 68be 2f3c 6d3e 141e cd3d 8c28 2c3d
00000340: 1a6e 57be f657 9bbd ef9f 3b3e 7187 31be
00000350: 17b2 21be 437d 09be 966d 003e 6dcd 6d3d
00000360: ae3b 993e b8b0 6f3d 0ecc 9c3d 872c 0cbe
00000370: d3c6 1ebe b1f4 3abe afbd 8bbe 345d ac3c
00000380: b44b aa3c 97cc 143e 0d73 99be e9bd a6bb
00000390: 8941 443e e806 743e a7dc 863e c31c 97be
000003a0: 9ddc a9bd ab4f 1e3e fe79 473e 1417 0cbd
000003b0: f4d3 363e f2d5 52be 71f0 f33c 1018 8d3d
000003c0: 13c2 d9bd 0317 acbc 5bca 863e ca64 7abe
000003d0: 6f86 5dbe 1373 6dbc 65c8 17be e97b 23be
000003e0: ef98 9bbe cbf9 87be 88ec c23d ae9e 8ebe
000003f0: b140 92be 0e13 583e 2e9b 703e fde8 8d3d
0.23660426 0.294084 0.033776235 0.036687132 -0.12800357 -0.105143666 0.06361839 0.015625903
-0.20761462 0.20645839 -0.14514786 0.2621547 -0.18060024 0.21427196 0.24999814 0.12813976
0.27039367 -0.111169726 0.11581193 -0.12700151 -0.2599327 0.010661595 0.18851092 0.083077185
0.114155956 0.04319237 -0.24294777 0.28864166 0.12264168 0.2361749 0.023464102 -0.009744462
-0.1878947 -0.058129735 -0.02868647 0.13932414 -0.18076909 0.04959296 -0.1764663 0.11067457
-0.12317736 -0.20808232 0.0212193 -0.20162952 -0.019264383 0.09704096 -0.26707372 -0.07517609
-0.287725 0.13228206 -0.056722272 -0.06820878 0.14648376 0.023610419 -0.24469553 -0.23329997
0.24612348 -0.103404365 -0.046768103 -0.10995621 0.08096534 -0.22306219 -0.04685712 0.044835508
-0.19145522 -0.057205457 -0.23527984 0.07306384 0.22686264 0.28481346 0.2487315 0.047077395
0.27784693 0.10405451 0.17969318 0.23790684 -0.25296897 0.19093823 -0.019391077 0.046219375
0.030689431 0.17648579 0.19243203 -0.26547837 -0.085324585 0.030062078 -0.22356582 0.30134228
-0.25947928 -0.13781062 0.02787001 0.14005333 -0.037511006 0.0067889034 0.25882584 -0.20673838
-0.14816563 0.098416835 0.008115152 -0.1538611 -0.0713656 0.13284743 0.20409834 0.04999646
0.24543154 0.1934828 -0.0030796423 0.049609575 0.2807334 -0.035506986 0.24277335 0.20183846
-0.0988961 0.034095462 -0.28047505 0.17701054 0.09037503 -0.224361 0.120058976 -0.17704584
-0.17065136 -0.2694158 -0.24380428 0.2644479 -0.16095516 0.14235272 -0.00012870498 -0.0463604
-0.1698146 -0.036819153 0.31351832 0.11449709 -0.23383403 0.06580755 -0.009730592 -0.026698932
-0.1788887 -0.10311535 -0.19553356 0.28993905 -0.054794192 -0.07386633 0.0038170952 0.03994619
-0.011125599 0.106576584 0.086955816 -0.27355266 0.2265992 0.28026724 -0.1759507 0.29113623
-0.17167693 -0.1732415 0.21245486 -0.014313143 0.30833817 -0.08750104 -0.14839786 0.25014427
-0.03102181 0.25489673 -0.17140596 0.24949455 -0.056359313 0.030404486 0.10009204 0.09071117
0.033459254 0.21182536 0.26370823 0.14537579 -0.056766897 -0.0057721543 0.06776558 0.23343183
-0.2973697 -0.009587112 0.030351002 -0.012750342 0.020319348 0.0047452627 -0.021761019 0.10129152
-0.07958768 -0.06740054 0.045527894 0.099289335 -0.24766901 -0.07223894 0.007182434 -0.056305267
-0.122187704 -0.15362984 -0.27644056 -0.22474733 -0.008687869 -0.16997701 0.16599967 0.3002197
0.047972985 -0.1320461 -0.05564796 -0.28035128 -0.22657873 0.2316749 0.100155026 0.042030856
-0.21038094 -0.075851366 0.18322729 -0.17336823 -0.15790592 -0.1342669 0.12541804 0.058057237
0.29928344 0.05851814 0.07656108 -0.13688861 -0.15505533 -0.18257405 -0.27293155 0.021040536
0.020788051 0.1453117 -0.2997059 -0.005088557 0.19165625 0.2383076 0.2634022 -0.2951413
-0.08294032 0.15460078 0.1948013 -0.034201697 0.17854291 -0.20589426 0.029777737 0.06889355
-0.1063272 -0.021007067 0.2632626 -0.2445251 -0.21633314 -0.014492768 -0.14822538 -0.15965237
-0.30390117 -0.26557764 0.09517771 -0.27855438 -0.2856498 0.21101019 0.23496696 0.069292046

linear1.bias f4 [256]
00000000: 0524 903e 97a5 14be 5513 143e 1d3a 66be
00000010: cb4e 593e 44df 31be 1f49 3a3e 1ebb 95bc
00000020: 1796 debc 6fff 023e a5a5 9d3d af3a 48bd
00000030: 5742 0ebe a836 8d3d 73ff 6e3e fb4f 8f3d
00000040: 10ca 08be 295e 11bd 804d 2d3d ae91 17be
00000050: f0b4 5abd b8db 163d 9486 373e f2f6 23be
00000060: 356f d63d e4e2 583d 7b4b be3c b69d 793e
00000070: 5872 d9bd 9ae5 4fbe 9b90 7dbe fa94 053e
00000080: 9978 9f3e db97 92be d139 0bbc 4361 1ebe
00000090: 632a 93be 69a3 e4bc fe28 82be 2f1a e93d
000000a0: 6b78 91be ca60 31be 0ee4 e3bd c93b f63d
000000b0: 5030 0cbd 8564 7ebe e920 cf3d ecd9 373e
000000c0: ed43 4b3e 580a 5a3e d480 9cbd 5e85 1b3e
000000d0: 5fad 863e 61bd 713e 91e3 763e 480a 403e
000000e0: 53f4 4b3e a12f 02be 185d b7bd 4d90 a03e
000000f0: 4742 e2bd 6210 123e b095 883d 8c09 85be
00000100: f647 723e f184 503e af3a 94be 4f2c 3c3d
00000110: ee7d 2e3c 6c5f 53bd 6aa7 c53d 37f0 8f3e
00000120: a9ee 3f3e d79c 943e e740 e8bd 5838 7abe
00000130: 16b7 8d3e b49d 303b acdf 83bd 726d 51bd
00000140: b68b 273e 3ea4 1fbe bfc8 9a3d eeab 963e
00000150: bca6 9d3e f839 87be 6257 ddbd dc30 8fbe
00000160: 9578 2abd b8e2 863e 0a12 713e 96c8 04be
00000170: d10c 25be 0844 123e 5bb1 60be bd2c 3dbe
00000180: f630 78be 980d 633e c496 2bbe 714b 60be
00000190: 0873 93be 8daa 10be d1bb 023d a315 713d
000001a0: dc42 a83e 4570 6b3e cb24 85be f701 dabc
000001b0: 368c 92be 2ad4 713e e9dd eabc ae10 dabd
000001c0: 91da 85be 7b03 fbbd 7505 0bbd b528 863e
000001d0: 12c1 163e 2f35 1fbe a1e3 3fbe 9ff8 3dbe
000001e0: 223d 3ebc 311b 8fb9 42fd 173e 599b 33be
000001f0: 7e73 233d 5c8d 1ebd fb93 47bb e825 333e
00000200: 8899 13be 6561 57be 5721 99bd a177 8f3e
00000210: 6879 9d3e 4735 523e 1ec1 90be c980 373e
00000220: ff07 263e dbee 843e 1d69 b83c ffa3 483e
00000230: f21c c6bc 59fc 1bbb 7fd3 2ebe fb46 98be
00000240: ee21 633d c803 91be 72da 5abc fe05 96be
00000250: 573c 3f3d d350 85be 3667 5bbe e29b ddbd
00000260: b75b 983e d8b6 943e a7c3 543d 9fa3 993e
00000270: a12f 8c3e 5cf0 8a3e 8ea3 3cbe 681e 8a3e
00000280: 5b59 6a3e d71c 8cbe aa7c 743e 3a8b 983e
00000290: ade7 8fbe d5da 9a3e bb36 9d3e 6b79 14be
000002a0: 1445 1a3d aa72 89be 209c 85be 3fb3 11bd
000002b0: c14f 2c3e f641 573e 61c5 083e 420b 13be
000002c0: e081 913e 93cf 593e f3b6 5cbe e790 5a3c
000002d0: a7bd 963e 03a4 453e a661 83be 5771 11be
000002e0: 44e4 ccbd e187 d9bd 87d1 12be 845b 48be
000002f0: 1af3 433e 001f 8cbc baaf 1e3d 0256 003e
00000300: 8924 883e 4551 223b 2879 2c3e 57a0 a7bd
00000310: cb0f c2bd 55d7 dcbd 4dac fe3d f339 0dbe
00000320: 20ac f6bd 3e00 86bc 2a15 313e 8604 40be
00000330: 1613 ecbb e8f2 79be b262 5f3e 066f bb3c
00000340: 0df5 173d 6694 0e3e 544e 7ebe 74ef 2ebb
00000350: 9044 ecbd 7ef8 463d 215b b23d d80b 073d
00000360: 8ce2 3b3e 2d58 863e 74f3 af3d ee40 893e
00000370: b0cf 41be bceb 83be 2eaf 7abd db7f bfbd
00000380: c7fd 87be 1b96 983e 20db 6f3e 7a2f a4bd
00000390: 7bb5 c5bd 1248 373e fd3f 3d3e dee7 fbbd
000003a0: ac98 a23e 603c fd3d 95ee a53e c80c 00be
000003b0: 1193 963e 8811 183d 4bf2 1a3e 9e47 cd3d
000003c0: dfb4 913e 07df 5fbd fdb2 15be 5d46 50bd
000003d0: cfad 823e b153 40be 938e 8c3d 768a 033e
000003e0: 4d25 553e c311 50be 395a 6c3e bea3 863e
000003f0: 6951 6dbe 5d55 36bc 4514 c43d 96a5 d3bd
0.2815248 -0.14516293 0.144605 -0.22483106 0.21221463 -0.17370325 0.18191956 -0.018277701
-0.027171178 0.12792753 0.0769761 -0.04888409 -0.13892494 0.068951905 0.23339634 0.06997677
-0.1335833 -0.03549019 0.042310238 -0.14801666 -0.05339521 0.036830634 0.17922431 -0.16012171
0.1047043 0.052950755 0.023229351 0.24376568 -0.106175125 -0.2030243 -0.24762194 0.13045111
0.31146696 -0.28631482 -0.008497671 -0.1546679 -0.28743276 -0.027909951 -0.254219 0.11381947
-0.28412184 -0.17322078 -0.11127482 0.12023122 -0.034225762 -0.24843033 0.10113699 0.17954224
0.1985013 0.21293008 -0.076417595 0.15187594 0.26304147 0.23607399 0.24110247 0.18753922
0.19917421 -0.12713481 -0.08953303 0.31360093 -0.11047798 0.14264062 0.066691756 -0.25983846
0.23660263 0.20363213 -0.28951022 0.045940693 0.010650141 -0.051604673 0.09651072 0.28112957
0.18743385 0.2902591 -0.11340504 -0.24435556 0.27678746 0.0026949467 -0.064391464 -0.051129766
0.16361889 -0.15589997 0.075578205 0.29428047 0.3079127 -0.26411414 -0.108076826 -0.27966964
-0.041618902 0.26344848 0.23542038 -0.12967142 -0.1611817 0.14283764 -0.21942656 -0.18474098
-0.24237427 0.22173154 -0.16756731 -0.21903779 -0.287987 -0.1412756 0.031917397 0.058858525
0.3286351 0.22992046 -0.26004633 -0.026612265 -0.28622597 0.2361609 -0.028670268 -0.10647713
-0.26143315 -0.12256523 -0.03394075 0.26202932 0.14722088 -0.15547632 -0.18739177 -0.18551873
-0.011611255 -0.00027295345 0.14842704 -0.17539729 0.039905064 -0.03870903 -0.0030453193 0.17494929
-0.14414036 -0.21033247 -0.07477062 0.28020957 0.30756688 0.20528136 -0.28272337 0.17920221
0.16213988 0.25963482 0.02251106 0.1959381 -0.024183724 -0.0023801534 -0.17072867 -0.29741654
0.05545228 -0.28323197 -0.0133577455 -0.29301447 0.046688404 -0.26038226 -0.2142609 -0.10820748
0.29757473 0.2904575 0.0519444 0.30007645 0.27380088 0.27136505 -0.18421766 0.26976323
0.22885649 -0.27365753 0.2387568 0.2979372 -0.28106442 0.3024508 0.3070582 -0.14499442
0.037663534 -0.26845294 -0.26095676 -0.035571333 0.16827299 0.21021256 0.13356544 -0.14359763
0.284194 0.2127059 -0.21554165 0.0133402115 0.29441568 0.19300847 -0.25660437 -0.14203392
-0.10004476 -0.1062162 -0.14337741 -0.1956616 0.19135705 -0.017104626 0.038741805 0.1253281
0.26590374 0.0024767679 0.16843092 -0.08184879 -0.094756685 -0.10783259 0.124352075 -0.13791637
-0.12044549 -0.016357537 0.1729323 -0.18751726 -0.0072044237 -0.24409068 0.21814993 0.022880089
0.037098933 0.13923797 -0.24834567 -0.0026693018 -0.11536515 0.048576824 0.08708788 0.03297028
0.1834814 0.26239148 0.08591357 0.2680735 -0.18926883 -0.2576579 -0.06120222 -0.09350558
-0.26560804 0.2980202 0.23423433 -0.08016868 -0.09653755 0.17898586 0.18481441 -0.123000845
0.31757104 0.12365031 0.32408586 -0.12504876 0.29409078 0.037126094 0.1513149 0.100234255
0.28458306 -0.054656055 -0.1461906 -0.050848354 0.2552323 -0.18781926 0.068631314 0.12845787
0.2081501 -0.20319276 0.23081292 0.262968 -0.23175587 -0.011128751 0.095741786 -0.103343174

linear2.weight f4 [512, 256]
00000000: c543 be3c b9d5 723d 296c 4f3d 3390 243d
00000010: 779b ca3c cea1 683b 1c35 5f3d 0931 11bc
00000020: 8928 5d3d 516b c7bc a076 a1bc a528 4a3d
00000030: 6bb0 563d 3834 263d 0656 e0bc 30e4 c1bc
00000040: f97c 64bd 7975 01bd 817b c73c cacd 223c
00000050: 0011 db3c 7198 4d3d fdb7 97bc af1b 95bc
00000060: c178 2e3d d995 b53d a15b 8c3c dee2 26bb
00000070: c9e5 ef3c 9530 433d 5fb4 5e3d ed19 763d
00000080: d5b7 293d 9c6f 58bd b952 4f3d 6c02 943c
00000090: 335b 35bd eeb5 f63a 1681 8abd 45c8 9a3c
000000a0: 9f0d b93c 5744 833c 8022 b23c 8ed8 813d
000000b0: 1b9d 723d 6f4b 4a3d 106b 8d3d f2d2 8b3d
000000c0: a600 83bb ef71 7f3d 714a dcb9 f3cd 853c
000000d0: 8e54 10bd abb6 5d3c 5eb8 6d3c 0151 2fbc
000000e0: 3842 03bd 9b6c 85bc c174 0d3d ec12 d63b
000000f0: b945 2e3d 52d7 813c 3b11 a53d 35a8 183d
00000100: 20ac 713d ee62 0d3d 35f7 9f3c d509 4f3c
00000110: af85 af3c 1433 973d 94ba b43c 8bba a63c
00000120: 9c31 183c c470 9dbc 977e c4bc 67ea ba3b
00000130: b65b 24bc f44a c23d 41b1 913c d758 dfbc
00000140: d793 d5bc a260 ac3d f1f2 333d 9611 7b3d
00000150: af30 acbc b83c d9bc a1f6 0d3d 6593 d2bb
00000160: 76de 1b3d 62f3 ac3d 40b3 213d b856 753d
00000170: 2885 8bbb de75 5f3d 6fb1 033d 719e f23c
00000180: 8132 7fbd 8b6e 073d 56bc 5c3c bbfe 5d3d
00000190: b83b 203c 0177 7c3d f066 1f3d 0719 a73c
000001a0: 7cb9 38bc 1178 2f3d bcec b73c 1d2f febb
000001b0: 113d 7e3d 073b 96bb 5544 29bd a6ae 1b3c
000001c0: 1b0e c53c 3478 b93c abe2 483d 59d0 923d
000001d0: 12fd a6bc 6dac 873c 3be3 c03c c8e3 b7bc
000001e0: bdaa 60ba baf2 fdbc d52c 6f3c 40c9 02bd
000001f0: 577d 5dbc 45ef 19bd 6e1a b43c 0c23 8ebc
00000200: c606 59bd 5c65 ad3c b98d 28bd 6fd6 883a
00000210: c299 0d3d 79bd 8c3d 9300 cc3a a291 083b
00000220: 9b7b 023d f951 3a3d 59fc 173c f4c5 583d
00000230: 45b7 aabb a79c 973d 39d1 8b3d 08ed 603c
00000240: a802 2b3d 2e41 6c3d b23c 823d 9767 4dbd
00000250: 702b e03c 3beb 5bbc e1b5 98bc 789d 9c3d
00000260: 705f 083c fe8c 3f3d 08d1 853c 2f2a 023d
00000270: 7b75 b13d 1f9a 113d adfc 883d faf9 353c
00000280: 1dc9 9e3b f8c8 79bc 7ad9 723d 7b59 aabc
00000290: 8ed0 833b 0d07 863d 6f20 8c3d 5a6f 85bd
000002a0: 55d7 673d 1d36 fd3b 4146 a53c 375d 0d3d
000002b0: 2b01 6a3d c180 1a3c 2526 833d 7409 b73c
000002c0: 3739 3a3c 9f09 143d 2c1b 36bd 1a79 2abd
000002d0: c83e 673d fd25 abbb 6fb0 083d 2ef8 1f3d
000002e0: f9ae 18bd 0c43 62bd 64cd 05bd 3a66 46bd
000002f0: b849 363d b137 86bb 2267 173c 12da 8b3a
00000300: bb9d 8f3d 8d41 463b a2d9 5a3c 388a 793c
00000310: da79 febc 7b73 133c b64e f8bb 6247 86bb
00000320: 3a4c ba3c 084b 873b 06f4 b43c d8d5 b1bc
00000330: f5cd 93bb 27ac 1f3d 6bd1 cc3c ae5b ab3d
00000340: 6e95 67bc 1a89 563d 48fd 0dbc ec65 ce3a
00000350: 6375 ec3c 07b1 163d 4f3d 493d 86fb 023d
00000360: aee1 06bd 92b7 213d c5d4 883b fea8 f4bb
00000370: e553 d4bc 494f 1abd fa63 1fbd 811b 59bc
00000380: ee85 bdbc 3e17 da3c ccae ac3c 4f36 56bc
00000390: 1a63 a0bc 8e8a 49bb 073e 943c 6462 543d
000003a0: 2f8e 413d 84b9 063d f739 b33d cd9e 1ebd
000003b0: cfd8 0b3d 25ec a53c ec14 fbbc b559 d3bc
000003c0: be69 ae3c 8b24 5dbd d8dc cc3c 71f7 093d
000003d0: d5aa 3c3d 7883 a4bc f90e 43bc 3e87 4d3d
000003e0: 344c 5f3c 6dde f0bc 8850 38bc 580b 50bc
000003f0: ba6b 52bd 0048 f83b 5195 b0b9 746f 9dbc
0.023225674 0.059285853 0.05064026 0.04017658 0.024732335 0.0035496834 0.05449401 -0.008861789
0.053993735 -0.024343165 -0.019709885 0.049355168 0.05241434 0.040577143 -0.02738477 -0.023668379
-0.055783246 -0.03160617 0.024350883 0.009936759 0.026741505 0.050194208 -0.01852035 -0.018201677
0.04259563 0.08866472 0.017133536 -0.0025464813 0.029284375 0.047653753 0.054371234 0.06008332
0.04143508 -0.052840814 0.050616 0.018067561 -0.044276427 0.001882253 -0.067629024 0.018894324
0.022589503 0.016023798 0.021744967 0.06340133 0.05923186 0.049388345 0.06905186 0.06827344
-0.00399788 0.062364515 -0.00042017133 0.016333556 -0.035236888 0.013532321 0.014509289 -0.010700465
-0.032045573 -0.016287139 0.034535173 0.0065330174 0.04254696 0.015849743 0.08059927 0.03726979
0.05900204 0.034518175 0.019527057 0.0126366215 0.02142605 0.07382789 0.022061624 0.020352622
0.009289172 -0.01921881 -0.023986144 0.0057042125 -0.010031631 0.094869524 0.017784717 -0.027264042
-0.026071472 0.08416869 0.04393286 0.061296068 -0.021019308 -0.02651821 0.03465903 -0.006426262
0.038053952 0.08444859 0.039477587 0.059897155 -0.004257817 0.054555766 0.032151636 0.029616566
-0.062304024 0.033064406 0.013472637 0.054198008 0.009779863 0.06163693 0.03891653 0.020397676
-0.011274692 0.042839114 0.022451751 -0.007757081 0.062069956 -0.0045846733 -0.041324932 0.009502089
0.024054578 0.022640325 0.049044292 0.071686454 -0.020384345 0.016561711 0.023545852 -0.022447482
-0.0008570364 -0.03099953 0.014598091 -0.03193021 -0.013518653 -0.0375817 0.021985259 -0.017350696
-0.052984975 0.021166496 -0.041150782 0.0010439883 0.034570463 0.068720765 0.0015564136 0.0020838757
0.03185616 0.04548833 0.009276473 0.052923158 -0.0052098357 0.07402926 0.068270154 0.013728388
0.04175058 0.057679348 0.06359233 -0.05014762 0.027364463 -0.0134227825 -0.018641414 0.07647222
0.008323535 0.04676532 0.016335025 0.03177851 0.08664986 0.035547372 0.06688819 0.011106962
0.004845752 -0.015245669 0.059289433 -0.02079462 0.0040226644 0.065443136 0.06842124 -0.06515379
0.05660184 0.007727398 0.020175101 0.034512725 0.05713002 0.009430111 0.0640376 0.022343375
0.01136618 0.036141988 -0.044459507 -0.041619398 0.056456357 -0.0052230344 0.033371385 0.039055042
-0.037276242 -0.055239722 -0.03266658 -0.048437335 0.044503897 -0.0040959944 0.009240897 0.0010669848
0.070125066 0.0030251474 0.013357552 0.015230708 -0.031063963 0.008999701 -0.0075777424 -0.004097865
0.022741426 0.0041288175 0.022089016 -0.021708414 -0.004510636 0.038982537 0.025002202 0.08367096
-0.014134748 0.052376844 -0.008666344 0.0015746928 0.028864568 0.03678992 0.049130734 0.031978153
-0.03293007 0.039481707 0.0041757547 -0.0074664345 -0.02591891 -0.03767327 -0.038913704 -0.013251186
-0.023135152 0.02662241 0.021079443 -0.013074472 -0.019578505 -0.003075275 0.018095983 0.051851645
0.047254737 0.032891765 0.0875129 -0.038725663 0.03414231 0.020254204 -0.030649625 -0.025799612
0.021290656 -0.05398993 0.02500765 0.033683244 0.046061356 -0.02008222 -0.011905425 0.050177805
0.013629008 -0.029402936 -0.011249669 -0.012698017 -0.051372267 0.0075769424 -0.00033680585 -0.019218184

linear2.bias f4 [512]
00000000: d70b 563d 331e a73c 907e a73c 1583 8abc
00000010: b4d0 873c 815e cfbc f983 103c 0e30 263d
00000020: a359 a63c 6ad5 5cbd 44f1 573d 7489 033c
00000030: 2228 9b3c a249 643c 4340 3dbd c8f2 b03c
00000040: db54 6b3d b151 adbc 9459 59bd 3584 e63c
00000050: 15a3 e13c ddce 1b3d ca84 69bd 23ac 5ebd
00000060: ba12 3fbc c4df 063d a41f e7bc c750 a33b
00000070: 03e7 8a3c a1f9 713d 6b44 103c a782 c2bc
00000080: 46a7 95bc bcb9 fdbc 6c01 0ebd 8de7 843c
00000090: fdde 08bd c3de 5fbb ed3d 813d a425 933d
000000a0: 5a63 753d 160a 0f3c cf7f 453c f83d 10bd
000000b0: 09fb 0ebd 6cc8 5a3d 0ba6 183d e62f a23d
000000c0: 1831 8e3c afb4 5e3c 9381 373d 4390 d53c
000000d0: b2a9 a13c a314 efbc f1d6 9eba 300c b7bc
000000e0: 91d8 553d c6e2 afbb 524d 273c d383 893c
000000f0: b591 253d cc98 f9bc dba9 acbc 4492 a23d
00000100: 654a 22bd 13e4 203d 31a0 4b3b be35 0b3c
00000110: 3139 b23c d42d ef3b 8191 fdbc 650f 3fbb
00000120: 925f c73d f095 b9bc 884d 2f3d 9a3a 703d
00000130: e151 2f3d 0ad9 2f3d cc22 bbbc d308 633d
00000140: d4cb 353d 025d 323d 36f4 24bb a642 80bd
00000150: 7e94 d63c 6b30 5cbd 0cd5 21bd 3bec 6bbc
00000160: 9552 c1bc b8d8 81bc 696f 543d 12a9 4f3d
00000170: 6f76 13bd 2265 593d e011 4fbd 993a 583d
00000180: 4a99 60bd b174 5a3d 11d8 1abc 3e01 c0bc
00000190: e8cc 283d 4cab 48bd 2e54 b23b b137 c1bc
000001a0: a45b ed3c f10e 143d 8e06 1e3d 5efc e5bc
000001b0: f297 0e3c 6b33 8e3d f942 56bd 7732 073c
000001c0: ce10 02bd a3e8 d23c 1cf6 8bbc b3bf b2bc
000001d0: 7425 50bd 23ac b93a c36c e83c 4af5 a73c
000001e0: dcc5 b83c 7d68 7abc ff77 3ebc f2ef 793d
000001f0: 907a 74bd 3a7f b8bb 9c9b 093d 5a3a 323d
00000200: 20de c9bb 6b1a 383d 2e78 84bd 29c2 d0bc
00000210: e2d3 653d a949 a9bc dd3c 1b3c 88a8 9a3b
00000220: 35cd 853d 6376 253d 196c 303d 6dcf 11bd
00000230: 2550 453d eee1 2b3d 4dca dabc e333 9bbc
00000240: 21c4 50bd e875 d83a c73d 34bd ef9f 833b
00000250: 20a1 513d b3d2 503d d154 4abb 7294 26bc
00000260: bd97 d9bc 8249 82bd 6591 8ebc 2add 653d
00000270: cfc2 333d e582 863b 37fa f73c b14a 0fbd
00000280: ad23 f2bc c7cb 25bc d813 253c 820a babc
00000290: 124c e1bc 0b87 683d 4838 d1bc 0d51 1cbd
000002a0: b646 70bd 8f23 b6bc e4bd b93b 5e2f 74bc
000002b0: f85e fdbc 913a 753c 24b0 27bd c633 403d
000002c0: efef 36bd 8242 19bb 1d85 273d c2f2 803d
000002d0: 07d7 703c fafd 153d e9d0 0ebd 2c8e 2e3d
000002e0: 3825 22bd 2d49 2cbc a55e 8f3a 884a 94bc
000002f0: df5e 923c 8860 863c 55a1 5dbd 04ff e93c
00000300: 56bd 69bc 8afd 7e3d 058e 04bc 98cb 6a3d
00000310: 201d 4dbd 1434 b13a d0da 46bc 80c2 cb3a
00000320: 0467 103c 2bf2 8ebc 418f 11bd 8705 633d
00000330: 8ac5 84bc 42c5 08b9 7a13 05bd 86ed 5abc
00000340: 7090 1dbc 1e84 9f3d c7f0 1dbc 5892 333c
00000350: 6825 163c 4c4d dd3c 725b aa3c 1c88 603b
00000360: 0c00 edbb 535d 27bd 0d31 093d a6d5 80ba
00000370: 1e5c 213d 1b34 63bc fcb2 b23c 2529 193c
00000380: d426 383c dab8 51bd afc8 7f3d db0a 9d3c
00000390: eb10 3a3d 8f04 0ebd eb66 1abd 7744 c6bc
000003a0: 2ce9 5fbd 3afa 873d d2ef c33c 0acf 533d
000003b0: 1b9d 2c3d 2a06 43bc a4b9 ff3c ce2b 363d
000003c0: 021a 323d fc0b 32bc 5373 eb3b 2366 55bd
000003d0: 4ceb 1abd e482 433d e95d 20bd f01f eb3c
000003e0: 387b 04bc 1810 3d3d eefd a5bc 8e06 bf3c
000003f0: 1247 2fbd c5e9 4ebd 3ee8 53bd 2fc1 bc3c
0.052257385 0.020400142 0.020446092 -0.016908208 0.01657901 -0.025313618 0.008820527 0.040573172
0.020306414 -0.053914465 0.052720323 0.008028377 0.018940035 0.013933571 -0.046203863 0.021600142
0.05745397 -0.021157118 -0.053063944 0.028139213 0.027543584 0.038039077 -0.057011403 -0.05436338
-0.01166218 0.032928243 -0.02821333 0.0049839946 0.016955858 0.059075955 0.008805375 -0.02374394
-0.018268239 -0.030972354 -0.034669325 0.016223693 -0.033415783 -0.0034159876 0.063106395 0.07184914
0.059909202 0.008730432 0.012054398 -0.035215348 -0.034907375 0.053413793 0.037267726 0.07919292
0.017357394 0.013592883 0.044801306 0.026069766 0.019734237 -0.029184645 -0.0012118501 -0.022344679
0.052208487 -0.0053676097 0.010211306 0.016786491 0.04042216 -0.030468367 -0.021077087 0.07938054
-0.03962173 0.03928001 0.0031070823 0.0084967 0.021755787 0.0072991643 -0.03095317 -0.0029153463
0.097350255 -0.022654504 0.04279855 0.058649637 0.042802695 0.042931594 -0.02284374 0.055428337
0.04438384 0.04354573 -0.0025169975 -0.06262712 0.026193853 -0.053757112 -0.039509818 -0.014399583
-0.023598948 -0.01585041 0.05186406 0.050698347 -0.03600162 0.053074963 -0.050554156 0.052790258
-0.054833688 0.05333394 -0.009450928 -0.023438092 0.04121104 -0.048991486 0.005442164 -0.023586126
0.028974362 0.03614706 0.03858047 -0.02807444 0.008703219 0.06943401 -0.052309964 0.008251778
-0.031754307 0.025745695 -0.017085128 -0.021819925 -0.050816968 0.0014165681 0.028372174 0.020502705
0.022555284 -0.015283701 -0.011625289 0.061019845 -0.059687197 -0.005630401 0.033595666 0.04351268
-0.0061605126 0.04494707 -0.06468235 -0.025483208 0.05611027 -0.020665007 0.00947496 0.0047197975
0.06533281 0.040396105 0.04307184 -0.035598207 0.048172135 0.04196351 -0.026707793 -0.01894564
-0.050968293 0.0016514631 -0.044004228 0.0040168683 0.05117905 0.05098219 -0.0030873308 -0.010167228
-0.026561612 -0.06361677 -0.017403314 0.05611912 0.043886956 0.0041049593 0.030270679 -0.03498334
-0.029558027 -0.010119385 0.010075532 -0.022710089 -0.027502093 0.056769412 -0.025539532 -0.038163234
-0.058661185 -0.022233753 0.0056683887 -0.014903871 -0.030929074 0.014967577 -0.040939465 0.046924375
-0.044662412 -0.002338559 0.04089843 0.062963024 0.014699704 0.036619164 -0.0348672 0.042616054
-0.039586276 -0.010515493 0.001093824 -0.018101946 0.017867504 0.016403452 -0.054108936 0.028563984
-0.014266333 0.062253512 -0.008090501 0.05732307 -0.050076604 0.0013519549 -0.01213713 0.0015545636
0.008813623 -0.017449459 -0.03553701 0.055425193 -0.016207475 -0.00013043455 -0.032489277 -0.013362294
-0.009616956 0.07788871 -0.009639925 0.010960184 0.009164192 0.027014397 0.020795558 0.0034260815
-0.0072326716 -0.040860485 0.033494044 -0.0009829297 0.03939449 -0.013867403 0.021813862 0.0093481885
0.011239726 -0.05120168 0.062447246 0.019170215 0.04542629 -0.034672316 -0.037695806 -0.024202568
-0.05466573 0.06639524 0.023918066 0.05171112 0.042142015 -0.011903325 0.03121645 0.04447537
0.043481834 -0.010867115 0.0071853786 -0.05209936 -0.037822053 0.04773225 -0.03915206 0.028701752
-0.008086018 0.046157926 -0.020262685 0.023318555 -0.042792387 -0.05051591 -0.051735155 0.023041336

linear3.weight f4 [10, 512]
00000000: 2ac5 04bd 7802 14bd cb46 84ba 5d0c 1fbd
00000010: 529f 34bd fc5d 323d 8839 aabc b54b 16bd
00000020: 6f84 30bc 21da d83c f765 28bd 9f62 483c
00000030: aa67 abbc bd6b 30bd a642 113d 897c e0bc
00000040: a09d 713c a64a 873c 931f f53c e3b5 b0bc
00000050: 7c5b cdbc 7374 2f3d f092 5d3c 14a7 d03c
00000060: 80bd e5bc 88c2 18bc 546d a6bc cd60 31bd
00000070: 31e2 b03c 8b3c 07bd d539 2cbc 7390 cabc
00000080: ff83 983c 66d8 b2bc 8165 e13c 8a0e a83c
00000090: d00b 263d 2054 78bc 2750 0dbd 4968 3dbd
000000a0: 3121 f8ba ff3a 873b d39e 3f3c ef4a 1cbd
000000b0: b837 efbc e576 19bd 66d8 2c3d 57f3 65bd
000000c0: fffb 07bd 3de3 f83c 6094 1fbb 7ba9 45bd
000000d0: 0f85 db3c df3b 993c 59a9 983c 5539 de3c
000000e0: f2da 043d 289b 093c fdc2 073d 5c11 de3a
000000f0: 962d 92bc 80c9 cc3c e86a eebb 9749 6cbc
00000100: f70d a5ba 037b cabb f7bf 19bd c6ba a5bc
00000110: 7a87 98bc e3fd 1b3d 8fab 55bc 0524 2fbc
00000120: b324 e1bc 6a61 863c 9b84 0f3d 42c8 1d3d
00000130: 45a8 c0bb 23ab 04bd bb21 a0bc 7579 eb3b
00000140: 9648 babc 4d43 e9bc 1d20 01bc 8e63 d53c
00000150: 8fff d4bb fb22 c5bb 83f3 8d3b 3eb3 14bd
00000160: 5e8e ce3c 6f2f 26bd 779f 3f3c 0127 f4bc
00000170: 8fb0 75bb c10f fa3c ff5e 1b3d 76e3 7abc
00000180: 988d fe3b 02c1 e03c e8ec a7bc 12ca 1bbb
00000190: 8c30 7bb9 e8e8 be3b 3847 e03c e45e 0f3d
000001a0: 6516 b3bc 4bbe f3bc dc6f 883c 3ff0 0e3d
000001b0: f672 633c 83c6 d83c ea8d 80bc ebe9 073c
000001c0: 4f11 993c e83f 873b 5ef4 03bd 09df 84bc
000001d0: 97e5 dd3c 27b7 93bb 8808 4a3c fac8 8a3c
000001e0: 11e0 253c 6ddd 2bbd 9db8 f73c 0594 efbc
000001f0: a1a6 073d 94e8 103d 01ea 45bc da18 ab3b
00000200: 08b4 26bc fa1e 0f3c 5d09 1c3c 02e8 e2bc
00000210: 1051 a23c 9059 73bc 4988 59bc 8b15 2c3d
00000220: 7198 2ebd f380 a4ba 387a 313d c588 9dbc
00000230: f767 37bc 0254 0bbd e231 3b3c afb1 a83b
00000240: f10d fbbb b5a4 eebc f872 993c 8440 ff3c
00000250: bcc6 80bc 43a4 b5bc 30f4 afbb 48ce 72bc
00000260: f915 a2bc 854c 823c a9d6 e9bc fc55 233c
00000270: da77 fcbc 9df8 acbc 41e2 09bd d171 f1ba
00000280: d1ee 87bc b14e 753c 92e7 c43c 142e 40bd
00000290: f738 c3bb 47d3 1dbd ba49 0c3d 4a29 703a
000002a0: d12f a7bc 2444 8cbc 0605 f0bc 03f7 a03b
000002b0: 022c 26bd b72b 9fbc 0e91 333d 73c4 00bd
000002c0: e4a4 913a 60eb 563c cb2c a43c b97d 05bd
000002d0: e44b a1bb 8671 2e3d be44 9cbc 7c73 5f3c
000002e0: 8369 c73b e861 04bd c580 b5bc 0116 0dbc
000002f0: d702 8b3c e4e5 d4bc bce6 323c 6e23 973c
00000300: 8871 45bc 746b debc cfe0 68bc 33c8 af3c
00000310: 8db7 153d 6051 d33c 0006 05b9 bbad f9bc
00000320: a4d5 d3bc 579f 333d 2360 7f3a 6479 c1bc
00000330: e075 11bd d4bb 723a 7919 183d 23be 9bbc
00000340: 46b0 ccbc 11bb 82bc 4e68 6abd c2df e4bc
00000350: daed 9b3c 87ca 003d fed3 1abd d390 b03c
00000360: f567 75bd 1c27 1f3d f6c5 3e3c 07ff db3a
00000370: c82f 03bd 4933 eabb 4c96 32bd 5141 05bd
00000380: 69e5 0b3d c386 1c3d 0bc4 093c 117a d83c
00000390: 25df 02bd caf1 08bc bce9 9dbc c71a 013d
000003a0: a5b8 f53c 3219 22bd 30eb 67bb 38aa cbbc
000003b0: c2fb adbc b6a7 103d e34e 67bc 2033 f83c
000003c0: 41c2 073b caaf 32bd 52c7 4abb 0318 db3c
000003d0: 5222 a2bc ef88 9a3b cc42 953c 9998 15bd
000003e0: d0b5 53bc 2029 12bd 0596 27bd b099 cfbc
000003f0: 75e0 32bd 78ea 1d3b ffdc 0e3c 21d5 4dbc
-0.032414593 -0.036135167 -0.0010091899 -0.03883015 -0.044097252 0.04354666 -0.020779386 -0.036693294
-0.010773762 0.0264712 -0.041112866 0.012230544 -0.020923454 -0.043071497 0.03546395 -0.027403133
0.014747053 0.016515087 0.029922282 -0.021571105 -0.025068037 0.042835664 0.013523802 0.025470294
-0.028044462 -0.009323724 -0.020315804 -0.043305207 0.021592231 -0.033016723 -0.010511835 -0.024727082
0.018617628 -0.021831702 0.027514221 0.020514745 0.04053861 -0.015156776 -0.034500267 -0.046242032
-0.001893079 0.004126906 0.0116955815 -0.0381574 -0.029201373 -0.037466902 0.04219856 -0.05614027
-0.033199307 0.030381793 -0.0024349913 -0.048257332 0.026796846 0.018705307 0.018635439 0.027126947
0.032435365 0.008398809 0.03314494 0.0016942429 -0.017844003 0.024998426 -0.007275928 -0.014421842
-0.0012592663 -0.006179215 -0.037536588 -0.020230662 -0.018619288 0.038083922 -0.013041391 -0.01068974
-0.02748332 0.016403873 0.03503857 0.03852106 -0.0058794343 -0.03238977 -0.019547334 0.0071861097
-0.02273969 -0.028474474 -0.007881192 0.026048448 -0.0065001915 -0.006016133 0.0043320074 -0.03630375
0.02521437 -0.04057258 0.011695734 -0.029803755 -0.003748927 0.03052509 0.037932392 -0.01531302
0.007768344 0.027435783 -0.020498708 -0.0023771566 -0.0002395531 0.0058261044 0.02737771 0.035002604
-0.021861264 -0.029753825 0.016654901 0.034897085 0.013882389 0.026461845 -0.01569267 0.0082955165
0.018685011 0.0041274913 -0.03221547 -0.016219633 0.027087016 -0.0045079174 0.012331136 0.016941536
0.010124222 -0.041959215 0.030239398 -0.029245386 0.033117894 0.035378054 -0.012079717 0.0052214684
-0.010174759 0.008735413 0.009523717 -0.02769852 0.019814044 -0.014852896 -0.013277122 0.042012732
-0.04262585 -0.0012550637 0.043329448 -0.019230256 -0.011194221 -0.034015663 0.011425467 0.0051481347
-0.007661574 -0.029131273 0.01873158 0.031158693 -0.015719764 -0.022173053 -0.0053696856 -0.014819689
-0.019785868 0.015905628 -0.02854474 0.009969231 -0.030818868 -0.021114642 -0.03366304 -0.0018420761
-0.016593369 0.014972375 0.024036203 -0.046918944 -0.0059577185 -0.038531568 0.03425 0.0009161426
-0.020408543 -0.017122336 -0.02929927 0.0049122586 -0.040569313 -0.019430025 0.043839507 -0.03143735
0.0011111763 0.013117641 0.02004089 -0.0325906 -0.004922377 0.042588733 -0.019075748 0.013638373
0.006085576 -0.032319933 -0.022156129 -0.008611203 0.016969128 -0.025988527 0.010919269 0.018449511
-0.012050994 -0.027150847 -0.014213755 0.021457767 0.036552 0.025795639 -0.00012686104 -0.030478349
-0.025858708 0.04385313 0.00097418035 -0.023617454 -0.035512805 0.0009259556 0.037133668 -0.019011563
-0.024986397 -0.01595834 -0.05722838 -0.027938727 0.019034315 0.031443145 -0.037799828 0.021553433
-0.059913594 0.038855657 0.011643877 0.0016784378 -0.03202799 -0.007147227 -0.043600366 -0.032532994
0.03415433 0.038214456 0.008408557 0.026425393 -0.03195109 -0.008358428 -0.019276492 0.031519677
0.029995272 -0.03957481 -0.0035387985 -0.02486144 -0.021238212 0.03531619 -0.014117929 0.030297816
0.002071515 -0.043624677 -0.0030941558 0.026744848 -0.019791756 0.004716031 0.018220328 -0.03652248
-0.012921765 -0.03568375 -0.040914554 -0.025341839 -0.04367109 0.0024096053 0.008719682 -0.012563021

linear3.bias f4 [10]
00000000: 41c7 20bd a698 96bc 3a32 fabb dfe1 0cbd
00000010: 4f0e 7ebc 9c61 0fb9 e296 6f3b 6dd4 8e3b
00000020: 2d01 a7bb e2fd 1a3d
-0.039252523 -0.018383335 -0.007635382 -0.034395095 -0.015506341 -0.00013673905 0.003655844 0.004358819
-0.0050965757 0.037839778
