src/pepper_training/training_results/2022-12-16-random_cube2/model/actor-random_cube2.pkl (torch, 561047 bytes, 6 tensors)

linear1.weight f4 [256, 11]
0	0xbe9d9d97	-0.30784294
1	0xbe6efde1	-0.23339035
2	0xbe45a6a7	-0.19301854
3	0xbdf5063d	-0.119640805
4	0xbd1340da	-0.03595052
5	0x3e6272ae	0.2211406
6	0xbe104ecf	-0.14092563
7	0x3e052a7d	0.13004489
8	0xbc58f45b	-0.013241853
9	0x3d7ba68a	0.06143812
10	0x3d15d1f0	0.036577165
11	0xbe0faf39	-0.14031686
12	0x3db39e88	0.08770472
13	0x3d9e1fc6	0.07720904
14	0xbd30287b	-0.043007355
15	0xbd46b34b	-0.04851083
16	0x3e28a6e8	0.1646992
17	0xbd7a49d5	-0.061105568
18	0xbe4fd788	-0.20297062
19	0x3e31a924	0.17349678
20	0x3c3eea25	0.011652504
21	0xbe334a26	-0.17508754
22	0xbe3c6e00	-0.18401337
23	0xbe8486fc	-0.25884235
24	0x3e8b41dc	0.27198684
25	0x3e66af56	0.22527823
26	0x3d225011	0.03962714
27	0x3dedb1d8	0.11606187
28	0x3e2d194e	0.16904184
29	0x3e31f33c	0.17377943
30	0xba316f83	-0.00067686307
31	0xbd8ef238	-0.06979793
32	0x3db77daa	0.089595154
33	0x3e051fbf	0.13000391
34	0x3e5e39ea	0.2170178
35	0xbe4e949b	-0.20173876
36	0x3da8a615	0.08234803
37	0x3e929a78	0.28633475
38	0x3e859939	0.26093462
39	0xbe1654bf	-0.14680766
40	0xbd1b1329	-0.03786007
41	0xbce67e7e	-0.028136488
42	0x3e698b65	0.22807081
43	0x3be721ec	0.0070536043
44	0xbe8af27c	-0.27138126
45	0x3e24c46f	0.16090558
46	0x3ca8af43	0.020591384
47	0x3e9c1844	0.30487263
48	0xbdba883a	-0.091080144
49	0xbe823820	-0.25433445
50	0x3d98750f	0.07444202
51	0xbc1391ce	-0.0090069305
52	0x3d0805d1	0.033208672
53	0x3e79ab81	0.2438183
54	0x3e268628	0.16262114
55	0xbe32753a	-0.17427531
56	0xbe32ad2d	-0.17448874
57	0x3e8f51e7	0.27992174
58	0xbe09d782	-0.13461116
59	0xbe73e0f5	-0.23816283
60	0x3e12d59e	0.14339301
61	0xbe61d716	-0.22054705
62	0x3cec8ca0	0.028875649
63	0x3d4cfe9c	0.050047502
64	0x3e602a0b	0.21891038
65	0xbdbc9058	-0.09207219
66	0xbe217163	-0.1576591
67	0x3deefe2b	0.116695724
68	0xbe712395	-0.2354873
69	0x3de6a10c	0.11261186
70	0xbe359e99	-0.17736281
71	0x3d150fde	0.036392085
72	0xbe7efb85	-0.24900635
73	0xbda9fdad	-0.08300338
74	0xbdd165c9	-0.10224492
75	0x3ce03dc3	0.0273732
76	0x3e850df1	0.259872
77	0x3e585483	0.21125989
78	0xbe7e5667	-0.24837647
79	0x3e292fd8	0.16522157
80	0x3de69f16	0.11260812
81	0x3e5e7636	0.21724781
82	0xbb61c057	-0.003444692
83	0xbcd4f4b0	-0.025995582
84	0xbe6b7f6f	-0.22997831
85	0xbe516ecf	-0.20452426
86	0x3de21d3c	0.11040732
87	0x3e3a2cbf	0.18181132
88	0xbe343360	-0.17597723
89	0x3cfcc278	0.030854449
90	0x3e115ff0	0.14196754
91	0xbda0b2a1	-0.07846571
92	0xbd6d7370	-0.057971418
93	0xbdbcb942	-0.092150226
94	0xbe8e2912	-0.2776571
95	0xbe57ec79	-0.21086301
96	0xbe58be12	-0.21166256
97	0xbdf00cf7	-0.11721223
98	0xbe041024	-0.12896782
99	0x3e1865c2	0.14882568
100	0x3e8ca4ea	0.2746957
101	0x3e4c6f24	0.19964272
102	0xbe3639be	-0.17795464
103	0xbe925d66	-0.28586882
104	0x3db028e0	0.08601546
105	0xbe7d1feb	-0.24719207
106	0xbd5e9de9	-0.054349814
107	0xbcb3950a	-0.021921653
108	0x3e2faf22	0.17156652
109	0xbc9d7d1a	-0.019224692
110	0x3e61ce3f	0.22051333
111	0xbe17cdd5	-0.14824612
112	0xbe39e5f2	-0.18154123
113	0x3c2d0ce2	0.0105621535
114	0xbde11a55	-0.109913506
115	0x3e926992	0.2859617
116	0xbe2a8ff3	-0.16656475
117	0x3dc1ef48	0.094694674
118	0x3d30606b	0.0430607
119	0x3e983aae	0.2973227
120	0x3e6c43bf	0.23072718
121	0xbd075c05	-0.03304674
122	0x3e4a4a08	0.19754803
123	0x3e4f13c5	0.20222385
124	0xbe85b8cc	-0.2611755
125	0x3e2fce14	0.17168456
126	0x3e9b8a14	0.30378783
127	0x3e41ba0d	0.18918629
128	0xbe269aaf	-0.16269945
129	0xbe419d9c	-0.1890778
130	0x3e9a9abf	0.30196187
131	0x3d95d8cc	0.07316741
132	0x3e78c056	0.2429212
133	0x3e6b4631	0.22975995
134	0xbddfb017	-0.10922258
135	0xbe1e5aa2	-0.15464261
136	0xbdff4c3d	-0.12465713
137	0x3e761e4f	0.24035
138	0xbe986153	-0.29761752
139	0xbe40e3e6	-0.18836936
140	0xbe8f4ab4	-0.2798668
141	0xbdf9e7ca	-0.122024134
142	0x3e426026	0.1898199
143	0xbe0875ef	-0.13326238
144	0xbe7b0ff2	-0.24517801
145	0xbc59665d	-0.013269034
146	0xbca3d9f3	-0.020001387
147	0xbe0719e2	-0.13193467
148	0x3e3d9914	0.18515426
149	0xbe85c273	-0.26124915
150	0xbe553a04	-0.20822912
151	0x3e97b16a	0.29627544
152	0x3ea2015e	0.31641668
153	0xbd8dbae9	-0.06920416
154	0x3e72c10c	0.23706454
155	0x3d20e2bb	0.039278727
156	0xbe872e8d	-0.26402703
157	0x3db4257e	0.087962136
158	0xbe5e6dbb	-0.21721546
159	0x3e2813df	0.1641383
160	0xbe0625e6	-0.13100395
161	0x3decc798	0.11561507
162	0x3df95325	0.12174062
163	0xbe83f65f	-0.25773904
164	0x3e692507	0.22768031
165	0xbd9c9242	-0.07645084
166	0x3e1d482a	0.1535956
167	0xbe821a9c	-0.25410926
168	0x3e8eb260	0.27870464
169	0x3e6ec082	0.23315623
170	0x3e453bd6	0.19261107
171	0x3c1d610f	0.00960566
172	0xbe14c77e	-0.14529225
173	0x3d66ee9d	0.056379903
174	0x3c5b8982	0.013399484
175	0xbdf934d5	-0.1216828
176	0x3c1cdbcf	0.009573891
177	0xbdaccf82	-0.084380165
178	0xbe848606	-0.25883502
179	0x3e7eb6e6	0.24874458
180	0x3d562f3c	0.05229114
181	0xbe8cc74c	-0.274958
182	0xbe8c2fd4	-0.2738024
183	0xbe553de9	-0.20824398
184	0x3dae85dd	0.08521626
185	0xbe21c559	-0.15797938
186	0xbe981752	-0.29705292
187	0xbdfe19ef	-0.1240729
188	0x3d6ecae8	0.058298975
189	0x3c0d6166	0.008629179
190	0x3cd93190	0.026512891
191	0xbe309e90	-0.17247987
192	0xbe4f96aa	-0.20272318
193	0x3e454741	0.19265462
194	0x3e885928	0.2663052
195	0xbe50fc38	-0.20408714
196	0xbe5849b3	-0.21121864
197	0xbd339975	-0.04384752
198	0xbd43f8c4	-0.047844663
199	0x3e959118	0.2921226
200	0x3d15833e	0.036502115
201	0x3d9012e5	0.07034854
202	0x3e4ebc02	0.20188907
203	0xbc2b2399	-0.010445499
204	0xbe6d89de	-0.23197123
205	0x3db61115	0.08889977
206	0xbe3cbbcd	-0.18431015
207	0x3e84b5eb	0.25920042
208	0x3e86b4b2	0.26309735
209	0x3e7b64b4	0.24550134
210	0xbe2dc569	-0.16969837
211	0xbe2526bd	-0.16128059
212	0xbe8ec28f	-0.2788281
213	0x3db29ded	0.08721528
214	0xbdc6d4c4	-0.097085506
215	0x3e023899	0.12716903
216	0xbe837689	-0.25676373
217	0x3d3111b9	0.043229792
218	0x3e6892f4	0.22712308
219	0xbe36958e	-0.17830488
220	0xbe58327d	-0.2111301
221	0xbdbb180b	-0.09135445
222	0xbe799b4a	-0.24375644
223	0xbb3d9af2	-0.0028931466
224	0x3d43ffe1	0.047851447
225	0x3dfa5604	0.122234374
226	0xbdad22af	-0.08453881
227	0xbe760037	-0.2402352
228	0xbdb3de2e	-0.08782612
229	0x3c0046f4	0.007829417
230	0xbe70b63d	-0.23507018
231	0x3b11d15b	0.002225003
232	0x3d495136	0.049149714
233	0xbe7121ac	-0.23548001
234	0x3df8ae56	0.12142627
235	0x3e822bdc	0.25424087
236	0xbe7ec3d7	-0.24879394
237	0x3dee3529	0.11631233
238	0x3d486c33	0.04893131
239	0xbd98b053	-0.07455506
240	0xbe3460bb	-0.17615025
241	0x3e12e74c	0.14346045
242	0x3e62ee89	0.22161306
243	0x3e3455b1	0.17610814
244	0x3e126e20	0.14299822
245	0xbe2a9c2b	-0.16661136
246	0x3c806e95	0.01567773
247	0xbe7c71bf	-0.24652766
248	0xbdbc8f7c	-0.09207055
249	0xbe38ec14	-0.18058807
250	0xbe482a86	-0.19547471
251	0xbd7e47bf	-0.06208014
252	0x3e941d2a	0.289285
253	0x3b880e8f	0.004152126
254	0xbdfa12b0	-0.122105956
255	0xbdf86132	-0.121279135

linear1.bias f4 [256]
0	0x3e8934be	0.26798052
1	0xbd4791b5	-0.04872294
2	0x3d49645a	0.04916797
3	0xbe388ead	-0.18023176
4	0x3e37fc8e	0.17967436
5	0x3b5f6ca9	0.0034091866
6	0x3db7985f	0.08964609
7	0xbd1b9771	-0.037986223
8	0xbe3b33e1	-0.18281509
9	0x3e3a5d9f	0.18199776
10	0xbe0f8642	-0.14016059
11	0x3e53e364	0.20692211
12	0xbdfaa353	-0.12238183
13	0x3e6f0679	0.23342313
14	0x3e5f08d1	0.21780707
15	0x3d5380cc	0.051636502
16	0x3ca00f01	0.019538404
17	0x3e381bf6	0.17979416
18	0xbe24a83b	-0.160798
19	0xbe81a8b6	-0.2532403
20	0xbd2ff825	-0.04296126
21	0xbe26be4b	-0.16283529
22	0xbe38776a	-0.18014303
23	0x3e45fef6	0.19335541
24	0x3d310d3b	0.04322551
25	0x3e94a71f	0.29033753
26	0xbe95bf73	-0.29247627
27	0xbdec0ecb	-0.11526259
28	0x3e4b2a64	0.1984039
29	0xbd616cee	-0.055035524
30	0x3e0445f0	0.12917304
31	0x3e2c8cc3	0.16850571
32	0xbe50440b	-0.20338456
33	0x3d28508a	0.041092433
34	0xbe492130	-0.19641566
35	0x3e3505a8	0.17677939
36	0xbe049c05	-0.12950142
37	0xbdc757e6	-0.09733562
38	0xbd99f81b	-0.075180255
39	0x3e7e7361	0.24848701
40	0xbd82c1d0	-0.06384623
41	0x3e6455dc	0.22298378
42	0x3d41f727	0.047354843
43	0xbe8c7dfc	-0.27439868
44	0x3e8a3136	0.2699067
45	0xbe733144	-0.23749262
46	0x3e48ca6e	0.19608471
47	0x3dd65fb2	0.10467471
48	0x3d74f4f9	0.059803937
49	0x3e856d0d	0.26059762
50	0x3e3352b2	0.17512015
51	0xbdc4dd40	-0.096125126
52	0xbd27471f	-0.04083931
53	0x3e6e425b	0.232675
54	0xbe2973b1	-0.16548039
55	0xbdcd0da9	-0.10012371
56	0x3e7b66ec	0.2455098
57	0x3d04065b	0.032232624
58	0x3e1f548b	0.15559594
59	0xbe4f184e	-0.20224115
60	0xbe8574fd	-0.26065817
61	0x3e729c64	0.23692471
62	0xbd60944c	-0.054828927
63	0xbe8ec366	-0.27883452
64	0x3e65dd2f	0.22447656
65	0xbe41cdee	-0.18926212
66	0x3e6d8f17	0.23199116
67	0xbe8d12cd	-0.27553406
68	0x3bf01ac2	0.0073274085
69	0x3cbee78f	0.023303775
70	0xbe2f0cfa	-0.17094794
71	0xbc28a349	-0.010292836
72	0x3e1ad699	0.15120925
73	0x3ddfa57f	0.10920238
74	0xbdb44085	-0.088013686
75	0x3e6b2876	0.22964653
76	0xbe915f1d	-0.28392878
77	0x3d518d0d	0.051159907
78	0x3e4b54ca	0.19856563
79	0x3daa8e8a	0.083279684
80	0x3dc67c78	0.09691709
81	0xbe7a1e83	-0.24425702
82	0xbdc5edfa	-0.09664531
83	0xbdea3245	-0.114353694
84	0xbe642fbc	-0.22283834
85	0xbdbde00d	-0.0927125
86	0xbe4e0eb4	-0.20122796
87	0x3e94ed79	0.29087427
88	0xbd34bfa0	-0.04412806
89	0x3e1e2393	0.15443258
90	0xbe8e7e39	-0.27830675
91	0xbd4ce067	-0.050018694
92	0x3e93d77d	0.28875342
93	0x3dc1de08	0.09466177
94	0x3df88ab7	0.12135833
95	0xbc9b3dc6	-0.018950354
96	0x3e15fd07	0.14647304
97	0x3d9a3838	0.07530254
98	0xbb45b36a	-0.0030166754
99	0xbe3508f6	-0.176792
100	0x3d6c88ba	0.05774758
101	0x3e6a1339	0.22858895
102	0xbd45c587	-0.04828408
103	0x3e90c7fc	0.28277576
104	0xbd974c2e	-0.07387577
105	0x3decf783	0.115706466
106	0x3e0251b3	0.12726478
107	0x3e90c651	0.28276303
108	0xbe8f888f	-0.28033873
109	0x3e889b61	0.26681045
110	0x3e27da1c	0.16391796
111	0xbe14c2c0	-0.14527416
112	0xbe2a6d82	-0.16643336
113	0x3e024336	0.12720951
114	0xbe1a149e	-0.15046927
115	0xbdc4500e	-0.09585582
116	0xbe805f77	-0.25072834
117	0x3e2ca936	0.16861424
118	0x3e594590	0.21217942
119	0x3d841117	0.06448572
120	0x3e55a546	0.20863828
121	0xbdbf52d5	-0.09341971
122	0xbe8f140c	-0.27944982
123	0x3dcffec4	0.101560146
124	0x3e2b798d	0.16745587
125	0xbe088781	-0.1333294
126	0xbe4b0149	-0.19824709
127	0x3df53a15	0.11973969
128	0xbe2afe1c	-0.16698498
129	0x3d06fa02	0.03295327
130	0xbd6c2ddf	-0.057660934
131	0xbc918a23	-0.017766064
132	0x3e923c8d	0.28561822
133	0xbdd93acd	-0.106069185
134	0x3def2ff5	0.11679069
135	0xbe180f59	-0.14849605
136	0x3e25f257	0.16205727
137	0xbe7fbf2e	-0.24975273
138	0x3e3db57d	0.18526264
139	0xbe2a8325	-0.1665159
140	0xbdadc46c	-0.0848473
141	0xbe632ef9	-0.22185887
142	0x3bcc7eab	0.006240686
143	0xbc91c289	-0.017792957
144	0x3e87e683	0.26543054
145	0xbe19d408	-0.1502229
146	0xbdb70582	-0.089365974
147	0xbe8c3e96	-0.273915
148	0x3d88a4fa	0.06672092
149	0x3e254cb0	0.16142535
150	0x3d8ca500	0.06867409
151	0xbcaa7bb6	-0.020810943
152	0x3d845268	0.0646103
153	0xbe8c1cb3	-0.27365646
154	0xbc031be4	-0.008002255
155	0x3e76e49f	0.2411065
156	0x3e1446dc	0.14480156
157	0xbe53f4df	-0.2069888
158	0x3df3aad2	0.11897816
159	0xbe58d501	-0.21175005
160	0xbdf80dd1	-0.1211201
161	0xbe995c8b	-0.29953417
162	0xbd577205	-0.052598972
163	0xbe37d904	-0.17953879
164	0xbe24ac71	-0.16081406
165	0x3c72ded7	0.014823637
166	0x3e7472b4	0.23871881
167	0xbe161241	-0.14655401
168	0xbe5235ca	-0.20528331
169	0x3e7af4e8	0.24507487
170	0x3ea139a6	0.31489295
171	0xbe51b38a	-0.20478645
172	0xbd056e5c	-0.03257595
173	0x3c35ab3a	0.011088187
174	0x3e085f68	0.13317645
175	0xbe98cf41	-0.29845622
176	0x3e488f26	0.19585857
177	0x3e8b335f	0.2718763
178	0xbd60ab44	-0.05485083
179	0x3e9961a8	0.29957318
180	0xbe70f292	-0.23530033
181	0x3e220042	0.15820411
182	0xbb474376	-0.00304052
183	0xbd847e1f	-0.06469368
184	0x3dd890ec	0.10574517
185	0xbdd9070e	-0.10597049
186	0xbe1a8d9f	-0.15093087
187	0xbe1258a3	-0.14291625
188	0x3dcf5f24	0.101255685
189	0xbdaa4676	-0.083142206
190	0x3bf9d653	0.0076244264
191	0xbdad8070	-0.08471763
192	0x3e9d53ff	0.30728146
193	0x3e0f6db3	0.1400669
194	0xbd86b3ff	-0.065773
195	0x3e164457	0.14674507
196	0xbd845b14	-0.06462684
197	0xbd6afabd	-0.05736803
198	0xbd14992f	-0.0362789
199	0x3e065b28	0.13120711
200	0xbc92b82c	-0.017910086
201	0xbe5ef201	-0.21772005
202	0x3d9e307d	0.07724092
203	0x3e82c9ac	0.25544488
204	0xbe21ed5d	-0.15813203
205	0x3e01896d	0.1265008
206	0x3dcb4cba	0.09926744
207	0x3ea26885	0.31720367
208	0x3d174e7b	0.03694008
209	0x3e89674c	0.26836622
210	0x3e727277	0.23676477
211	0xbbc526da	-0.0060165944
212	0x3e3b1c0b	0.18272416
213	0x3e731012	0.23736599
214	0xbd9d2658	-0.07673329
215	0x3e84d3ab	0.2594274
216	0xbd896aa7	-0.067097954
217	0xbd5fcbbe	-0.054637663
218	0x3e5fcca8	0.21855414
219	0xbd1c600d	-0.03817754
220	0x3e03d491	0.12874056
221	0x3e0898a7	0.13339482
222	0xbc582a19	-0.013193631
223	0x3e1daf1c	0.1539883
224	0x3e8cbd74	0.2748829
225	0xbd0b128e	-0.033953242
226	0xbe916f03	-0.28405008
227	0xbe88125f	-0.26576516
228	0xbe68fd20	-0.2275281
229	0x3e47955e	0.19490573
230	0x3e14c643	0.14528756
231	0xbe96fd7a	-0.29490262
232	0xbc3cf8a5	-0.011533891
233	0xbdf7b4c4	-0.12095025
234	0xbe1e30ec	-0.1544835
235	0x3e909700	0.28240204
236	0x3e91845c	0.28421295
237	0xbe941356	-0.28921002
238	0x3c92ccf8	0.017920002
239	0x3e1de546	0.15419492
240	0x3e54ebd1	0.20793082
241	0xbe8a6765	-0.2703201
242	0xbe0e0fd2	-0.13873222
243	0x3df041c0	0.11731291
244	0xbe8b74c1	-0.27237514
245	0xbbd9ce25	-0.006646889
246	0x3dd5222c	0.104069084
247	0x3ddfe9c7	0.10933261
248	0x3e806950	0.25080347
249	0xbe40621a	-0.18787423
250	0xbb570f38	-0.0032815468
251	0xbe051576	-0.12996468
252	0x3daed627	0.0853694
253	0x3e507759	0.20358028
254	0x3df0d6e5	0.11759738
255	0x3e797191	0.24359728

linear2.weight f4 [512, 256]
0	0x3ce6ed57	0.028189344
1	0x3ca171fc	0.019707672
2	0x3bc9c02d	0.0061569423
3	0xbbfc13bc	-0.007692782
4	0xbabd2ef3	-0.0014433548
5	0xbbe52427	-0.006992835
6	0x3c273fe8	0.0102081075
7	0xbc495466	-0.012288189
8	0xbb56fa24	-0.0032802904
9	0xbd3285d0	-0.043584645
10	0xbd0da3dc	-0.034580097
11	0x3cf4a845	0.029865393
12	0xbb7e5a60	-0.0038811192
13	0xbc9ba57d	-0.01899981
14	0xbc534aa8	-0.012896217
15	0x3d30f0b4	0.043198302
16	0xbcf8c655	-0.03036801
17	0x3c80f9c8	0.015744105
18	0xbcddb853	-0.027065432
19	0xbc1c9d61	-0.009559006
20	0xbd6419c4	-0.055688635
21	0x3ca2a83a	0.019855607
22	0xbd210d8a	-0.039319552
23	0xbd82456f	-0.063609
24	0x3cefb2c6	0.02926005
25	0x3c9613a4	0.018319912
26	0xbc5db100	-0.01353097
27	0x3bb726b0	0.0055893287
28	0xbd81e542	-0.063425556
29	0xbd024a29	-0.031809006
30	0xbbb943a7	-0.0056538167
31	0xbd4eeaee	-0.050517015
32	0x3cbc6bcc	0.02300062
33	0x3c312388	0.010811694
34	0x3d0df8b0	0.034660995
35	0xbd1c539a	-0.038165666
36	0x3c8cb124	0.017174311
37	0x3cf2927c	0.029610865
38	0xbc8de379	-0.017320381
39	0x3d05cb88	0.032664806
40	0x3d6f6809	0.058448825
41	0x3d79e8b8	0.061012954
42	0xbd0537a2	-0.03252376
43	0xbca2f5d4	-0.01989261
44	0xbcee589d	-0.029094988
45	0xbc189e78	-0.009315126
46	0x3d063b4c	0.032771394
47	0x3bfae92f	0.007657192
48	0xbd3032e3	-0.04301728
49	0xbd6e9d30	-0.058255374
50	0xbc1ce0b0	-0.009575054
51	0xbd640806	-0.055671714
52	0x3c533030	0.012889907
53	0xbd5cd995	-0.05391844
54	0xbc101bd5	-0.008795698
55	0xbd28d5c8	-0.041219503
56	0xbcfa0688	-0.030520692
57	0xbc4e45f0	-0.012589917
58	0xbd3bfeb2	-0.045897193
59	0xbd2772c0	-0.04088092
60	0xbb5d2ce0	-0.0033748671
61	0xbd740d90	-0.059583247
62	0xbb81a735	-0.0039567
63	0x3b83902f	0.0040149908
64	0x3c9c5121	0.019081654
65	0x3d4cb818	0.049980253
66	0x3d54b9d5	0.051935036
67	0xbcae2db6	-0.021262031
68	0x3d17c1c8	0.03705004
69	0x3cbb7242	0.02288163
70	0xbd435011	-0.04768378
71	0xbd2725b6	-0.04080745
72	0x3c305370	0.010762081
73	0x3cc11ba2	0.023572747
74	0xbd3fecb2	-0.04685659
75	0xbcc38ccf	-0.023870854
76	0x3d55dbc2	0.05221153
77	0x3d3023b0	0.043002784
78	0x3c139570	0.009007797
79	0x3c999b02	0.018750671
80	0x3cf739df	0.030178962
81	0xbd0ac6d3	-0.03388102
82	0x3d5eeec1	0.054426912
83	0xbd0c55d1	-0.03426153
84	0x3b666c60	0.0035159811
85	0x3d274470	0.04083675
86	0x3cafb948	0.021450654
87	0x3d331d92	0.043729372
88	0x3d7324e5	0.059361357
89	0x3d6059ee	0.054773264
90	0xbd305684	-0.043051258
91	0xbc209127	-0.009800232
92	0xbcdeed6c	-0.027212821
93	0x3d2f9afe	0.04287242
94	0x3c8118a0	0.015758812
95	0xbd0c4adc	-0.03425108
96	0x3ad67d4c	0.0016364246
97	0x3d7204a6	0.059086464
98	0x3d10c100	0.03534031
99	0xbd146f60	-0.036239028
100	0x3ca46d22	0.02007157
101	0xbc179b87	-0.009253389
102	0x3d64459f	0.05573046
103	0xbcbdf120	-0.023186266
104	0xbcd5db14	-0.026105441
105	0x3d71adc3	0.059003603
106	0xbd440ffe	-0.047866814
107	0xbc3bfc7f	-0.011473774
108	0xbd5217a5	-0.05129208
109	0x3d743a50	0.059625924
110	0xbd7e35ef	-0.062063154
111	0x3d4bc69e	0.049749963
112	0x3d174968	0.03693524
113	0xbd0e9ff4	-0.034820512
114	0x3d64492a	0.055733837
115	0xbd1d7800	-0.03844452
116	0x3d3e84ae	0.046513252
117	0x3a0fc7ff	0.0005484819
118	0x3d63b77a	0.0555949
119	0xbd2110f8	-0.039322823
120	0xbb00c98c	-0.0019651381
121	0xbd4f46df	-0.050604697
122	0xbd4d0c52	-0.050060578
123	0xbd598e75	-0.053114373
124	0x3d1c409e	0.03814756
125	0xbcb9713d	-0.022637004
126	0x3ce60f90	0.028083593
127	0xbb6ae020	-0.0035839155
128	0x3d365181	0.044511322
129	0xbd03adf8	-0.03214833
130	0xbd0c0ee6	-0.034193896
131	0xbbb4a662	-0.0055129984
132	0x3bf4d013	0.0074710934
133	0x3d1fc532	0.03900642
134	0xbd20472e	-0.039130382
135	0x3d3c12e4	0.045916453
136	0x3d26696a	0.040627874
137	0x3d7328af	0.05936497
138	0xbd4840f2	-0.04889006
139	0x3cc38c90	0.023870736
140	0x3d12353a	0.035695292
141	0x3ce01e1c	0.027358107
142	0x3c9e7a69	0.01934548
143	0xbd4461a1	-0.04794467
144	0x3d4702ec	0.04858677
145	0xbb1141bd	-0.0022164427
146	0xbd0ae448	-0.033909112
147	0x3d1f07e6	0.038825892
148	0xbb22670d	-0.0024780661
149	0xbd79da6c	-0.06099932
150	0xbd817973	-0.06321993
151	0x3d717ee3	0.0589589
152	0x3d423aa4	0.047419205
153	0xbcee1750	-0.02906385
154	0xbacaef64	-0.0015482721
155	0xbd27b3be	-0.0409429
156	0x3bdfa070	0.0068245456
157	0x3c22d5d3	0.009938675
158	0xbd6e7076	-0.05821272
159	0xbd76f51c	-0.06029235
160	0x399693c6	0.0002872033
161	0xbd75248c	-0.059849307
162	0x3cd777c4	0.026302226
163	0x3a119b34	0.0005554438
164	0x3b801241	0.003908426
165	0xbd526a89	-0.05137113
166	0xbbf45dc3	-0.0074574663
167	0x3d58c0c2	0.052918203
168	0xbbfeee75	-0.007779891
169	0x3d1b1784	0.037864223
170	0xbcf3d13b	-0.029762855
171	0xbc9b5abc	-0.018964164
172	0x3d09222b	0.03347985
173	0xbceb8aaf	-0.028752653
174	0x398e6348	0.0002715832
175	0xbd3ef446	-0.046619676
176	0xbd23bb4a	-0.039973535
177	0x3bed1019	0.007234585
178	0xbd4f4e62	-0.05061186
179	0x3ce97670	0.028498858
180	0x3d185de0	0.0371989
181	0xbd73cf16	-0.059523664
182	0x3ccbaee0	0.02486366
183	0x3c889f0f	0.016677408
184	0xbce2cb3f	-0.027684806
185	0xbbc99137	-0.006151344
186	0x3d540c96	0.051769815
187	0x3c13a26c	0.009010892
188	0xbd663182	-0.056199558
189	0x3cd18498	0.025575921
190	0x3b1952a2	0.00233952
191	0x3d38b904	0.04509832
192	0xbd2f6642	-0.04282213
193	0x3c6b9d95	0.014380832
194	0xbbccdee8	-0.0062521584
195	0xbd6edcec	-0.058316156
196	0xbd7e90d8	-0.062149853
197	0x3d19fceb	0.037594717
198	0x3d345c36	0.04403325
199	0xbd50559b	-0.05086289
200	0xbd2b90b0	-0.04188603
201	0xbcfb6839	-0.030689346
202	0xbd3eeff6	-0.046615563
203	0x3cbeb460	0.023279369
204	0x3cc8eb20	0.024526179
205	0x3d1bb526	0.038014553
206	0xbd0827dc	-0.033241138
207	0xbccd7ab1	-0.025082918
208	0xbd5b8820	-0.053596616
209	0x3c855630	0.016276449
210	0xbc9bb5b5	-0.019007543
211	0x3cab7063	0.020927614
212	0x3c179cf6	0.009253731
213	0xbd23f865	-0.04003181
214	0x3c9177f0	0.017757386
215	0xbd38ee0c	-0.045148894
216	0x3d583083	0.05278064
217	0xbaf26ff9	-0.0018496505
218	0x3d2416b2	0.040060706
219	0xbd64ab40	-0.05582738
220	0x39840b83	0.0002518558
221	0xbd032343	-0.03201605
222	0x3c082830	0.008310363
223	0xbc5b37ec	-0.013380032
224	0xbd791569	-0.060811434
225	0x3d1629b4	0.036660865
226	0x3d6dd6c2	0.058066137
227	0x3d244900	0.04010868
228	0xbd4be088	-0.049774677
229	0xbc9e479c	-0.019321255
230	0x3d24eb77	0.04026362
231	0xbcdd0d70	-0.026983947
232	0x3d5b20e9	0.053498182
233	0xbd75a536	-0.05997201
234	0x3c4bd848	0.012441702
235	0x3d5327f7	0.051551785
236	0x3c2c1348	0.010502644
237	0x3cd8bbf6	0.026456814
238	0x3b8a5032	0.004220986
239	0xbcb66e14	-0.022269286
240	0xbc6c3400	-0.014416695
241	0x3cd09864	0.02546329
242	0x3cf85ae9	0.030316787
243	0x3d3d9301	0.046282772
244	0xbc6f937a	-0.0146225635
245	0x3cc5d565	0.024149606
246	0xbd43f2d4	-0.047839
247	0xbc47d7e2	-0.012197467
248	0xbabbd35f	-0.0014329961
249	0xbcf5a05d	-0.029983694
250	0x3c1a9a88	0.009436257
251	0x3d144be2	0.03620518
252	0x3cdd179d	0.026988799
253	0xbc5e716c	-0.013576847
254	0xbcf4a6ba	-0.029864658
255	0x3d3e58d9	0.04647145

linear2.bias f4 [512]
0	0xbd0fb08d	-0.03508048
1	0xbc94455f	-0.018099485
2	0xbcf87b70	-0.030332297
3	0x3c61ec95	0.013789316
4	0xbced063f	-0.028933642
5	0xbd3bdf83	-0.045867454
6	0x3c55e644	0.013055388
7	0xbd392c40	-0.045208216
8	0x3d8fc908	0.070207655
9	0xbd42defb	-0.047575932
10	0x3ca6e65c	0.020373516
11	0x3d4828c0	0.048866987
12	0x3cd80e36	0.026373964
13	0x3b260dc1	0.0025337788
14	0xbd5aa49e	-0.053379647
15	0x3b8f73d9	0.004377824
16	0xbd85b98f	-0.06529533
17	0x3c10e865	0.00884447
18	0x3cd75d30	0.026289552
19	0xbd3b9086	-0.045792125
20	0xbd6eebe4	-0.05833043
21	0x3c84b446	0.016199242
22	0x3d82480c	0.06361398
23	0xbbf9d6e9	-0.0076244962
24	0x3d6781e4	0.056520358
25	0x3d14319a	0.036180116
26	0xbc9a96f9	-0.018870817
27	0x3d99437a	0.07483573
28	0x3cd7e3f0	0.026353806
29	0xbd093ac2	-0.0335033
30	0x3d10e1ca	0.03537158
31	0x3c9568da	0.018238474
32	0xbba02b6b	-0.0048879883
33	0x3d33440e	0.043766074
34	0xbca96ad1	-0.020680817
35	0xbd109d58	-0.035306305
36	0x3cf92213	0.030411756
37	0x3ccd5ccd	0.025068665
38	0xba2fe47f	-0.0006709769
39	0xbb40bd29	-0.0029409623
40	0x3ce9751c	0.028498225
41	0x3d77f377	0.06053492
42	0x3ccca420	0.024980605
43	0xbc338200	-0.010956287
44	0x3d81edcb	0.063441835
45	0xbd7a50ef	-0.06111234
46	0x3d42a6ff	0.04752254
47	0x3d38e17f	0.045136925
48	0xbd727294	-0.0591913
49	0xbd031132	-0.03199882
50	0x3d152aba	0.0364177
51	0x3d65714a	0.056016244
52	0x3d7be733	0.061499786
53	0x3d481b5c	0.048854217
54	0x3c565e23	0.013083967
55	0xbcca7a69	-0.024716573
56	0x3c6cc1d2	0.014450507
57	0xbc8b63c5	-0.017015347
58	0x3d437404	0.047718063
59	0x3c923e64	0.017852016
60	0x3c840721	0.01611668
61	0xbcbc4e2f	-0.0229865
62	0xbb480499	-0.0030520319
63	0xbcbe9862	-0.023266021
64	0x3cc0e476	0.023546439
65	0x3ce039a7	0.02737124
66	0xbc4be65f	-0.0124450615
67	0xbd114e67	-0.03547516
68	0xbbaa6d84	-0.0052010436
69	0x3d57bfae	0.052673034
70	0xbc2863c6	-0.010277694
71	0x3d870dfe	0.06594466
72	0x3cbf0115	0.023315946
73	0xbc88a19d	-0.016678626
74	0x3d89f126	0.067354485
75	0x3c7b2061	0.015327544
76	0xba5d014d	-0.0008430675
77	0x3d734120	0.05938828
78	0xbc9527de	-0.018207487
79	0xbc0857ee	-0.008321745
80	0xbca193ea	-0.019723851
81	0xbbde0eea	-0.0067766802
82	0x3d505332	0.05086059
83	0xbd803286	-0.062596366
84	0x3cfd4de3	0.030920928
85	0x3c09a29c	0.0084005855
86	0xbd669c18	-0.056301206
87	0x3d8b9785	0.068160094
88	0x3ca653fc	0.020303719
89	0x3c206c6f	0.009791478
90	0x3d39e12a	0.04538075
91	0x3d5576f4	0.052115396
92	0xbd113432	-0.035450168
93	0x3c5e774a	0.013578245
94	0xbc274ce0	-0.0102111995
95	0x3c23c9b1	0.009996817
96	0xbd2fff62	-0.04296816
97	0xbd6ffde4	-0.05859174
98	0xbd806045	-0.06268362
99	0x3d1879e2	0.03722561
100	0x3d564e34	0.052320674
101	0x3d7fc799	0.06244621
102	0x3aabc095	0.0013103659
103	0xbd0b402a	-0.03399674
104	0xbae51cf1	-0.0017479939
105	0xbd08b01b	-0.033371072
106	0xbd0194ba	-0.031635977
107	0xbbf9c23f	-0.007622033
108	0x3d36ad20	0.0445987
109	0x3cac8cd7	0.021063251
110	0xbd27ad13	-0.04093654
111	0x3d506792	0.050880022
112	0xbc81c642	-0.015841607
113	0xbc19c689	-0.009385713
114	0xbbbf4fed	-0.0058383853
115	0x3c92e207	0.017930044
116	0x3c1c6a6d	0.009546858
117	0x3c220cf0	0.00989078
118	0xbcb8bd4a	-0.022551198
119	0x3d30fd48	0.043210298
120	0x3c573cc1	0.013137043
121	0x3bdedaf3	0.006801003
122	0x3d4da30d	0.050204325
123	0xbc9f3548	-0.019434586
124	0xbcf95996	-0.030438226
125	0x3d369234	0.044573024
126	0xbd53abe6	-0.051677607
127	0xbc01f014	-0.007930774
128	0xbcd95ebd	-0.026534433
129	0x3d3c803c	0.04602073
130	0xbd41a1fc	-0.04727362
131	0xbc9554db	-0.018228939
132	0x3d489720	0.04897225
133	0xbd3657fa	-0.044517495
134	0x3d9f10c2	0.07766868
135	0x3d754318	0.05987844
136	0x3cb359fe	0.021893498
137	0x3d924fba	0.07144113
138	0xbd05ab12	-0.03263385
139	0xbd4b5b22	-0.049647458
140	0x3d6daba0	0.058025002
141	0x3c432b48	0.0119121745
142	0xbb299d7a	-0.0025881217
143	0xbbb0a68a	-0.0053909468
144	0xbd285a8f	-0.04110199
145	0xbc5a0cc3	-0.013308707
146	0x3d6866cb	0.056738656
147	0x3d4cab97	0.04996833
148	0x3d8e916d	0.069613315
149	0xbcfcf007	-0.030876173
150	0x3d200493	0.039066862
151	0xbd5a81d2	-0.053346463
152	0xbc21d9b0	-0.009878561
153	0x3d52724e	0.05137854
154	0x3d55cd77	0.0521979
155	0x3ce28d2e	0.02765521
156	0xbd76892c	-0.06018941
157	0x3c5166e4	0.012780879
158	0xbce6d44c	-0.028177403
159	0x3d230d2f	0.039807495
160	0x3b300eaa	0.002686421
161	0xbd2d3ae5	-0.042292494
162	0x3c9c8b09	0.019109266
163	0x3cb7dca2	0.022444073
164	0xbc05165c	-0.008123007
165	0x3cfde56c	0.030993186
166	0x3cdadde3	0.026717132
167	0x3d615476	0.05501219
168	0xbc9c7ce7	-0.019102527
169	0x3ceacf9e	0.028663453
170	0x3d3d26ad	0.046179462
171	0xbd074775	-0.03302713
172	0xbd22d556	-0.039754234
173	0xbd850a5b	-0.06496116
174	0xbd4b6626	-0.049657963
175	0x3c676111	0.0141222635
176	0x3cc5087f	0.024051903
177	0xbd230ecd	-0.039809037
178	0x3c8c6eca	0.017142672
179	0xbc5a76a1	-0.013333947
180	0x3d032fc4	0.032027975
181	0x3d7ef2c4	0.062243238
182	0xbd6c4723	-0.05768503
183	0xbd5c3e52	-0.05377037
184	0xbb730c1e	-0.003708608
185	0x3ce758e2	0.028240625
186	0xbd77a3a0	-0.06045878
187	0xbca576b8	-0.020198211
188	0xbcfb4853	-0.030674135
189	0x3cc05583	0.023478275
190	0x3d1ed9c8	0.03878191
191	0x3c3f8cab	0.011691253
192	0x3d54030f	0.05176073
193	0x3d0ddf4d	0.034636784
194	0x3d274c01	0.040843967
195	0xbd6079d2	-0.054803677
196	0xbd1976c4	-0.03746678
197	0xbd5ba8ba	-0.053627707
198	0xba2f4e15	-0.00066873553
199	0xb9b16eea	-0.00033842708
200	0xbd2b40da	-0.041809894
201	0xbc2f8d56	-0.010714849
202	0xbca668cf	-0.020313649
203	0x3c690718	0.014222883
204	0x3caa99fd	0.02082538
205	0x3cc1b471	0.023645611
206	0x3d93694b	0.071978174
207	0x3d4e65d5	0.050390083
208	0xbd503c61	-0.05083883
209	0xbcda0823	-0.026615208
210	0xbc5c218b	-0.013435732
211	0x3d05d591	0.032674376
212	0xbd734285	-0.05938961
213	0xbce6576c	-0.028117858
214	0xbd537655	-0.051626522
215	0xbd28dd3d	-0.041226614
216	0x3b95f37a	0.004576144
217	0x3b4a8818	0.0030903872
218	0x3d5ab611	0.05339629
219	0xbd568545	-0.05237319
220	0xbbb92653	-0.0056503206
221	0x3d515e0c	0.05111508
222	0x3d602c47	0.054729726
223	0xbb67474e	-0.0035290304
224	0xbd68b603	-0.056814205
225	0x3d028c7b	0.031872254
226	0x3b3646ec	0.0027813269
227	0x3c000296	0.007813117
228	0x3c4574cc	0.012051772
229	0x3b688e26	0.0035485118
230	0x3d9ab70c	0.07554445
231	0x3d3d5146	0.046220087
232	0xbcac51a6	-0.021035027
233	0x3c1650bc	0.009174522
234	0xbc41b63b	-0.011823232
235	0xbc29069c	-0.010316517
236	0x3d138bf1	0.03602213
237	0x3aac4f72	0.0013146235
238	0xbd5f4b01	-0.05451489
239	0xbc6ed72e	-0.01457767
240	0xbcec4fdf	-0.02884668
241	0x3d63da30	0.055628
242	0x3c67c163	0.014145228
243	0xbd33fa29	-0.043939743
244	0xbc66e079	-0.014091604
245	0xbd21f01c	-0.039535627
246	0xba11dc13	-0.00055641046
247	0x3cc2c35e	0.023774799
248	0x3d4edbb5	0.050502498
249	0xbd1bed56	-0.038068138
250	0xbc911db6	-0.017714363
251	0x3d87f564	0.066386014
252	0xbd80f505	-0.06296734
253	0xbbbb2b36	-0.0057119383
254	0xbd60d9a6	-0.054895066
255	0x3cf59ff1	0.029983493

linear3.weight f4 [10, 512]
0	0xbc1105f1	-0.008851514
1	0xbd44c492	-0.048039027
2	0x3cc9bf02	0.024627212
3	0x3c8ffa23	0.01757533
4	0x3c022c89	0.007945188
5	0xbccdd01f	-0.025123654
6	0xbd1e0495	-0.03857859
7	0xbd2c196d	-0.042016435
8	0x3cf2bb22	0.029630248
9	0xbcb617b5	-0.022228101
10	0xbc8e5f1c	-0.017379336
11	0x3d1c92db	0.03822599
12	0x3c791c79	0.015204542
13	0xbd3ad86e	-0.04561656
14	0x3ccde951	0.025135668
15	0xbd1554b4	-0.036457732
16	0x3ce52f7f	0.02797675
17	0xbc356816	-0.011072179
18	0x3ce2fefd	0.027709479
19	0xbd12574c	-0.035727784
20	0xbb39b5e0	-0.0028337166
21	0x3ce88555	0.02838389
22	0x3c8ff425	0.017572472
23	0x3c4a70c0	0.012355983
24	0xbcfd11fb	-0.030892363
25	0xbd2c423d	-0.042055357
26	0xbd0b2635	-0.033971984
27	0xbce385b3	-0.027773714
28	0xbb70fe9e	-0.0036772857
29	0xbd367d97	-0.044553366
30	0x3cc6dc4f	0.024274973
31	0xbd47965c	-0.04872738
32	0xbc228a64	-0.00992069
33	0x3b5906fd	0.0033115738
34	0x3bd862a7	0.006603557
35	0xbbdd5faa	-0.006755789
36	0xbd462134	-0.04837151
37	0x3c64a2ad	0.013954801
38	0xbd0c6353	-0.03427441
39	0x3c9f2638	0.019427404
40	0x3cb774b3	0.022394514
41	0xbbee2dfb	-0.007268665
42	0xbc663cde	-0.014052598
43	0xbc4e5c7c	-0.012595292
44	0x3c0361b2	0.008018898
45	0xbaa37a10	-0.001247229
46	0x3d050030	0.032470882
47	0xbb9685cf	-0.004593588
48	0x3cf33116	0.029686492
49	0x3c6f22cc	0.014595699
50	0x3d1c04d3	0.03809054
51	0x3a9a1847	0.0011756503
52	0xbd5c7101	-0.053818706
53	0xbd22e963	-0.039773356
54	0xbd04adba	-0.03239224
55	0x3cff436c	0.031160079
56	0xbc6e94f7	-0.014561883
57	0x3c560f55	0.013065179
58	0xbc5dc2d3	-0.013535219
59	0xbc6247b2	-0.013811039
60	0xbd237018	-0.039901823
61	0x3c8e5e85	0.017379055
62	0x3cabe1f2	0.020981763
63	0xbc4242be	-0.011856733
64	0xbd105c1e	-0.0352441
65	0xbc9e88b0	-0.019352287
66	0xbd3b36b9	-0.045706484
67	0xbc3c50bb	-0.011493857
68	0xbd084b36	-0.03327485
69	0xbcc1a1a4	-0.023636647
70	0xbcbdc092	-0.023163114
71	0x3b676145	0.003530578
72	0x3c9a1901	0.01881075
73	0xbd0cf41e	-0.034412496
74	0xbca8b63e	-0.020594712
75	0x3c60265d	0.0136810215
76	0xbbbcdaff	-0.005763411
77	0x3d1bfed7	0.03808483
78	0xbbc90909	-0.0061351103
79	0xbd1b4e69	-0.037916575
80	0x3d133840	0.035942316
81	0x3c5c12f8	0.013432257
82	0x3c1179e2	0.008879157
83	0x3cc43cd1	0.02395478
84	0xbcc4a6de	-0.02400535
85	0x3d1573eb	0.0364875
86	0x3b95b879	0.00456911
87	0x3c12f24c	0.008968901
88	0xbc94fa42	-0.018185738
89	0xbd0daea6	-0.034590386
90	0xbcba11b6	-0.022713523
91	0xbc2302a9	-0.009949365
92	0xbcaf692b	-0.021412453
93	0xbba52031	-0.005039238
94	0xbd760012	-0.06005866
95	0x3ce49b86	0.02790619
96	0xbc9b340a	-0.018945713
97	0x3c9786e1	0.018496932
98	0x3c1088d0	0.008821681
99	0xbc1fa554	-0.009744007
100	0xbcdaf1e0	-0.026726663
101	0xbc941cf6	-0.018080216
102	0x3aae4ed0	0.0013298634
103	0xbd1d969d	-0.038473714
104	0xbd07b643	-0.033132803
105	0x3d08155e	0.033223502
106	0xbd5e5741	-0.05428243
107	0x3d0ef028	0.034897
108	0xbcb219ee	-0.02174088
109	0x3cec8fe4	0.028877206
110	0x3d15a61c	0.036535367
111	0x3cec8688	0.028872743
112	0xbcd78b0a	-0.026311416
113	0xbc8b2bd8	-0.01698868
114	0xbc5ec4af	-0.013596698
115	0xbc9605e8	-0.018313363
116	0xbc94b622	-0.018153254
117	0x3b778242	0.0037766849
118	0x3d09d6d4	0.03365214
119	0xbca39c58	-0.019972011
120	0xbd17dba5	-0.037074704
121	0xbd1ec68d	-0.03876357
122	0xbd111f8c	-0.035430476
123	0xbd2b7737	-0.04186174
124	0xbcf94c3b	-0.030431857
125	0xbd2df65c	-0.042471275
126	0xbcbb9a0e	-0.022900607
127	0x3bae3f66	0.0053176163
128	0x3ae926ca	0.0017788049
129	0x3cb6714e	0.022270825
130	0x3b0743a8	0.0020639692
131	0xbd06bd30	-0.032895267
132	0xbd71b2b0	-0.0590083
133	0xbd04bd46	-0.032407068
134	0xbd2fa58e	-0.042882495
135	0x3d19c870	0.037544668
136	0x3c36cfa6	0.011157906
137	0xbd69ef64	-0.057113066
138	0xbd11e4b3	-0.035618495
139	0x3ccaeda5	0.02477152
140	0xbcb16e79	-0.021659123
141	0x3c83ae27	0.016074253
142	0xbd4f1144	-0.050553575
143	0x3be14407	0.0068745646
144	0xbcd6018f	-0.02612379
145	0xbd6c05be	-0.057622664
146	0xbcbf0928	-0.023319796
147	0xbcbc5645	-0.022990355
148	0xbd3e868c	-0.046515033
149	0x3c1bf02a	0.009517709
150	0x3d05f17d	0.032701004
151	0x3d2fa7e5	0.042884726
152	0x3bafb73e	0.0053624203
153	0xbc62d7af	-0.013845368
154	0x3c9b43db	0.018953254
155	0x3b92d1fa	0.0044805976
156	0x3ca544d5	0.020174423
157	0xbc41d3db	-0.011830295
158	0x3c964ba2	0.018346611
159	0x3c7fb31b	0.015606667
160	0xbd16b3d7	-0.036792602
161	0x3c933211	0.01796821
162	0xbbd6332f	-0.0065368633
163	0xbd2bc06b	-0.04193155
164	0xbc418277	-0.01181089
165	0xbcc72d6d	-0.024313653
166	0x3d001785	0.03127243
167	0xbd370528	-0.04468265
168	0xbcbc415a	-0.02298038
169	0xbc9a40e1	-0.018829765
170	0xbc21c744	-0.009874169
171	0xbbf0f992	-0.00735397
172	0xbd004d06	-0.031323455
173	0x3b0e9cbc	0.0021760901
174	0xbc989831	-0.018627258
175	0xbc8da4bc	-0.017290466
176	0x3cfda913	0.03096441
177	0x393363bc	0.00017107924
178	0xbd5def39	-0.05418322
179	0xbd173bb9	-0.03692219
180	0x3c163484	0.009167794
181	0x3ca86355	0.020555178
182	0xbd0d3c3d	-0.034481276
183	0xbb8ffdb5	-0.004394258
184	0xbcfa3a34	-0.030545332
185	0xbcfabd18	-0.030607745
186	0xbd1024eb	-0.035191458
187	0xbc29a0f8	-0.010353319
188	0x3c93aac4	0.018025763
189	0xbcea584e	-0.02860656
190	0xbbb08b43	-0.005387695
191	0xbd0dff8a	-0.03466753
192	0xbd48cb0a	-0.04902176
193	0xbd37e139	-0.044892523
194	0x3d0a4c88	0.033764392
195	0x3cd06ecc	0.025443457
196	0xbd333049	-0.04374722
197	0xbcea3ba6	-0.028592896
198	0x3c28ef5b	0.010310973
199	0x3ce67495	0.028131763
200	0xbcbcd069	-0.023048596
201	0xbceee463	-0.029161638
202	0xbd1c000c	-0.038085982
203	0x3cc9d300	0.024636745
204	0x3b4a1a28	0.0030838344
205	0xbc616426	-0.013756787
206	0xbd7480d8	-0.059693187
207	0xbce3a7d8	-0.027789995
208	0xbcbd5830	-0.02311334
209	0xbcacba29	-0.021084862
210	0x3cc6a1a8	0.024247006
211	0x3d29777f	0.041373726
212	0x3c9d99d0	0.019238383
213	0x3c1ab8e8	0.009443499
214	0xbd4e3bce	-0.050350003
215	0xbb5a68d7	-0.003332665
216	0xbcf0d1b2	-0.029396866
217	0x3c218390	0.009858027
218	0xbd116303	-0.035494816
219	0x3c461dda	0.012092078
220	0x3c3e1b69	0.011603215
221	0xbd271dc9	-0.04079989
222	0x3c668a83	0.01407111
223	0xbceb71bc	-0.028740756
224	0xbcd531cb	-0.02602472
225	0xbbc7d61f	-0.0060985233
226	0xbc02ca2b	-0.007982771
227	0x3d009056	0.03138765
228	0x3d200438	0.039066523
229	0x3d216be7	0.039409544
230	0xbd8217be	-0.06352185
231	0xba35a3b0	-0.00069289934
232	0x3cd96470	0.02653715
233	0xbc8b5be8	-0.017011598
234	0xbbae8db4	-0.005326951
235	0xbd7de69c	-0.061987504
236	0xbc859d85	-0.016310463
237	0x3c6dee95	0.014522214
238	0x3bdad18e	0.006677813
239	0x3c43eb5c	0.0119579695
240	0x3cfb5a45	0.030682692
241	0x3cedd5a1	0.02903253
242	0xbc7a1c2c	-0.015265506
243	0x3d2f5462	0.042805083
244	0xbaf75228	-0.0018869089
245	0xbc9d771a	-0.019221831
246	0xbbb23dcd	-0.005439496
247	0xbc5d3d65	-0.013503407
248	0x3c850743	0.016238814
249	0x3cd728ab	0.02626451
250	0x3bd1b2a2	0.0063994685
251	0x3c669441	0.014073432
252	0x3c5accfe	0.013354538
253	0x3ce429f7	0.027852042
254	0xbd180f1b	-0.03712378
255	0x3d15fa7f	0.036615845

linear3.bias f4 [10]
0	0x39707d34	0.00022934825
1	0x3b77b359	0.0037796109
2	0x3c871f5d	0.016494447
3	0xbcdf287a	-0.02724098
4	0x3cd507ff	0.02600479
5	0xbc86749c	-0.016413026
6	0xbcfffbb6	-0.031247955
7	0x3cac9b8a	0.02107026
8	0xbd19f6d2	-0.0375889
9	0xbd4c49cf	-0.049875077
