src/pepper_training/training_results/2022-12-04-direct_to_cube_human/model/critic-direct_to_cube_human.pkl (torch, 542615 bytes, 5 tensors)

linear1.weight f4 [256, 11]
000000 32 09 4b 3e 55 ca 4c be b4 74 64 3e f0 6f fb bd
       0.19827726 -0.19999059 0.22310144 -0.1227721
000010 67 7e 5f be d7 36 35 3e 26 14 98 be e4 5e 52 bd
       -0.21825562 0.17696701 -0.29702872 -0.051360026
000020 5d f7 1f be dc 65 da 3d 25 2c 96 3e a8 7d 8a 3d
       -0.15621705 0.106639594 0.29330555 0.06762248
000030 7b d0 e0 bd e3 9c 8e be b1 e7 89 be 90 05 49 be
       -0.109772645 -0.2785407 -0.2693458 -0.19631028
000040 33 4a 14 bd 8a 95 97 3e e9 46 f8 3d 27 58 19 be
       -0.036203574 0.29606277 0.121229 -0.14975034
000050 01 a5 5d be 40 32 32 be 6a 99 c8 bd f4 db 54 3e
       -0.21644975 -0.17401981 -0.097948864 0.2078703
000060 00 2d 9d ba 85 af 0c be f8 5c 6d be 14 ba 20 3e
       -0.001199156 -0.1373883 -0.23179996 0.15695983
000070 dc be 0a 3e 40 26 36 3e 54 94 8f 3e 28 b3 ed 3d
       0.1354937 0.17788029 0.28042853 0.11606437
000080 6e 53 46 3e 11 4b 8c be fa 23 0e 3d dc db 85 bc
       0.19367763 -0.2740102 0.03470228 -0.016340189
000090 a4 1c a5 bd e5 22 57 3e 73 77 81 be 2c 25 57 bd
       -0.080621034 0.21009405 -0.25286445 -0.052525684
0000a0 64 e8 42 be 90 56 2a 3e 74 0c e3 b8 6f 9e ca 3d
       -0.19033962 0.16634583 -0.00010826523 0.098935
0000b0 37 d3 e7 3d 66 d5 df 3d 9c cf f9 3c 2b 6e 6b bc
       0.11319583 0.109293744 0.030494504 -0.014369528
0000c0 c5 79 c8 bd 9a 7b dc bd 0b 15 2b be 52 e3 54 be
       -0.09788851 -0.107657626 -0.16707246 -0.20789841
0000d0 d4 a6 12 3e 09 17 ec 3d 63 9e 96 3e f0 73 34 3d
       0.14321452 0.11527831 0.29417714 0.04405588
0000e0 da ab 51 be f9 f0 72 be e2 c0 40 be e0 6d 9d 3c
       -0.20475712 -0.23724736 -0.18823579 0.019217432
0000f0 e4 18 40 3e 60 95 6a bc b8 f8 9e 3d f0 16 9a 3e
       0.18759495 -0.01431784 0.07762283 0.30095625
000100 38 bc a9 3d 18 a6 d9 3d 3a 29 b8 bd c2 fd 93 be
       0.08287853 0.10627383 -0.08992238 -0.2890454
000110 c1 b6 68 be 0d 70 9b 3d 2a 7a 4f be ed a8 30 3e
       -0.22725965 0.07589731 -0.20261446 0.1725194
000120 3c 97 8f 3d 33 d6 92 be 8e 0b 60 be 54 ce 51 3e
       0.070112675 -0.28679046 -0.21879408 0.20488864
000130 ed 23 1e 3c cf 68 90 3c 6a dc 8e 3e fe c5 8e 3e
       0.00965212 0.017628102 0.27902538 0.2788543
000140 ad 08 fa bc e7 47 4e be 87 73 02 3e d0 4e f4 bd
       -0.030521715 -0.20144616 0.12739383 -0.11929095
000150 ea 2d 86 be 8c f5 2a 3e 76 39 39 3e 1e 64 3e 3e
       -0.26206905 0.16695231 0.18088326 0.18592879
000160 74 fb 92 3e ee c5 8f 3e 1f dd 39 3e ed 43 8d 3e
       0.28707469 0.28080696 0.18150757 0.27590886
000170 23 b8 50 3e 46 5b 20 be 04 78 42 3e 04 75 8a bd
       0.20382743 -0.15659818 0.18991095 -0.067606
000180 12 16 27 be bf ac 06 3e e8 45 96 3e fc 06 93 3c
       -0.16317013 0.13151835 0.2935021 0.017947666
000190 ac 29 6a be 41 24 d5 bb 13 42 1d 3e 68 a5 85 be
       -0.22867459 -0.006504566 0.15357237 -0.26102757
0001a0 45 90 dd 3d 6d 69 5f be 5e 73 0d be 7c e7 96 be
       0.10818533 -0.2181756 -0.1381354 -0.29473484
0001b0 a3 13 86 ba 6e 7b 78 3d 4a 5f fd bd c0 cc 5e 3d
       -0.0010229241 0.060664587 -0.123716906 0.054394484
0001c0 38 80 59 3e 43 dc 12 be 81 cc 70 be 04 55 b9 bd
       0.21240318 -0.14341836 -0.23515512 -0.090494186
0001d0 7c 65 85 3e 28 ba 78 3e 1f 1a 1e be 48 28 3d bd
       0.2605399 0.24289763 -0.15439652 -0.046180993
0001e0 80 fd 05 3b e4 4f 19 be a2 0f 0f 3e 50 c8 44 bd
       0.0020445287 -0.14971882 0.13970807 -0.048042595
0001f0 c9 fd 34 be 28 51 49 3e 62 d7 00 be 48 01 42 3d
       -0.17674936 0.19659865 -0.12582162 0.047364503
000200 06 30 9a 3e 5b 5e 90 be 12 48 5a be 38 ba 83 3d
       0.30114764 -0.28196988 -0.21316555 0.06432003
000210 b3 37 2e be 51 ab b3 bd 0a 2b 6d 3e a0 b5 46 3e
       -0.17013435 -0.087729104 0.2316095 0.19405222
000220 67 11 a1 bd 60 02 b4 bd 23 36 a5 3d f1 02 2b be
       -0.07864647 -0.087895155 0.080669664 -0.16700341
000230 49 0b 5a 3e c5 5e b9 3b 9a 35 3e 3d 55 b9 88 be
       0.21293367 0.0056570494 0.046437837 -0.26703897
000240 ba 87 2e 3e fe aa 4a 3e 0e 62 1b 3e 8d 4e 55 be
       0.17043963 0.19791791 0.15174124 -0.20830746
000250 52 dc 5f be 02 79 c1 bd c0 cd 44 bc 10 d3 f2 3c
       -0.2186139 -0.094469085 -0.012011945 0.029641658
000260 16 29 37 be d4 78 74 3e e9 94 12 be 2d 4e 8d 3e
       -0.17886767 0.23874217 -0.14314617 0.27598706
000270 a6 6b 38 be a2 82 1a 3e 77 94 bd bd c7 13 f3 bd
       -0.18009815 0.15088895 -0.09256833 -0.118690066
000280 1c ba b6 3d e2 9c b7 bd 1c 7f 1b be cb 23 3a 3d
       0.08922216 -0.0896547 -0.15185207 0.04544429
000290 f4 e0 7a 3c 02 eb 87 3e 70 cf 7e 3d bf 14 30 be
       0.015312422 0.26546484 0.062209547 -0.17195414
0002a0 d8 42 da 3d 50 05 59 3d ee 69 55 be 5e ab 03 be
       0.10657281 0.052983582 -0.2084119 -0.1285834
0002b0 84 99 cd 3d f8 1c b7 3d b1 76 01 be 2a ed 22 3e
       0.100390464 0.08941072 -0.12642933 0.15910783
0002c0 d8 3a 3c bd d3 44 6f bd fb ca 2a be 5b ea d6 bd
       -0.045954555 -0.058415245 -0.16678993 -0.104939185
0002d0 2b 3c f0 bc 48 bb 26 3e f6 d1 17 3c 28 ce 45 be
       -0.029325565 0.1628238 0.009266367 -0.19316924
0002e0 88 5b 46 3e d2 2e 8c 3d dd 86 98 3e 9c 42 77 be
       0.19370854 0.06844868 0.29790393 -0.24146503
0002f0 f0 d2 2c be d0 2d e1 bd 4e 7d 9b 3e 62 40 1c 3e
       -0.16877341 -0.10995066 0.30369037 0.15258935
000300 b1 c6 13 be 39 74 10 3e 29 15 b7 3d a2 78 fb 3d
       -0.14431264 0.14106835 0.08939583 0.12278868
000310 d2 74 fb 3c c4 ff 0d be d0 4f a2 3d c0 c2 4b 3e
       0.030695353 -0.13867098 0.07925379 0.1989851
000320 1b 2f 90 be be ad bb bd 8a 00 88 be 98 7d 55 be
       -0.2816094 -0.09163998 -0.2656291 -0.20848691
000330 00 ed 58 bb 1c e6 6a 3e be 75 f1 bd 76 0a 14 be
       -0.0033100247 0.22939342 -0.11790036 -0.14457116
000340 20 54 3b 3c dd 50 f6 3d 0a fc 32 3e 87 18 8c 3d
       0.011433631 0.12027142 0.17478958 0.06840616
000350 8c ca 44 be 38 8f 95 bd 81 aa 9a 3e aa 95 f4 bd
       -0.1921789 -0.073027074 0.3020821 -0.11942609
000360 7d 77 86 be ec 6b 76 be ce 1b 45 3e 91 0b 2a 3b
       -0.26263037 -0.24064606 0.19248888 0.0025946836
000370 e7 69 32 3b 83 17 38 3e 80 f1 d7 bd 43 5e fd 3d
       0.0027223767 0.17977719 -0.10544109 0.123714946
000380 a5 24 95 3e d7 8e cf 3d cc e4 07 3e 2d 91 a4 3d
       0.2912952 0.101346664 0.13270873 0.080355026
000390 b4 92 05 be 78 48 7e be 91 86 93 be 56 60 77 3e
       -0.13044244 -0.24832332 -0.28813604 0.24157843
0003a0 3d 9a 4a 3e 27 62 86 be 14 72 d5 bd cd 6f 29 3e
       0.197854 -0.2624676 -0.10422149 0.16546555
0003b0 6f e5 e1 3d a3 b9 e0 3c 95 5b 8c bd 3d f2 52 3e
       0.11030089 0.027432268 -0.068534054 0.20600219
0003c0 6f 37 d5 bd 28 ea fd bd 64 47 4c bc 05 74 68 3e
       -0.10410964 -0.123981774 -0.012468193 0.22700508
0003d0 ff af 2c bd 62 c4 d4 3d c6 7a 9a 3e 8a 57 26 bd
       -0.04216003 0.103890195 0.30171794 -0.040610828
0003e0 8a 34 32 be 0b b0 0e be 1f ba c0 bd d3 c7 f9 bd
       -0.17402855 -0.13934343 -0.094105 -0.121963166
0003f0 c1 27 59 be bb cb e2 bd 7c c2 11 be c0 fb 38 be
       -0.21206571 -0.11074015 -0.14234346 -0.18064785

linear1.bias f4 [256]
000000 fb c5 56 bd 0f 7e 25 be 14 bb 18 be b3 74 80 3d
       -0.052434903 -0.16161369 -0.14915115 0.062722586
000010 30 fe 45 be 9c eb 27 3e 5f 6d 94 3e 42 8d 28 be
       -0.19335246 0.16398472 0.28989694 -0.16460136
000020 52 95 a9 bd 50 71 5d be fc e7 2d 3e 5a 9f 3a 3e
       -0.08280434 -0.21625257 0.16983026 0.1822485
000030 76 2e 7c bd cc 10 7d bd ef e2 a8 3d 60 30 3a 3c
       -0.061567746 -0.061783597 0.08246409 0.011364073
000040 c6 f0 72 be 24 64 31 3e a0 c7 41 3d c5 e1 30 be
       -0.2372466 0.17323357 0.047309518 -0.17273624
000050 67 48 8d 3e a3 cb 3f 3e 46 eb 73 be 0b 27 8a 3e
       0.275943 0.18730025 -0.23820218 0.26982912
000060 77 04 1a be b3 8b 80 be f8 d1 24 be b1 15 16 bd
       -0.15040766 -0.25106582 -0.16095722 -0.03664178
000070 fa 00 f0 3d ef 3e dd 3d f2 13 9a 3e 17 f6 2e bd
       0.11718936 0.10803019 0.30093342 -0.04271516
000080 f3 44 25 be 06 47 74 3e 00 92 6e 3e 42 96 e1 bd
       -0.16139583 0.23855218 0.23297882 -0.110149875
000090 d2 b1 cf 3d 68 5c 3f bd 72 1c cc bc f5 85 97 be
       0.101413384 -0.046718985 -0.024915908 -0.2959439
0000a0 cf c2 3c be ce 08 88 be a0 dd f9 3d fd 2e 53 be
       -0.18433689 -0.26569217 0.12200475 -0.20623393
0000b0 fc c7 2a 3e 64 4a 6e be 67 39 8b bd 06 26 fd bd
       0.1667785 -0.23270565 -0.06798058 -0.12360768
0000c0 fa fa 21 bc b4 44 7d be b1 cd 95 3e 2b 29 44 be
       -0.009886498 -0.2473324 0.29258493 -0.1915633
0000d0 c8 f6 db 3c f4 dd 19 3e 4d 3f 82 be 5f 09 54 be
       0.026851073 0.15026075 -0.2543892 -0.207067
0000e0 8e 70 76 be 6d 5c c5 3d b5 24 2b 3e 02 72 2d be
       -0.24066374 0.096367694 0.16713221 -0.16938022
0000f0 e4 b9 2a 3e 68 7e 07 3e 6a 58 b1 bd 4c 6f e5 bd
       0.16672474 0.13231814 -0.08659442 -0.11202869
000100 cf 76 8a 3e a1 27 8f 3e a0 51 6c 3d 5a 52 1f 3e
       0.2704377 0.27959922 0.05769503 0.15558758
000110 76 d2 33 3e 6d d6 b8 3c bb a4 8f be 7d 96 60 3d
       0.17560753 0.022563184 -0.28055367 0.054831017
000120 ff 35 82 3e 14 44 0b 3e 0b c1 33 be 28 4d 5d 3e
       0.2543182 0.13600188 -0.17554109 0.21611464
000130 ca 96 04 bc 84 7f 76 3e c9 5e 81 3e 19 c9 0c bd
       -0.008092592 0.24072081 0.25267628 -0.03437147
000140 31 97 03 3c a6 c0 27 3e 99 c6 5a 3e 60 3e 84 3c
       0.008031652 0.16382083 0.21364821 0.016143024
000150 f0 9d c1 bd 68 ab 82 3e 70 e3 97 bc 28 40 73 3e
       -0.09453952 0.25521398 -0.018541068 0.23754942
000160 94 d6 a3 3d 24 34 4a be c8 75 23 bd 87 b6 23 3e
       0.07999912 -0.19746453 -0.039907247 0.15987597
000170 34 dc 25 be 78 aa 25 be 62 d2 5e be c6 57 89 3e
       -0.16197282 -0.1617831 -0.21759942 0.26824778
000180 a4 3e ab bd c6 b0 2a be e0 3c 70 3e 0e 54 95 be
       -0.08361557 -0.16668996 0.23460722 -0.2916569
000190 59 06 86 3e b9 70 c6 bd b8 03 8f be 30 55 57 3e
       0.26176718 -0.09689469 -0.27932525 0.2102859
0001a0 a6 e0 98 be 51 c1 01 3e 78 54 0a 3e 90 26 e1 bc
       -0.29858893 0.126714 0.13508785 -0.027484208
0001b0 23 91 b0 3d e1 96 58 3e 44 fc 75 3e 53 0e 1a be
       0.08621433 0.21151306 0.24022013 -0.15044527
0001c0 ec be b3 3d 6f 30 49 3e ba 25 00 be 44 9d f4 3d
       0.0877665 0.19647382 -0.12514392 0.119440585
0001d0 dd e0 1d be 18 1c 96 3e 6f 53 43 3c 9e 64 f9 3d
       -0.1541781 0.2931831 0.011921748 0.12177394
0001e0 fd d1 df bd dc 45 b9 3b ce 60 3b be 3e 50 f9 3d
       -0.10928724 0.00565408 -0.18298647 0.12173508
0001f0 64 70 ba 3d 11 8a 73 be 64 b5 f7 3d e9 23 62 3e
       0.09103468 -0.23783137 0.120951444 0.22084011
000200 eb 8c 1d be fe ee 90 3c 54 9d 17 bd 96 e6 16 be
       -0.15385787 0.017692085 -0.037015274 -0.14736399
000210 9b 94 83 3e 12 d3 88 be 2f 03 91 be 80 f9 97 bb
       0.25699314 -0.26723534 -0.2832274 -0.004637897
000220 ee b0 db bd ff 47 2b be 3b 2c 49 be 00 12 80 3e
       -0.10727106 -0.16726683 -0.19645779 0.25013733
000230 a6 fe 52 be fa 22 57 3e 2a 2a f7 bc 5d fb 38 bd
       -0.20604953 0.21009436 -0.030171473 -0.045161594
000240 20 4a 17 bd ec e8 71 3e 25 37 35 be 92 3c ae bd
       -0.036935925 0.23624009 -0.17696817 -0.085076466
000250 3b b2 56 3d 43 65 4c be ea bb 93 3e 8d e9 58 3e
       0.052416068 -0.19960503 0.28854305 0.21182843
000260 c9 19 74 3e fc c9 4c be 3b cc c3 bd 46 4c 02 be
       0.23837961 -0.19998926 -0.09560438 -0.12724409
000270 a0 f8 9c bc c3 07 04 3e 81 e4 1f 3d 7d f8 2e 3e
       -0.019161522 0.12893586 0.039036278 0.17086978
000280 f7 34 69 bd ef e3 c9 3d 14 c1 c0 3d a9 3f 78 be
       -0.056935277 0.09857928 0.09411827 -0.24243034
000290 fa 00 92 be 3e 57 3b 3e 4c 84 91 3d 2f 6c 57 3d
       -0.2851637 0.18294999 0.07105312 0.052593406
0002a0 0d 89 15 be 52 0f 23 3e fc 31 18 3b cd 55 43 be
       -0.14603062 0.15923813 0.0023223152 -0.19075699
0002b0 81 50 c4 bd d3 19 c1 3d ee a0 65 3d 6f 50 57 3e
       -0.095856674 0.09428754 0.056061678 0.21026777
0002c0 c7 a0 05 3e 48 35 39 3e 5a de e8 bd 5e 87 3d 3e
       0.13049613 0.18086731 -0.11370535 0.1850867
0002d0 94 1c 31 3e ea 1d 44 3e 50 98 23 3e 72 d4 29 be
       0.17296058 0.19152036 0.15976071 -0.16584948
0002e0 a7 7a d8 3d 3f d1 d3 3d 24 91 ac bd 20 73 7d bd
       0.10570269 0.10342645 -0.08426121 -0.06187737
0002f0 93 32 16 3e 47 2e 0c 3e 0c 1a 78 3e 42 19 2f 3e
       0.1466773 0.13689528 0.24228686 0.17099479
000300 65 b7 c1 3d ea 4b 81 be 2f 96 5a 3e b6 06 15 3e
       0.09458808 -0.2525323 0.21346353 0.14553341
000310 e2 e8 10 be 80 4d 95 3b 00 0c 8f be 19 06 84 3e
       -0.14151338 0.004556358 -0.27938843 0.25785902
000320 3e 97 82 be 4f 96 22 3d 2c 41 59 3e e4 35 1d be
       -0.25506014 0.039694127 0.21216267 -0.15352589
000330 34 ed 29 3a 45 ce fb bd da 00 c6 3d 00 c7 9f 3b
       0.00064821844 -0.12295202 0.09668131 0.0048760176
000340 95 34 13 3e df f7 9b 3e 61 7c 90 3e 9a e9 59 be
       0.14375527 0.30462548 0.28219894 -0.21280518
000350 66 af 78 3e d9 d1 70 3c 4a 3a 38 3d 74 8c 7b bd
       0.24285659 0.014698469 0.044977464 -0.061413243
000360 7c 06 f0 bd 78 fa 38 3d a0 34 52 3e b0 e5 ae 3d
       -0.11719987 0.04516074 0.20527887 0.08539903
000370 f6 60 ae bd 94 ed a5 3d 5c ae 03 3e e3 e6 9b 3e
       -0.085145876 0.08101955 0.12859482 0.3044959
000380 00 c6 bb 3d 07 58 0b be 46 af 36 3e 8e 74 d8 bd
       0.09168625 -0.13607799 0.17840299 -0.10569106
000390 1a be 50 be 18 61 cb bd b0 5c c8 bc fa 92 96 3e
       -0.20385018 -0.099306285 -0.02445826 0.2940901
0003a0 d8 f4 39 bd 3c e0 e8 bd 01 20 16 be 9b 93 e2 3d
       -0.045399517 -0.11370894 -0.14660646 0.1106331
0003b0 5c cf 81 3e fc 0d b6 bd e8 c7 0e be 84 bb 8a be
       0.25353515 -0.08889386 -0.13943446 -0.27096188
0003c0 18 c8 00 3d 66 c8 1a 3e 6a 77 09 3e 20 28 b1 3d
       0.031440824 0.15115508 0.13424459 0.08650231
0003d0 4f 0b cc bd 10 de 37 3d 34 7f da 3d 5a 75 9b be
       -0.099630944 0.04488951 0.10668793 -0.3036297
0003e0 93 43 7d bd f4 91 3e 3e f6 10 13 3e 2c 5b 8d 3d
       -0.061832022 0.18610364 0.14361939 0.06902155
0003f0 94 bc 8f be da 53 53 be cc aa 0d 3e be 5b 23 be
       -0.2807356 -0.20637456 0.13834685 -0.15952966

linear2.weight f4 [512, 256]
000000 4a ee 4c bd 90 d6 b2 bb 10 65 92 bc 24 fe f6 bc
       -0.050031938 -0.0054577067 -0.017870456 -0.03015048
000010 d8 3a 9a 3c 8a 76 1e 3d e8 05 cc 3c c8 6d cc bc
       0.018826887 0.038687266 0.02490516 -0.024954692
000020 70 6f c3 3c d4 44 e0 bc 58 67 3b bc 1a b4 49 3d
       0.023856848 -0.02737657 -0.011438213 0.049244024
000030 c8 82 2f bc 9e 66 65 bd fe 3c 6d bd 00 7a f3 b9
       -0.010712333 -0.056006067 -0.057919495 -0.0004643947
000040 78 05 20 3d 00 dc a5 3c 60 ad 32 3b 00 d0 2b ba
       0.039067715 0.020246506 0.0027263984 -0.0006554127
000050 40 9d df bb 62 d6 60 3d f8 95 d4 3c 84 ff 54 3d
       -0.0068241656 0.05489195 0.025950417 0.05200149
000060 a0 47 e2 bc 60 03 bd 3b 52 57 79 3d 8c f6 6c bd
       -0.027622044 0.0057682246 0.06087429 -0.057852313
000070 70 c6 48 bc f8 43 b7 bc a4 5a 86 3c e8 8a 5a bd
       -0.012254342 -0.022371277 0.016400643 -0.053355128
000080 6c 52 db 3c 76 b5 7d 3d 10 2c bc bc d4 c3 59 3d
       0.0267727 0.061940633 -0.02297023 0.053165272
000090 04 02 b0 bc 12 28 0c 3d 60 e9 2f 3d 6c 9e 52 3d
       -0.021485336 0.0342179 0.042947173 0.051420614
0000a0 bc f4 c1 3c cc 82 85 3c 50 2c 84 bb 28 f8 70 3c
       0.023676269 0.01629772 -0.004033603 0.014707603
0000b0 e4 74 08 3d 20 70 33 3c 44 d3 f2 3c b4 67 84 3c
       0.0333146 0.010952026 0.029641755 0.01616273
0000c0 ca 80 0f 3d 32 7e 01 3d 1c ee 23 3d 4a 29 0c bd
       0.035034932 0.03161449 0.040022 -0.034219064
0000d0 78 c2 68 bc 14 57 9c 3c d0 a1 5d 3d 7c ae 9e bc
       -0.014206521 0.01908449 0.054109395 -0.01937031
0000e0 18 03 b9 3c 38 a5 01 3d 18 f5 26 3d 0c e9 ff 3c
       0.022584483 0.031651706 0.040761083 0.031239055
0000f0 d6 fa 4e bd b2 8b 5d 3d 96 92 4a bd b8 af 24 bc
       -0.050532185 0.054088302 -0.0494562 -0.01005166
000100 36 83 64 bd 04 96 97 bc f8 dd 49 bd d8 5c 63 3c
       -0.055789195 -0.01850415 -0.04928395 0.013877116
000110 30 ec 8a bc d0 b8 d7 bc b6 ac 2f 3d 4e 43 1f bd
       -0.016958326 -0.026333243 0.04288932 -0.038882546
000120 98 50 5e 3d 6c b0 5a 3d 68 25 31 3c 58 ef 28 3c
       0.05427608 0.053390905 0.010812141 0.01031097
000130 18 29 15 bd 88 b8 ed bc 4c 96 4c bd dc 4e 82 bc
       -0.036416143 -0.029018655 -0.04994802 -0.015906744
000140 b0 52 e5 bb 60 44 e7 3b 6e cd 6b 3d 10 5c bf bc
       -0.0069983825 0.0070577115 0.05756896 -0.023359329
000150 40 8e da 3a 18 7d b8 bc 50 88 c6 3c c4 30 54 bd
       0.0016674474 -0.022520587 0.02423492 -0.05180432
000160 6c 99 a7 3c 66 e4 77 bd 34 ca be bc cc d3 85 bc
       0.0204589 -0.060520552 -0.023289777 -0.016336344
000170 60 9d b5 3b 3c 86 1e bd 12 2e 4f bd 3c 92 b7 3c
       0.005542442 -0.038702235 -0.050581045 0.022408597
000180 cc 4a 90 bc fc b4 01 3d ca 15 5d 3d d0 dd c4 bb
       -0.01761379 0.03166674 0.053975858 -0.0060078874
000190 b0 2a a7 bc 78 88 2e bd 32 f1 74 3d f4 d6 38 bd
       -0.020406097 -0.042610615 0.059800334 -0.04512687
0001a0 02 71 2c bd e4 b4 b6 3c 5a a4 3f bd 78 fa e4 bc
       -0.04209996 0.022303052 -0.046787597 -0.027951464
0001b0 00 ac be ba d4 1b 26 bd f0 6e 07 3d a0 64 e5 3c
       -0.001454711 -0.040553883 0.033064783 0.028002083
0001c0 b4 c9 74 bd b8 d7 9e bc e0 7f 46 3b be 46 6a bd
       -0.05976267 -0.019389972 0.0030288622 -0.05719637
0001d0 68 60 9b 3c 3c b7 71 3d 80 1f e3 3a dc f1 65 bd
       0.018966869 0.059012637 0.0017328113 -0.05613886
0001e0 30 8b 49 3d 00 12 67 3c b2 12 0f bd 4a 68 78 bd
       0.049205005 0.014103413 -0.03492994 -0.060646333
0001f0 10 3b b7 3b be 3c 3b bd 9e 76 75 bd 6c 69 6d bd
       0.0055917576 -0.045712225 -0.059927575 -0.057961866
000200 d2 74 12 3d 26 86 30 bd 20 57 1e bb 12 f1 34 3d
       0.03575594 -0.043096684 -0.0024160817 0.044175215
000210 44 62 e1 bc 00 87 c2 bc 90 a2 f1 bb 50 d2 b3 bc
       -0.027512677 -0.023746014 -0.0073741153 -0.02195087
000220 58 84 34 bd f2 23 37 3d a0 b0 d0 3c 00 59 17 bd
       -0.044071525 0.044712014 0.025474846 -0.03695011
000230 20 57 87 bc e0 f6 53 bd 00 12 d4 bb ce 91 63 3d
       -0.016521037 -0.05174911 -0.0064718723 0.055558972
000240 f0 70 76 bd 94 9b 25 3d 20 f8 0a bc 2c 62 50 3d
       -0.0601663 0.040431574 -0.008482009 0.050874874
000250 34 c7 8c bc a0 87 f2 bb a2 2e 05 3d 8e a8 56 3d
       -0.017184831 -0.0074014217 0.032515176 0.05240684
000260 ba 1a 6c 3d 30 b5 80 bb e8 56 87 3c 40 6a f0 bb
       0.057642676 -0.0039278492 0.016520932 -0.0073368847
000270 d0 7c f9 bc 80 50 43 3d 14 86 9f bc 80 cc f0 bc
       -0.030455023 0.047684193 -0.019473113 -0.029394388
000280 d6 aa 38 3d 46 8d 0b 3d 18 9e 3c 3d 68 b6 fe 3c
       0.045084797 0.034070276 0.046049207 0.031092837
000290 a4 6e ac 3c 12 0d 41 bd f6 85 7d 3d 3c 26 12 3d
       0.021048851 -0.047131605 0.061895333 0.035680994
0002a0 34 52 10 bd f2 98 05 bd c0 25 fd 3c d0 c9 dc bc
       -0.035234645 -0.032616563 0.03090179 -0.0269517
0002b0 30 41 c7 bc 7c f2 db bc e4 4d ee 3c 40 c1 34 3b
       -0.024323076 -0.026849024 0.029089876 0.0027581006
0002c0 a0 fb 01 bb 18 76 2b 3d 78 8d 3c 3c 30 77 28 bc
       -0.0019833818 0.04186067 0.011508338 -0.010282323
0002d0 20 42 02 3b c2 c2 76 bd 30 4e f9 bc 78 d0 22 bc
       0.001987584 -0.06024433 -0.03043279 -0.009937398
0002e0 d8 21 6e 3d 44 9d 00 3d d2 1f 6a 3d f0 f1 a8 3c
       0.058137745 0.03139998 0.057159252 0.020623177
0002f0 08 ef 2a 3c 64 cd f1 bc 78 09 a6 3c d2 2d 02 bd
       0.010432966 -0.029516883 0.020268187 -0.03178198
000300 60 bc c8 bc fa 31 77 bd 22 f0 76 bd 48 0b 35 bc
       -0.024503887 -0.060350396 -0.060287602 -0.011050053
000310 20 44 34 bc 00 a3 7c ba 78 5f 15 bd ee 4b 70 bd
       -0.01100257 -0.0009637326 -0.036468 -0.058666162
000320 00 6c 84 3b 74 29 c5 bc b8 53 ad 3c d4 c0 87 bc
       0.004041195 -0.024067618 0.021158084 -0.01657144
000330 c8 a0 4a bd d2 a1 1f bd 28 12 62 bd 20 45 c0 bc
       -0.04946974 -0.038972683 -0.055193096 -0.023470461
000340 b0 4c 04 bc 00 99 cb bc 58 cf 21 bc 60 8d 4d 3d
       -0.008074924 -0.02485323 -0.009876095 0.050183654
000350 18 ba fc 3c 34 fb 02 bd 48 45 77 bd c0 20 0d bb
       0.030850455 -0.031977847 -0.060368806 -0.0021534413
000360 c6 7e 19 bd 40 1a b7 bc 78 f3 c3 3c 10 8a ea 3b
       -0.037474416 -0.022351384 0.023919806 0.0071575716
000370 9c 04 d6 bc a8 73 da 3c dc 0b 48 3d 1e f4 43 3d
       -0.026125245 0.026666477 0.048839435 0.04784023
000380 e8 2e ed bc 76 a9 05 bd 14 46 d3 3c 70 8f 00 bc
       -0.02895303 -0.032632314 0.025790252 -0.007846698
000390 80 4d 81 3c 70 18 2e bd aa 00 13 3d e8 0b 2c bd
       0.015784025 -0.042503774 0.035889305 -0.042003542
0003a0 e6 78 79 bd 9c 81 36 bd f0 84 10 bd 10 9f 85 3b
       -0.060906313 -0.0445572 -0.03528303 0.0040777996
0003b0 be ee 00 3d 28 31 48 bc 2c f7 96 bc 90 b7 f7 3b
       0.031477682 -0.012218751 -0.018428408 0.007559724
0003c0 f0 07 71 3c 1c 4b 81 bc c0 24 98 bb 16 8e 16 3d
       0.014711365 -0.015782885 -0.004643053 0.036756597
0003d0 7a 96 37 bd 14 eb 26 bd d0 ea 58 bc 40 dd 11 bb
       -0.04482124 -0.04075153 -0.013239577 -0.002225712
0003e0 a0 3d 33 bb 70 d9 32 bd 3a 35 02 3d a8 4e 2b 3c
       -0.0027349964 -0.043664396 0.031789042 0.010455765
0003f0 64 55 ab bc e0 50 52 3c 1c d6 75 bd 5c 4b 26 3d
       -0.02091474 0.012836665 -0.060018644 0.040599212

linear2.bias f4 [512]
000000 42 df 1f bd c4 df 7f 3c 58 2e 23 bd 01 de cd bc
       -0.039031275 0.015617315 -0.03983912 -0.025130274
000010 91 c1 0d bd 0b dd 2e 3d 42 a4 8b bc 87 b0 ca bc
       -0.034608427 0.04269127 -0.017046098 -0.024742378
000020 20 b2 1e 3d 9a 99 e8 3c 6c 7e b9 3c b5 30 ba bc
       0.038744092 0.028393555 0.02264329 -0.022728303
000030 5f fd 27 3b e8 83 5f bd 82 9d 69 3b fc 2f 9e 3c
       0.0025633199 -0.054569155 0.003564686 0.01930999
000040 68 b8 9b bc 5a 8c e4 bc d6 51 de 3c c0 df d0 bc
       -0.01900883 -0.027898956 0.027138632 -0.025497317
000050 40 10 37 ba c6 7e 51 bb 45 66 b0 3c 30 73 57 3c
       -0.00069833174 -0.0031966432 0.02153314 0.013150021
000060 64 3c 11 3d 94 d5 d9 bc f2 60 10 3d eb 85 86 3d
       0.035457984 -0.0265911 0.035248704 0.065685116
000070 5a be 34 3c 56 e8 06 3d 50 57 14 bc 00 2c 2e 3d
       0.0110317115 0.032936417 -0.00905402 0.04252243
000080 50 3f fc bc 76 8c 53 bd 20 d4 58 3b 80 f8 22 bc
       -0.030791909 -0.051647626 0.003308542 -0.009946942
000090 a2 c8 7f 3d 1c 08 6a bd 34 37 33 bc c0 fd a5 bc
       0.062447198 -0.05713664 -0.010938454 -0.020262599
0000a0 49 7e 01 bc f0 63 1f 3c d2 76 a6 bc ce cd c9 bc
       -0.007903644 0.009728417 -0.02032033 -0.024634268
0000b0 30 bb aa bb 04 a0 ff 3c 48 43 62 bd e6 f0 62 3d
       -0.005210303 0.031204231 -0.055239946 0.05540552
0000c0 e0 26 2b 3b 00 b7 9c 3c f3 51 7c bd e8 ed 54 bd
       0.00261157 0.01913023 -0.06160159 -0.051984698
0000d0 98 00 7d bd f2 af 84 bc ea 4d ae bc 98 6f f0 ba
       -0.061768144 -0.016197179 -0.021277387 -0.0018343804
0000e0 d0 5c 5a 3c ad d0 64 3d 74 28 1d bd 18 03 4b 3d
       0.013327792 0.05586307 -0.038368657 0.049563497
0000f0 14 b3 0d 3c f0 69 60 bd a6 97 cb 3c 98 bb 8e 3c
       0.008648653 -0.05478853 0.024852585 0.017423436
000100 54 d0 4f bd 89 8d 57 3d d6 d3 06 bd 50 c0 83 3c
       -0.050735787 0.052625213 -0.032916866 0.016082913
000110 f0 24 d8 bb 3a 3d c7 3a cb 52 05 3d 11 33 89 bc
       -0.0065962 0.0015200742 0.03254966 -0.016747983
000120 be 86 87 bc 93 5d 77 3d 0f 88 25 bd e8 ca 26 3d
       -0.016543742 0.060391974 -0.04041296 0.04072085
000130 67 e0 e1 bc 3d 7f d9 3c 8a 44 da 3c 11 80 4b 3b
       -0.027572824 0.02654993 0.02664401 0.0031051675
000140 78 aa e8 bc 7e c0 59 bd 4a d3 55 3d 20 e6 a8 3b
       -0.028401598 -0.05316209 0.052203454 0.005154386
000150 fa 44 f1 3b 36 1f 45 bd 8a 18 75 bc c4 48 1f 3d
       0.007362959 -0.04812547 -0.014959464 0.038887754
000160 17 02 26 3b 40 4b 2d bc d3 e9 44 3d 63 6b 54 bd
       0.0025330835 -0.010577023 0.048074555 -0.051860224
000170 73 27 c6 3c 5f ca 15 bd ba 0f 7f 3d 1e 55 6d 3d
       0.024188733 -0.03656995 0.062270857 0.057942502
000180 80 2f 2a 3d 79 64 22 3c b0 4c 5f 3d ba 8c 7b bd
       0.041549206 0.00991165 0.054516494 -0.061413504
000190 b9 6c 5d 3d 80 9f 9d bc bb 54 bd bc e2 5a 45 bd
       0.054058764 -0.019241095 -0.023111692 -0.048182376
0001a0 94 e3 30 3d 04 55 84 3c 58 51 64 bc 2c d5 6f 3d
       0.043185785 0.01615382 -0.0139354095 0.058552906
0001b0 5a 3c e7 3c 90 a0 31 bc e0 1e 1d bd 23 9d bc bc
       0.02822702 -0.010841504 -0.038359523 -0.023024147
0001c0 af 24 17 3c d5 6c 7a bd 8a 09 83 3d 0a 00 2a bd
       0.009225055 -0.061138947 0.06398304 -0.041503944
0001d0 48 e1 4b bd 90 28 06 3d c8 38 5d 3d 22 27 78 3d
       -0.04977539 0.032753527 0.05400923 0.060584195
0001e0 83 7d a4 3c 94 5a 20 3d 45 d1 4a bd 25 0c 04 3d
       0.02007938 0.039148882 -0.04951598 0.032238144
0001f0 75 68 0b 3d 70 d1 55 3d 14 da 7a bd b8 01 5a bc
       0.034035165 0.05220169 -0.06124313 -0.013306074
000200 88 79 09 bd e7 c2 86 3d fc 29 80 bd c8 e2 18 3c
       -0.033563167 0.065801434 -0.06258008 0.009331413
000210 78 ad 4d 3d 08 2a 49 3d bc 05 43 3d c0 b3 b9 bb
       0.05021426 0.04911235 0.04761289 -0.00566718
000220 e2 8b 7a 3c c4 3d ed bc 29 00 f1 bb c0 3c f4 3c
       0.01529214 -0.028960116 -0.0073547554 0.029814124
000230 d0 99 96 3c 78 91 59 3c fc 9c 68 3d 0e 26 19 3d
       0.01838389 0.013279311 0.056790337 0.037389807
000240 2a d6 ce bc d8 a7 c1 bc 98 42 53 bc ec 82 08 bd
       -0.025248606 -0.023639604 -0.012894295 -0.03332798
000250 a1 fb 34 3c 3c cd 6e bd b9 1c 15 bd 29 07 cc ba
       0.011046321 -0.058301196 -0.036404345 -0.0015566099
000260 00 8a 9f 3c 60 35 13 bb 4c 7a 35 bd 2b 0a 07 3d
       0.019474983 -0.0022462234 -0.044306085 0.03296868
000270 95 0f 37 3d 93 6d 8b 3c ac c0 19 3d 45 c3 23 3d
       0.044692595 0.017020022 0.03753726 0.039981145
000280 ad 1f 5c bb ee 4a 2d 3d fb c9 9d 3c 08 e1 33 bd
       -0.0033588216 0.042307787 0.01926135 -0.04391578
000290 71 42 14 3d d8 c9 6a bd ab 77 49 3d 4f 2a d5 3c
       0.036196176 -0.0573214 0.04918639 0.02602115
0002a0 24 8a 14 bd b4 b5 83 bc ba 31 22 bd 6d 63 cf 3a
       -0.036264554 -0.016077854 -0.039598204 0.0015822478
0002b0 9b c2 81 3d a8 e2 50 bc 91 73 16 3d 5c ab 84 3c
       0.06335946 -0.012749352 0.036731306 0.016194992
0002c0 70 78 34 3c 33 81 04 bd 67 e2 e2 bc 1f 04 e2 bc
       0.011015043 -0.032349776 -0.027695848 -0.027589856
0002d0 d0 11 a2 bc 2a c2 05 3d 89 2d 14 3c 5e cf 72 3d
       -0.019783884 0.032655872 0.00904406 0.059279792
0002e0 ce 5c 0b bd 6e 8f 1d 3d 79 57 57 3d 56 98 d7 ba
       -0.034024052 0.038466863 0.052573655 -0.0016448598
0002f0 92 f1 08 bd 5a 4a 0a 3d fe 01 05 3d a4 fa 42 3d
       -0.033433504 0.033762313 0.032472603 0.04760231
000300 a4 2f ee bc 10 c1 42 3d f9 33 21 bd c2 0b 87 bc
       -0.029075451 0.0475474 -0.039356206 -0.016485099
000310 7a 46 15 bd 31 0d 06 3d eb 4c 6e 3d b8 0a 5b 3d
       -0.036444165 0.032727424 0.058178823 0.05347702
000320 a4 51 20 bd 3a 9c 4e 3d ea bd 8b 3d 33 d3 62 3d
       -0.03914036 0.050441958 0.068233326 0.055377197
000330 30 2d 01 3d da 91 31 bd d0 6e 6e 3d e2 76 76 bd
       0.031537235 -0.043351986 0.058211148 -0.06017197
000340 d8 29 b0 bc 6c 4a 92 3c 56 dd 01 bd 38 06 4b 3c
       -0.021504328 0.017857753 -0.031705223 0.012391619
000350 b3 70 6c 3d 31 50 d1 bc e7 c4 6c bd f4 b6 15 3c
       0.057724666 -0.025550934 -0.05780497 0.009137858
000360 00 81 f3 ba 3e f0 a7 3c db ab 31 bd 8f 72 1a 3d
       -0.0018577874 0.020500299 -0.043376785 0.037706908
000370 fa fa 1d 3d 0c ac 36 3d b0 43 36 3c b0 c3 8d bc
       0.038569428 0.04459767 0.011124536 -0.017305225
000380 e1 71 84 3c 57 bb 5b bd c2 cf 62 3c 28 1d ee bc
       0.016167583 -0.053645458 0.013843479 -0.029066637
000390 2c 90 2f 3c d7 36 9c 3c fc 96 69 3d 64 37 69 3d
       0.010715526 0.019069118 0.057028756 0.05693759
0003a0 a9 32 31 3d 9c 7c 61 3d 10 b0 db 3b b1 03 12 3d
       0.043261204 0.055050477 0.006704338 0.03564805
0003b0 e4 04 95 bc 2d 46 20 3c 30 fe 07 3c 50 95 59 3c
       -0.018190809 0.009782356 0.008300349 0.013280228
0003c0 5e 52 47 bd 88 fa 82 bd bb 98 ec ba 59 ca 24 3c
       -0.048662536 -0.06395441 -0.0018050888 0.010058009
0003d0 f7 9c 61 3d cd a6 49 3c 1c 44 11 bd 72 31 2b bd
       0.055081334 0.012307835 -0.035465345 -0.0417952
0003e0 d0 b2 1b 3d 78 e8 6a 3d 41 80 19 3d fc e8 4d bd
       0.038012326 0.057350606 0.037475828 -0.05027102
0003f0 30 5c 80 bb 26 a1 5f 3d 59 16 79 bc ff 81 a9 3c
       -0.0039172396 0.054597043 -0.015203082 0.02069187

linear3.weight f4 [1, 512]
000000 ae 18 89 3c c0 4f a9 3a f3 2f 06 3d 52 37 19 bd
       0.016735401 0.0012917444 0.03276057 -0.037406273
000010 aa 05 73 bc ec ea 35 bc 68 dd 8d 3c 41 90 bd 3b
       -0.014832893 -0.011103373 0.017317489 0.0057850187
000020 de f1 1b bd 33 f5 dd 3b 60 f5 c4 bc 82 7b 8a bc
       -0.03807246 0.006773615 -0.024042785 -0.016904596
000030 bc 4f fb 3c 97 14 46 3d 2a 33 12 bd 53 34 22 3d
       0.030677669 0.04835948 -0.035693325 0.03960068
000040 50 60 6d 3b 1e 5d 31 3c f8 79 16 3c 60 c4 37 bc
       0.0036220737 0.0108254235 0.009184353 -0.011216253
000050 9b c8 75 bc 0c 6b 13 3d 17 36 59 bc 60 e4 2b 3b
       -0.015001441 0.03599076 -0.013257525 0.0026228651
000060 3d 89 85 3c 7e 11 d7 bc 72 11 08 bc 6d e1 3d 3d
       0.016300792 -0.026253458 -0.008304941 0.04635756
000070 97 c8 3f 3d 92 29 9b 3c dd 34 0e 3d c8 2f 3e 3c
       0.046822157 0.01894072 0.034718383 0.011608072
000080 4f 70 12 3d 29 e8 db bc 0c 27 8d bc 26 22 a0 bc
       0.035751637 -0.026844101 -0.017230533 -0.019547533
000090 18 4d 11 bd cc 26 a9 bc 47 b0 2b 3d b8 4f 3a 3c
       -0.035473913 -0.020648383 0.041916158 0.0113715455
0000a0 b3 65 4b 3c 45 2c 31 3d c1 08 08 bc dc e5 85 3c
       0.012414384 0.04325511 -0.008302868 0.016344957
0000b0 aa 05 81 bc 17 77 31 3d e4 12 c6 ba b4 35 14 bd
       -0.015749771 0.043326464 -0.0015111831 -0.036184028
0000c0 43 4b 03 3d 6e 9d cd 3c e9 d8 c3 b9 c2 da 94 bc
       0.032054197 0.025099482 -0.0003735491 -0.018170718
0000d0 36 3b f6 3c f8 8a 0c bc 7b c5 2b 3d cc 97 ca 3c
       0.03005753 -0.008578055 0.04193638 0.024730586
0000e0 1e 7e d7 3c b6 16 e2 3c 67 fe db bb a8 48 54 bb
       0.026305255 0.02759872 -0.0067136767 -0.003239194
0000f0 17 4f 00 bd 53 80 0c bd ea 7d ad bc f8 a6 09 bd
       -0.031325426 -0.034302067 -0.021178205 -0.0336065
000100 ae 4f b3 3c f6 9e a9 bc 4d d6 0d 3d a6 94 2a bd
       0.02188858 -0.020705681 0.0346282 -0.04164567
000110 26 0d 18 bc 4e 87 9f bc d5 6d 8d b9 7e 4d a2 3c
       -0.009280479 -0.019473698 -0.00026975447 0.019812342
000120 0e 84 15 3c 11 00 3d 3d b5 ce bc 3c 40 b5 90 3c
       0.009125723 0.04614264 0.023047784 0.017664552
000130 f7 b7 20 3d 74 c8 00 bd 2f 92 c3 bc cb 87 a5 3c
       0.039237943 -0.031441167 -0.023873417 0.020206353
000140 d4 c3 58 3c 74 cb 08 3d b7 1e 15 3d 68 38 da bb
       0.013230283 0.033397153 0.036406245 -0.006659556
000150 50 d1 cd 3c aa 59 09 bc 42 e5 b3 3b 18 5d c0 bc
       0.025124222 -0.008383194 0.005489976 -0.02348189
000160 f0 96 fd 3b ea 2a 06 bb f8 a6 88 bc 7a 92 0d 3d
       0.0077389404 -0.0020472356 -0.01668118 0.03456352
000170 c9 36 29 bd 66 75 2d 3d 3a 63 6d 3c 1b f6 2c 3d
       -0.041312013 0.042348288 0.0144889895 0.042226892
000180 d0 7d ef 3b 56 07 2b 3d 2a 32 4c bc f0 79 0c bb
       0.007308699 0.041755043 -0.012463132 -0.0021434985
000190 65 82 27 3d 7e 2a b2 3c 8a 93 b4 bb 51 4b 40 bc
       0.04089584 0.021748777 -0.005510752 -0.011736707
0001a0 e8 fb 1e bd 12 87 22 bd b6 a1 82 3c c2 f5 ab 3c
       -0.038814455 -0.039679594 0.01594625 0.02099121
0001b0 3a fa 4a 3d e3 0e ac bc c8 b9 40 3d c6 90 4d bc
       0.04955504 -0.021003192 0.047052175 -0.012546724
0001c0 14 4b 85 bb bb df a2 bb a5 f1 bd 3c fc 40 96 bc
       -0.004067788 -0.0049705184 0.023186514 -0.018341534
0001d0 fa 2c 05 bc 50 12 1e bd 1e 2b b8 bc e5 03 aa 3c
       -0.008128399 -0.038591683 -0.022481497 0.02075381
0001e0 55 b6 41 3d 0c 98 14 3c fe 30 51 3a 89 e8 d6 ba
       0.047293026 0.009069454 0.00079800177 -0.0016396205
0001f0 7a 9b 35 3d 11 1a 2e 3d 0b 04 29 3d 7e 0e e2 3c
       0.044337727 0.042505328 0.04126362 0.027594801
000200 22 7a e3 3b 14 9c 6e 3c 56 85 52 bc 80 15 8a 3a
       0.0069420496 0.014563579 -0.012849173 0.0010534972
000210 2c b7 32 bd ea 98 10 bc 08 ce 02 bd e6 55 08 bd
       -0.043631718 -0.00882552 -0.031934768 -0.033285044
000220 ac 1c 4e 3d ec 3f 7d 3c 31 96 98 3c 8b 71 34 3d
       0.050320312 0.015457135 0.018626304 0.044053596
000230 5e b2 95 3c cc 82 25 bd be 05 c5 bc 59 aa 84 bc
       0.018273529 -0.04040794 -0.02405059 -0.01619451
000240 af 02 0b bd d0 ce f1 bc aa 13 c4 bc c6 93 f2 bc
       -0.033938106 -0.029517561 -0.023935158 -0.02961148
000250 3b a2 f1 3c d2 62 f7 3c a9 d5 44 3c 80 74 48 3d
       0.029496303 0.030198488 0.012013831 0.048939228
000260 bb 57 f0 bc dc 45 3b 3c 8e 4f 86 bc 53 3d d6 bc
       -0.029338708 0.01143023 -0.016395357 -0.026152289
000270 15 41 9b 3c ec c3 59 ba 0b 76 1e 3d c7 14 4a 3c
       0.018951932 -0.00083070877 0.038686793 0.012334055
000280 20 e3 6c bc f8 1f b4 bb 66 f7 19 bd fe 5b e3 3c
       -0.014458448 -0.005496975 -0.037589453 0.027753826
000290 93 b3 9f b7 f0 f8 68 3b 25 cc 3c 3a 8d fe 3e 3d
       -1.9037898e-05 0.003554877 0.0007202051 0.046629477
0002a0 2e ce ab bc eb 06 9a ba 97 fa 46 ba 98 65 37 3d
       -0.020972338 -0.0011751329 -0.00075904414 0.04477462
0002b0 8c b2 26 3d 66 2b 0b 3c 12 63 0f bd 16 1e d1 3c
       0.04069762 0.008494234 -0.03500659 0.025527041
0002c0 3d 54 9d bc 37 76 cd bc a8 18 28 3c 2f a7 35 bc
       -0.019205207 -0.025080783 0.010259785 -0.011087223
0002d0 82 46 e0 3c 97 b8 03 bd ec c2 06 3d 0b 56 26 bd
       0.02737737 -0.03215846 0.032900736 -0.0406094
0002e0 ef 29 f2 bc 73 0b a4 bc 7b 54 0f bd 30 a7 4c 3c
       -0.029561011 -0.02002499 -0.034992676 0.0124910325
0002f0 a5 e0 52 bc 11 df c4 bc aa c2 10 bd 3d dc 32 3d
       -0.012870942 -0.024032148 -0.035341896 0.043667067
000300 38 4a 00 3c 48 11 8c 3b 2b 9f 77 bc 92 3f 84 bb
       0.007830195 0.004274521 -0.015113632 -0.0040358985
000310 fc b0 03 bd 7a 1b 1e 3c fe 13 0a bd 60 22 ef bc
       -0.032151207 0.009650106 -0.033710472 -0.029191196
000320 ba c2 ad 3c e3 87 28 bd 96 41 0c 3d 20 78 82 3b
       0.021211017 -0.041145217 0.034242235 0.003981605
000330 74 9a 61 bc 4f 38 33 3d 37 aa c9 3b 47 5e e2 bc
       -0.013769735 0.043754872 0.0061543244 -0.027632846
000340 b4 5e 16 bd 00 d0 9a b8 09 81 87 bc e9 42 91 bc
       -0.03671141 -7.382035e-05 -0.016541021 -0.0177321
000350 25 8b f8 bc 1d 49 87 bc d1 0c 27 bd 9a c7 8e 3c
       -0.030339787 -0.016514355 -0.040783707 0.017429162
000360 64 ee 61 3c 8f 66 db 3c 1a 4c 45 3d 79 f7 be 3b
       0.013789747 0.026782302 0.04816828 0.005827841
000370 2a 81 b4 3c c0 e0 63 3c a1 19 e2 bc 20 d9 0b bd
       0.022034246 0.013908565 -0.027600111 -0.034142613
000380 af 7b 4c 3c 11 39 eb bc 1d cc ee 3a d8 7f 1e 3c
       0.01248066 -0.028713735 0.001821879 0.009674035
000390 3f 1f a7 3c ef b7 9e 3c a5 2b 0b bd 10 5a a7 3c
       0.020400641 0.019374816 -0.03397717 0.020428687
0003a0 64 8c a2 ba 32 6f c6 bc a1 64 ee bc 27 0b 76 bc
       -0.0012401459 -0.024222944 -0.029100718 -0.015017307
0003b0 ee 17 4c 3d 48 bb 28 3d ca c5 b8 3c 40 6e 6e ba
       0.04982751 0.04119423 0.02255525 -0.0009095408
0003c0 38 ea 1b bd 32 2c 36 bc 7a fd a9 bc a1 bb c2 3b
       -0.038065165 -0.011118935 -0.02075075 0.0059427773
0003d0 66 77 07 3d 24 4f b1 bc 08 65 f5 bb 90 17 30 bc
       0.03307285 -0.021644183 -0.0074888505 -0.010747805
0003e0 4c 18 90 3c 0a 7b a8 3c 86 98 1e bd 69 20 7f bc
       0.01758971 0.020566482 -0.038719676 -0.015571692
0003f0 70 5f 09 bb a7 5c a2 bc 7f 7c 40 3d 55 92 23 3d
       -0.0020961426 -0.01981957 0.04699373 0.039934475
