src/pepper_training/training_results/2022-10-28-add-joints/model/actor.pkl (torch, 556951 bytes, 6 tensors)

linear1.weight f4 [256, 7]
0	0x3eceb092	0.40369087
1	0x3ea4b50b	0.32169375
2	0x3e4b7455	0.19868596
3	0xbdaabf4e	-0.0833727
4	0x3db94614	0.090465695
5	0xbe33eb4f	-0.17570232
6	0x3e826f9f	0.25475785
7	0x3e4ae0b9	0.19812287
8	0x3ed17320	0.40908146
9	0x3e9aba95	0.30220476
10	0xbdc1d64a	-0.094647005
11	0xbea70b50	-0.32625818
12	0xbeaa6469	-0.33279732
13	0x3e04b496	0.12959513
14	0xbe238f09	-0.15972532
15	0xbe4c8336	-0.19971928
16	0x3e3c4341	0.1838503
17	0xbe81495c	-0.2525128
18	0x3ec2fa6a	0.38081676
19	0x3ea5d3e4	0.32388222
20	0x3c5e6c94	0.013575692
21	0x3dedae15	0.11605469
22	0x3c61ecdc	0.013789382
23	0x3eb9b5f3	0.3627163
24	0x3e8eee51	0.27916196
25	0xbe8a07ab	-0.26958975
26	0xbeaaec2f	-0.3338332
27	0x3ec2f22b	0.38075384
28	0x3e922ef8	0.2855146
29	0x3e93ff8f	0.28905913
30	0xbea7f415	-0.32803407
31	0x3eb73b14	0.3578726
32	0x3ec0be3a	0.3764513
33	0x3db50c50	0.08840239
34	0x3e199443	0.14997964
35	0xbe833e54	-0.2563349
36	0x3d1f5e55	0.03890832
37	0x3e641663	0.22274165
38	0x3d7b3c2a	0.061336674
39	0x3ebc3570	0.3675952
40	0xbe5d30a8	-0.21600592
41	0x3eb981de	0.36231893
42	0xbe0868a7	-0.13321172
43	0xbdac56c7	-0.08414989
44	0xbde11b25	-0.109915055
45	0xbd1829a8	-0.0371491
46	0x3e69f15f	0.22845982
47	0x3e838c8c	0.25693166
48	0xbe64ceb8	-0.22344482
49	0x3e2d7aea	0.16941419
50	0xbe430411	-0.1904452
51	0xbdbd1b5d	-0.09233735
52	0x3e3be6a9	0.18349709
53	0xbe4b4ed5	-0.19854291
54	0xbe140b37	-0.14457403
55	0xbcbfd81a	-0.023418475
56	0x3da726cc	0.08161697
57	0xbe445e0c	-0.19176501
58	0xbe2bffb9	-0.16796769
59	0xbce7f313	-0.028314149
60	0x3eb3e755	0.3513743
61	0xbd9908a4	-0.07472351
62	0xbe36f7e5	-0.17868002
63	0xbdde44a1	-0.10852934
64	0x3d6e6b43	0.05820776
65	0x3ea57b53	0.3232065
66	0x3d8f4446	0.06995444
67	0xbdd9cd2b	-0.10634836
68	0x3ec9fae4	0.39449227
69	0x3e9e821f	0.3095865
70	0xbe41a166	-0.18909225
71	0x3baceec4	0.0052774865
72	0x3bea4dca	0.0071503865
73	0x3ea744eb	0.32669768
74	0xbe436394	-0.19080955
75	0x3e760845	0.24026592
76	0x3d3fcf89	0.04682878
77	0x3e33f4b7	0.1757382
78	0xbe0b013f	-0.13574694
79	0x3de8e918	0.11372584
80	0x3e896af3	0.26839408
81	0xbe930f2c	-0.28722513
82	0x3d7c0e18	0.06153688
83	0xbd608a97	-0.05481967
84	0xbd5ffeef	-0.054686483
85	0xbd8387e1	-0.06422401
86	0xbdc51781	-0.09623624
87	0xbe12552b	-0.14290302
88	0x3eb4671b	0.35234913
89	0x3e5dbede	0.21654841
90	0x3d421252	0.047380753
91	0x3ebf691f	0.3738489
92	0xbe46ecaa	-0.19426218
93	0xbda1ac73	-0.0789422
94	0x3e2f04e5	0.17091711
95	0xbbd71ced	-0.0065647275
96	0x3e456945	0.19278438
97	0x3a6343ce	0.00086694665
98	0x3c92051c	0.017824702
99	0x3e80bf3e	0.25145906
100	0x3eacdbbe	0.337614
101	0xbe95c26f	-0.29249904
102	0x3eaaa87e	0.33331674
103	0xbea37ea6	-0.31932563
104	0x3e9aefab	0.30260977
105	0xbd8458ef	-0.06462275
106	0x3d7bae00	0.061445236
107	0x3e2afbf7	0.1669768
108	0xbcc1ca20	-0.023655951
109	0xbda303a0	-0.07959676
110	0x3e55d086	0.20880327
111	0xbe00a50b	-0.12562959
112	0x3e9b0bcd	0.3028244
113	0x3e85a1e5	0.26100078
114	0x3e7e4dfa	0.24834433
115	0x3e605236	0.21906361
116	0x3d7d760c	0.061880156
117	0xbd2c3b15	-0.042048533
118	0xbe2b69a1	-0.16739513
119	0xbd95a15d	-0.07306168
120	0x3ddf9ffe	0.10919188
121	0xbec09384	-0.37612545
122	0x3e1096ef	0.14120077
123	0x3e68f7e0	0.22750807
124	0x3e6467c4	0.22305208
125	0xbd2a7942	-0.041619547
126	0x3e0a96fd	0.1353416
127	0xbe1c802e	-0.15283272
128	0xbdc76d8c	-0.09737691
129	0xbd3433de	-0.043994777
130	0x3d5db362	0.05412615
131	0xbeae42ca	-0.3403533
132	0xbe02fc9b	-0.12791674
133	0x3e896fd1	0.26843122
134	0xbd37f495	-0.044910986
135	0xbebaa995	-0.36457506
136	0x3c4fbc9b	0.012679244
137	0xbe9aefb3	-0.30261
138	0xbeb05500	-0.3443985
139	0xbe8c3fb8	-0.27392364
140	0x3ed37d37	0.4130647
141	0x3e1535f9	0.1457137
142	0x3ebab839	0.36468676
143	0x3e45e758	0.19326532
144	0x3e0d382b	0.13790958
145	0x3debd5ec	0.11515412
146	0xbda83cb3	-0.082147025
147	0xbe80880c	-0.25103796
148	0x3ecdd20a	0.4019931
149	0xbdca3c12	-0.09874739
150	0xbe5d0114	-0.21582443
151	0x3e958f2f	0.29210803
152	0x3e4e6cc2	0.20158675
153	0x3de50ea7	0.11184435
154	0xbe3a663a	-0.18203059
155	0xbe697286	-0.22797593
156	0x3e77656e	0.24159786
157	0x3e2f8fde	0.17144725
158	0x3e26adde	0.16277263
159	0xbe4e31f3	-0.20136242
160	0x3d429788	0.047507793
161	0xbdab790c	-0.08372697
162	0x3ec357f3	0.38153037
163	0x3bd04e87	0.0063570174
164	0x3e1faaaf	0.15592454
165	0xbe33bd11	-0.17552592
166	0x3cd5feb3	0.026122427
167	0x3e3ba083	0.18322949
168	0x3e95a0aa	0.2922414
169	0x3d2bbd23	0.04192842
170	0x3e19062f	0.14943765
171	0xbe9fecd5	-0.31235376
172	0xbd8d13b6	-0.06888525
173	0x3e8e1618	0.2775123
174	0x3d15e073	0.036591005
175	0x3e9daaa7	0.3079426
176	0x3db83c56	0.08995883
177	0x3eb53c46	0.35397547
178	0xbe934032	-0.28759915
179	0xbe962f21	-0.29332832
180	0xbe6e392f	-0.23264001
181	0x3d7d2f65	0.061812777
182	0x3e38ec8c	0.18058985
183	0xbe54460d	-0.20729847
184	0x3de32664	0.11091307
185	0x3e1b8e81	0.1519108
186	0x3eabbc7a	0.33542234
187	0xbe5f4437	-0.21803366
188	0xbdcdd077	-0.10049527
189	0xbe2d4b5f	-0.16923283
190	0xbd6e4ae2	-0.058176883
191	0x3e5a7667	0.2133423
192	0xbe19abf2	-0.15006998
193	0x3df9d342	0.12198497
194	0xbe9c3185	-0.3050653
195	0x3e84e201	0.25953677
196	0x3e6310b0	0.22174335
197	0x3ed51a86	0.41621798
198	0x3c9be7f3	0.0190315
199	0x3ea6c1dd	0.3256978
200	0x3ce394d3	0.027780926
201	0x3d64ec9f	0.055889722
202	0x3d362b09	0.044474635
203	0xbea3e25e	-0.32008642
204	0x3e130125	0.14355905
205	0xbe29609a	-0.16540757
206	0xbdf0d0e6	-0.11758594
207	0xbc95f3e9	-0.018304782
208	0x3e3446ae	0.17605087
209	0x3df72d52	0.12069191
210	0x3eb95fc9	0.3620589
211	0xbdf1c825	-0.11805753
212	0x3e780723	0.24221472
213	0xbd244056	-0.040100418
214	0x3e54d245	0.20783336
215	0x3df9e7b6	0.122023985
216	0x3e68e81f	0.22744797
217	0x3e9d94d1	0.307776
218	0xbd9e1405	-0.07718662
219	0x3dfe2058	0.12408513
220	0xbea47f07	-0.32128164
221	0xbe4b60b3	-0.19861107
222	0x3c5b2cac	0.01337735
223	0x3e90c5e9	0.28275993
224	0x3beb996e	0.007189921
225	0x3c149c60	0.009070486
226	0xbdc82e75	-0.09774486
227	0x3e2ca7a0	0.16860819
228	0x3d8a4fc6	0.06753497
229	0x3e992eb0	0.29918432
230	0x3e789a03	0.24277501
231	0xbe986adf	-0.29769036
232	0x3e2ad587	0.16683017
233	0x3e6c112a	0.23053423
234	0x3e5355e9	0.20638241
235	0x3e663c53	0.2248395
236	0xbe0a1df4	-0.13487989
237	0x3eb4a409	0.352814
238	0x3df33f82	0.118773475
239	0x3ebc7189	0.3680537
240	0xbe499b5d	-0.19688173
241	0xbd0954a5	-0.03352799
242	0xbdc075e4	-0.09397486
243	0xbe8ea31c	-0.27858818
244	0xbddc715f	-0.10763811
245	0xbe7ba4e3	-0.24574618
246	0x3d89e923	0.067339204
247	0xbe24ffba	-0.16113177
248	0xbe2a7dca	-0.16649547
249	0xbe5b63c1	-0.21424772
250	0x3ea489ed	0.3213648
251	0xbe81f24e	-0.25380176
252	0x3d4504cb	0.048100274
253	0x3ebbce6f	0.36680934
254	0xbd73a707	-0.05948546
255	0xbd20b979	-0.03923938

linear1.bias f4 [256]
0	0x3d85083a	0.0649571
1	0x3d2f6f72	0.042830892
2	0x3deb9196	0.11502378
3	0xbe4e36e7	-0.20138131
4	0xbe8ec5ba	-0.27885228
5	0x3d8b8bb4	0.06813756
6	0x3e97d517	0.29654762
7	0xbe559f15	-0.20861466
8	0x3e6d6d49	0.2318622
9	0x3d93cd3c	0.0721688
10	0x3dc944e4	0.09827593
11	0x3e476f86	0.19476137
12	0xbea95c36	-0.33078164
13	0xbe9a20e1	-0.3010321
14	0xbe42f67b	-0.19039337
15	0x3dd4fcf3	0.10399809
16	0x3e277067	0.16351472
17	0xbe6c0d6b	-0.23051994
18	0xbe897741	-0.26848796
19	0x3dc971cf	0.098361604
20	0x3c8143d7	0.015779419
21	0x3db24ea9	0.087064095
22	0xbea039c9	-0.31294087
23	0xbd946754	-0.07246271
24	0x3da98077	0.08276456
25	0x3e66be8d	0.22533627
26	0xbdfcf27b	-0.12350937
27	0x3c409b2e	0.011755748
28	0x3eca5c86	0.39523715
29	0x3e89426f	0.26808497
30	0xbe0abcf7	-0.13548647
31	0x3ea9e15e	0.33179754
32	0xbd423924	-0.047417775
33	0x3ec87332	0.39150387
34	0x3ebbcf5e	0.36681646
35	0xbeb6b68e	-0.35686153
36	0x3e6d1621	0.23152973
37	0x3e8f3053	0.27966556
38	0xbe7fb3a2	-0.24970868
39	0xbebbe4ee	-0.36698097
40	0x3eb7554f	0.35807273
41	0xbea0b546	-0.313883
42	0xbdee0be3	-0.11623361
43	0xbe5f59b8	-0.21811569
44	0x3ea793d0	0.3272996
45	0x3e581b70	0.21104217
46	0xbe07ba02	-0.1325455
47	0x3e39e089	0.1815206
48	0x3eaf149f	0.3419542
49	0x3ebc2b5c	0.3675183
50	0xbd33f346	-0.043933176
51	0xbe20721e	-0.15668532
52	0xbd916008	-0.07098395
53	0xbe8b2bb4	-0.2718178
54	0xbe757023	-0.23968558
55	0x3e9a87e6	0.30181807
56	0x3d97ac62	0.07405926
57	0xbd060e69	-0.032728586
58	0x3eb61fa1	0.35571006
59	0xbe912367	-0.28347322
60	0xbc16c4c2	-0.009202184
61	0x3edb2a36	0.42805642
62	0x3ea39858	0.31952167
63	0x3df2ca05	0.118549384
64	0x3d119eb4	0.03555174
65	0xbe7bf4dc	-0.24605125
66	0xbe207173	-0.15668277
67	0x3e9aac4d	0.3020958
68	0x3de40230	0.1113323
69	0x3e9dd7ff	0.30828854
70	0xbe9fd79f	-0.31219193
71	0xbc9b11c2	-0.018929366
72	0x3ebb9959	0.36640432
73	0x3e67cece	0.22637483
74	0xbeb768cd	-0.35822144
75	0x3e0eb0f4	0.1393469
76	0xbdf7356e	-0.12070738
77	0x3e3756f2	0.17904261
78	0xbec1112e	-0.3770842
79	0x3edb9796	0.42889088
80	0xbe1c7cd9	-0.15282
81	0x3e776a10	0.24161553
82	0x3ecd7a88	0.40132546
83	0x3e601106	0.21881494
84	0x3e8cb345	0.27480522
85	0xbd0774ba	-0.033070303
86	0x3e822154	0.25416052
87	0xbe7ab9e5	-0.24484976
88	0x3e862d20	0.26206303
89	0xbe4d6cb7	-0.20061003
90	0x3e986eae	0.29771942
91	0x3e20543d	0.15657134
92	0xbba45fcd	-0.005016303
93	0xbe853d0a	-0.26023132
94	0x3ed746ea	0.4204629
95	0x3dd233ba	0.10263772
96	0x3eca04c3	0.39456758
97	0x3eb11f35	0.34594122
98	0xbe827bae	-0.25484985
99	0x3e428af3	0.18998317
100	0x3e97ceb3	0.29649886
101	0xbe8a1c0e	-0.2697453
102	0xbe92b144	-0.28650868
103	0xbe194a49	-0.14969744
104	0xbe02ac93	-0.12761144
105	0xbe567c84	-0.20945936
106	0x3eb8d330	0.36098623
107	0xbe92351f	-0.28556153
108	0xbeb18f52	-0.34679657
109	0x3e1cf18c	0.15326518
110	0xbe88746e	-0.2665133
111	0x3e950d7c	0.2911185
112	0xbe5539d1	-0.20822836
113	0x3cd6e6c0	0.026233077
114	0xbd87345e	-0.06601785
115	0x3dacbaba	0.08434053
116	0xbe2841e4	-0.16431385
117	0x3e122158	0.14270532
118	0xbeb278f9	-0.3485792
119	0x3eb14a96	0.34627217
120	0xbd208bff	-0.03919601
121	0xbd66c7ca	-0.056342877
122	0x3ed7134b	0.42006907
123	0x3e9b1f93	0.30297527
124	0x3e9efc27	0.31051752
125	0xbc127a2f	-0.008940264
126	0xbe9eb99d	-0.31000987
127	0x3ebc6474	0.3679539
128	0xbe9d6102	-0.30738074
129	0xbeb2ccfc	-0.34922016
130	0x3db11ca9	0.086480446
131	0x3da91f9d	0.08257983
132	0x3eb4f5b2	0.353437
133	0x3e588ff0	0.21148658
134	0xbe513e58	-0.20433939
135	0x3e67f97f	0.22653769
136	0xbe1db05a	-0.15399304
137	0x3e6bf815	0.23043855
138	0xbe2e7621	-0.1703725
139	0xbeba1ea0	-0.3635149
140	0xbebd6ec6	-0.36998576
141	0xbea844ea	-0.32865077
142	0x3eceb3bc	0.403715
143	0x3d135cc1	0.03597713
144	0xbc3119d2	-0.010809379
145	0x3d989f87	0.074523024
146	0xbeac87cb	-0.33697352
147	0xbe9afc37	-0.3027055
148	0x3e8ee8a3	0.27911863
149	0x3e42d20b	0.19025438
150	0xbe902b1f	-0.281579
151	0x3d653907	0.05596259
152	0x3eae6d0a	0.34067565
153	0x3eb722e0	0.35768795
154	0xbcbd9b57	-0.02314536
155	0x3e17f221	0.14838459
156	0x3eb358fe	0.35028833
157	0xbe38abc4	-0.18034273
158	0x3e8fcc17	0.28085396
159	0xbeba0254	-0.363299
160	0xbdeaf74b	-0.11472949
161	0xbe436f27	-0.1908537
162	0xbe435a21	-0.1907735
163	0x3df7d9a4	0.121020585
164	0xbe555575	-0.2083338
165	0x3e9bbabc	0.30415905
166	0xbdee93bc	-0.11649272
167	0xbeaa3fe5	-0.33251873
168	0xbe78ed4c	-0.24309272
169	0xbdff934f	-0.12479269
170	0xbe9dda07	-0.30830404
171	0x3e80dd9e	0.2516908
172	0x3e3695f6	0.17830643
173	0x3ed08b0c	0.40731084
174	0x3ec399f1	0.38203385
175	0xbe83ab9b	-0.25716862
176	0x3dc70743	0.09718182
177	0x3d646e96	0.055769525
178	0x3e580d8a	0.21098915
179	0xbc4c55ae	-0.0124715995
180	0x3da4ddec	0.08050141
181	0x3ec68e83	0.38780603
182	0xbe8aafc6	-0.2708723
183	0xbec089c5	-0.3760511
184	0x3ebe5863	0.3717681
185	0xbeb54bc7	-0.35409376
186	0xbe042004	-0.12902838
187	0xbe965f57	-0.29369614
188	0x3e892dbe	0.2679271
189	0x3ea91b9a	0.3302887
190	0xbe2983de	-0.1655421
191	0xbe303ead	-0.17211409
192	0x3e982219	0.29713514
193	0x3d54c2d4	0.051943615
194	0x3ea63635	0.32463232
195	0x3e5e001e	0.21679732
196	0xbd953308	-0.07285124
197	0x3df13d6b	0.11779293
198	0x3ec21c27	0.37912104
199	0x3eafd040	0.3433857
200	0xbeb7ce28	-0.35899472
201	0xbe36f172	-0.17865542
202	0x3e422786	0.1896039
203	0xbe4b8799	-0.19875945
204	0xbebf0c4c	-0.3731407
205	0xbe5c5d54	-0.21519977
206	0x3ea597e7	0.32342455
207	0xbe4ca4d9	-0.1998476
208	0xbdd2f52e	-0.103006706
209	0x3de469e0	0.111530066
210	0x3e471812	0.19442776
211	0x3eae016d	0.33985463
212	0x3cc41294	0.02393464
213	0xbe7bb015	-0.24578889
214	0xbe72a87c	-0.23697084
215	0xbbdcc7f5	-0.006737704
216	0xbe6b1883	-0.22958569
217	0xbe89b953	-0.26899204
218	0x3d95ab0d	0.07308016
219	0xbde28ec4	-0.11062387
220	0x3df14895	0.11781422
221	0xbe4dacdb	-0.2008547
222	0x3e839827	0.2570202
223	0x3eb8c52d	0.36087933
224	0x3e49b841	0.19699194
225	0x3e929802	0.28631598
226	0xbe2ab102	-0.16669086
227	0x3d26c449	0.040714536
228	0xbb952494	-0.0045514796
229	0x3e11f616	0.1425403
230	0x3e8e936b	0.27846846
231	0x3e970e04	0.2950288
232	0xbec0edf2	-0.37681538
233	0xbd1d3c11	-0.038387362
234	0xbea6c172	-0.32569462
235	0xbe9cc30e	-0.30617565
236	0x3e329658	0.17440164
237	0xbd338a1b	-0.04383288
238	0xbe96a5d3	-0.2942339
239	0x3e912fdd	0.2835683
240	0xbda73611	-0.08164609
241	0x3e3079cc	0.17233962
242	0xbc93c6a4	-0.018039055
243	0x3e1eb7a8	0.15499747
244	0xbe6ef130	-0.23334193
245	0x3e9f85e5	0.3115684
246	0x3e605d33	0.21910553
247	0x3dfa4c67	0.12221604
248	0xbeb9b358	-0.3626964
249	0x3dbb8ccf	0.091577165
250	0x3d27c27a	0.04095695
251	0xbe5035f4	-0.20333081
252	0xbe3961c9	-0.18103708
253	0x3d9417f9	0.07231135
254	0x3def92a6	0.11697893
255	0x3d5c3f1f	0.053771134

linear2.weight f4 [512, 256]
0	0x3cf39de2	0.02973837
1	0xbbbe3ec9	-0.0058058244
2	0x3cfa91eb	0.030587157
3	0xbd65d69b	-0.056112867
4	0xbd556def	-0.052106794
5	0xbd6e77f1	-0.058219854
6	0xbc058b45	-0.00815088
7	0xbcbbb1a0	-0.022911847
8	0x3bdfa0b7	0.0068245786
9	0x3cf72748	0.030170098
10	0x3caccf23	0.021094864
11	0xbd235a0e	-0.039880805
12	0x3d2ec9ac	0.042672798
13	0xbca6f1a6	-0.020378899
14	0x3d684eac	0.056715652
15	0x3ca9820c	0.020691894
16	0xbd0de5ab	-0.034642857
17	0x3cea600b	0.02861025
18	0x39b8579d	0.00035160492
19	0xbbaa5a08	-0.005198721
20	0x3d021630	0.03175944
21	0x3d04d18b	0.0324264
22	0xbd55cb88	-0.052196056
23	0xbc6cb704	-0.014447931
24	0x3c784fa3	0.015155706
25	0x3ca9894f	0.020695357
26	0x3c30e9aa	0.010797897
27	0x3d152fd4	0.036422566
28	0x3d507e99	0.050901983
29	0xbced787d	-0.028988117
30	0x3c6ac2ca	0.014328668
31	0x3c2f43dd	0.010697332
32	0xbd2fb3ba	-0.04289601
33	0xbcd87765	-0.02642412
34	0xbd71e9cf	-0.059060868
35	0xbd10d368	-0.035357863
36	0x3d66cf92	0.0563503
37	0xbd043eaa	-0.032286324
38	0x3b85ce59	0.0040834364
39	0x3c9a63db	0.018846443
40	0x3d0dc8e0	0.034615397
41	0x3c5acdd5	0.013354738
42	0xbd1b06b2	-0.037848182
43	0x3d1f3c25	0.038875718
44	0xbd48205b	-0.04885898
45	0x3ce3e96c	0.027821265
46	0x3ce1db7b	0.027570477
47	0xbd168df8	-0.036756486
48	0xbcd8c58a	-0.026461381
49	0xbc9fc931	-0.019505115
50	0xbc17712f	-0.009243294
51	0xbca2040b	-0.019777318
52	0x3d180605	0.037115116
53	0xbd7782f0	-0.060427606
54	0x3d3726d7	0.044714775
55	0x3d0d50df	0.034500953
56	0xbd504d71	-0.050855104
57	0xbd6c0125	-0.05761828
58	0x3c55d6eb	0.013051729
59	0x3d228dd3	0.039686035
60	0xbd1596ba	-0.036520697
61	0x3aa19d43	0.0012330193
62	0x3d1a6e9f	0.037703153
63	0xbd661878	-0.05617568
64	0x3d2f8cd7	0.042858925
65	0xbd642dc4	-0.055707708
66	0xb79f0de9	-1.8960754e-05
67	0x3d222621	0.039587144
68	0xbd2e764c	-0.042593285
69	0x3befe9ed	0.0073215873
70	0xbc1693df	-0.009190529
71	0xbd0cfa96	-0.034418665
72	0xbd7504c7	-0.05981901
73	0x3d5d48ca	0.054024495
74	0xbd122877	-0.03568312
75	0x3d5509d9	0.052011345
76	0x3d07b3eb	0.033130568
77	0xbbc84086	-0.0061112074
78	0x3c471aaf	0.012152358
79	0x3b897c0b	0.0041956953
80	0xbbacedf9	-0.005277392
81	0x3d0154bd	0.031574953
82	0xbd47ab59	-0.048747394
83	0x3cae75fe	0.021296497
84	0xbca6e581	-0.020373108
85	0xbce8c47f	-0.02841401
86	0xbcfaa7a4	-0.030597515
87	0xbd431101	-0.047623638
88	0x3d091981	0.033471588
89	0x3ca45ffe	0.020065304
90	0x3d08b356	0.033374153
91	0xbc81abfc	-0.015829079
92	0x3cbb2771	0.022845956
93	0xbd128241	-0.03576875
94	0xbc8982bf	-0.016785977
95	0xbd500e48	-0.05079487
96	0x3d377351	0.04478771
97	0x3b6c022a	0.0036012032
98	0x3cd32777	0.025775654
99	0x3cdc8caf	0.026922552
100	0xbd795fc0	-0.06088233
101	0xbd21789e	-0.03942167
102	0x3d393ed3	0.04522593
103	0x3b03e4e7	0.002012545
104	0xbd81ff73	-0.06347551
105	0xbd6c81ba	-0.057740904
106	0xbceb44dd	-0.02871936
107	0x3c1f762e	0.009732766
108	0xbd7a14f5	-0.061055142
109	0xbd86c1c6	-0.06579928
110	0x3d10e842	0.03537775
111	0x3c45327f	0.012035965
112	0x3cba49e3	0.02274031
113	0x3d6485a5	0.055791516
114	0x3d171231	0.036882583
115	0xbd33053d	-0.043706167
116	0xbc621af2	-0.01380037
117	0x3d233175	0.039842088
118	0xbd1e6ad9	-0.038676117
119	0x3c4cb43c	0.012494143
120	0xbb581134	-0.0032969238
121	0x3d5d3d84	0.054013744
122	0x3ae44015	0.0017414117
123	0x3d6b48fb	0.057442646
124	0xbd6ace08	-0.057325393
125	0x3ccbeedb	0.024894169
126	0x3d26f78b	0.04076342
127	0xbd6f60e9	-0.05844203
128	0xbcd7b498	-0.026331231
129	0xbb5a7c00	-0.003333807
130	0xbc4cf3d8	-0.012509309
131	0xbbc6e192	-0.0060693705
132	0x3d019450	0.031635582
133	0x3c9d1027	0.019172741
134	0xbd33ca6a	-0.04389421
135	0xbd1a9784	-0.037742153
136	0xbc066c70	-0.008204564
137	0x3d248193	0.040162634
138	0x3c4f2ef7	0.012645475
139	0x3d78f3ac	0.06077926
140	0x3d205fd6	0.039153896
141	0x3c869a82	0.016431097
142	0x3d3e6c32	0.0464899
143	0xbbaf0d0a	-0.0053421305
144	0x3d2c8230	0.042116344
145	0x3d41497d	0.047189225
146	0xbd4d07c9	-0.050056253
147	0x3d5895b2	0.052877136
148	0xbd614b39	-0.05500338
149	0xbd187355	-0.037219364
150	0xbb2620b1	-0.0025349075
151	0x3cf1d89e	0.029522236
152	0xbd460dd1	-0.04835302
153	0x3c0d0ec6	0.008609479
154	0x3d0fcdaa	0.035108246
155	0xbd2aad11	-0.041668955
156	0x3d00f18d	0.03148036
157	0xbd25c5d5	-0.04047187
158	0xbcd2b880	-0.025722742
159	0xbbfbbb21	-0.0076822196
160	0xbc90785d	-0.017635519
161	0x3d2a4070	0.04156536
162	0x3d508880	0.050911427
163	0x3c2674fa	0.010159725
164	0xbc352ec0	-0.011058509
165	0xbd28a7fa	-0.04117582
166	0x3cf72905	0.030170927
167	0x3d04ddfe	0.03243827
168	0xbd747b12	-0.05968768
169	0xbd672045	-0.05642726
170	0xbd37442e	-0.044742756
171	0xbd849be1	-0.06475044
172	0xbbe02e4c	-0.0068414565
173	0xbc4d37d5	-0.012525518
174	0xbd0863b6	-0.033298217
175	0x3d5884d0	0.052861035
176	0x3b2d706c	0.0026464714
177	0xbc32a264	-0.010902975
178	0x3c5b8133	0.013397503
179	0xbcbf4d64	-0.023352332
180	0x3cc0d603	0.023539549
181	0xbc206b89	-0.009791263
182	0xbd3f8fee	-0.04676812
183	0x3cf99910	0.030468494
184	0xbd2683d3	-0.04065306
185	0xbd66281b	-0.05619059
186	0x3c998256	0.018738907
187	0x3c9da8cc	0.019245528
188	0xbd0e8851	-0.03479797
189	0xbb3742aa	-0.002796332
190	0xbd4a59cf	-0.049402054
191	0xbd2ebf4c	-0.042662904
192	0xbc0d6dbb	-0.008632119
193	0xbbde6164	-0.006786512
194	0xbd805bf8	-0.06267542
195	0x3d5df333	0.05418701
196	0xbb99365e	-0.0046756705
197	0xbd11c762	-0.035590537
198	0xbd484a57	-0.04889902
199	0xbc58710b	-0.013210545
200	0x3d21c933	0.03949852
201	0x3cc63d53	0.024199164
202	0xbd36b096	-0.044602
203	0x3d6c617a	0.05771015
204	0x3d538cb8	0.05164787
205	0xbc8470a2	-0.016166989
206	0x3d6afef6	0.057372056
207	0xbbd88453	-0.006607571
208	0xbd22387d	-0.039604653
209	0x3d4fd81d	0.05074321
210	0xbc15adc7	-0.00913567
211	0x3d13cd3d	0.036084402
212	0x3cd91195	0.026497642
213	0x3cf1f810	0.02953723
214	0xbd05a8e7	-0.03263178
215	0xbd78b4b8	-0.06071922
216	0x3d2ab8c9	0.04168013
217	0xbc565e23	-0.013083967
218	0x3c1a5954	0.009420712
219	0x3d3deff0	0.0463714
220	0xbd40f2ca	-0.04710654
221	0xbcfd7f91	-0.030944617
222	0x3d5dbad0	0.054133236
223	0xbd0dc837	-0.034614768
224	0x3c9a8e8a	0.018866796
225	0x3b2a0f83	0.0025949187
226	0x3d448cd4	0.047985867
227	0xbc73f43d	-0.014889774
228	0xbb73a93f	-0.0037179736
229	0xbcf34427	-0.029695584
230	0x3d2e487a	0.042549588
231	0xbd252082	-0.040314205
232	0xbd52a559	-0.05142722
233	0x3c94e7a2	0.018176857
234	0xbd0a3203	-0.0337391
235	0xbd1f35e5	-0.038869757
236	0xbce03cfa	-0.027372826
237	0xbcb3ee0e	-0.0219641
238	0x3cab31f6	0.020897847
239	0xbd123b5e	-0.03570115
240	0xbd6a55f2	-0.05721087
241	0x3d38437f	0.044986244
242	0x3d2485ab	0.04016654
243	0xbbb941ad	-0.005653581
244	0x3c20566c	0.00978623
245	0x3d539674	0.051657155
246	0x3d364273	0.044496965
247	0xbd6ebb3f	-0.05828404
248	0x3c28e2d8	0.01030799
249	0x3d1860f2	0.03720183
250	0xbd83f476	-0.064431116
251	0xbd7cae9a	-0.06168995
252	0xbd209904	-0.039208427
253	0x3d2f9517	0.042866793
254	0x3c2b5a68	0.010458566
255	0xbd428c73	-0.047497224

linear2.bias f4 [512]
0	0xbc25f8de	-0.010130135
1	0xbc9006df	-0.017581401
2	0x3d7a72ae	0.061144523
3	0x3cd3bd2c	0.02584704
4	0x3c5f1764	0.013616417
5	0x3d05e723	0.032691132
6	0xbd29321d	-0.041307557
7	0x3c0fcd5d	0.00877699
8	0x3d3bba3a	0.045831896
9	0x3cdb13f1	0.026742907
10	0xbc8ef7a1	-0.017452063
11	0x3d20d282	0.039263256
12	0x3d6d8c2a	0.057995
13	0x3a534b65	0.0008060246
14	0x3da6c74f	0.08143484
15	0x3d091785	0.033469696
16	0xbd444d01	-0.047925
17	0x3c827839	0.015926467
18	0x3d0678e0	0.03283012
19	0xbc8b4a3f	-0.017003177
20	0x3baa757d	0.005201994
21	0xbcf2affd	-0.029624933
22	0x3c138f84	0.009006385
23	0xbba3f090	-0.0050030425
24	0x3d570f13	0.05250461
25	0x3d8f97cf	0.07011377
26	0x38e7915c	0.00011042014
27	0x3c8e1c74	0.017347552
28	0xbd588235	-0.05285855
29	0x3ce74451	0.028230818
30	0x3bb7fd5d	0.00561492
31	0x3ba6f5eb	0.0050952337
32	0xbd1293a9	-0.03578535
33	0xbb7b5f93	-0.0038356527
34	0x3dacd85a	0.08439703
35	0x3d31b6b8	0.043387145
36	0x3cb15c67	0.021650506
37	0xbc8c45a4	-0.017123051
38	0xbcc51fae	-0.024062958
39	0xbccc070c	-0.024905704
40	0x3b5b76e3	0.003348761
41	0xbca42af1	-0.020040007
42	0x3caf2427	0.021379543
43	0xbb9e20c2	-0.0048256824
44	0xbd0f97c9	-0.035056863
45	0x3dbf766e	0.093487605
46	0x3d40b8c3	0.047051203
47	0x3bf29953	0.0074035316
48	0x3d920413	0.07129683
49	0x3d907573	0.07053652
50	0xbb6f861e	-0.0036548446
51	0x3d96b3cd	0.07358513
52	0xbd7e757b	-0.062123757
53	0xbc5ff4b8	-0.013669185
54	0x3ca3e182	0.020004991
55	0x3ddde194	0.10834041
56	0x3daebd46	0.08532195
57	0xbbe6ef85	-0.007047596
58	0x3d3b8dea	0.045789637
59	0x3d9d38f2	0.07676877
60	0x3c9cbf2e	0.01913413
61	0xbccc54b9	-0.024942743
62	0x3cd7d6da	0.026347566
63	0x3d0d4029	0.034485016
64	0xbd3a5a89	-0.045496497
65	0xbd154786	-0.036445163
66	0x3d8d72ee	0.06906687
67	0x3d0ef810	0.03490454
68	0x3d2daaf5	0.042399365
69	0x3d6342e3	0.05548371
70	0x3d0ed044	0.034866586
71	0xbca09834	-0.019603826
72	0x3d995cff	0.07488441
73	0xbb3ef0b5	-0.0029135172
74	0xbbd6c7f9	-0.0065546003
75	0x3d542507	0.051793125
76	0x3c979000	0.018501282
77	0xbcb7beaa	-0.022429783
78	0xbc0ddb36	-0.008658221
79	0x3ce5355a	0.027979542
80	0x3d099843	0.033592474
81	0xbd09e9e6	-0.03367033
82	0xbc1e5c16	-0.00966551
83	0x3b0c3a64	0.0021397108
84	0x3d2c0c1e	0.042003743
85	0x3d61b409	0.055103336
86	0xbd344a0d	-0.044015933
87	0x3d5669c8	0.052346975
88	0xbd08bc12	-0.033382483
89	0x3d0905c7	0.033452775
90	0x3cc51eb1	0.024062486
91	0x3d7b2389	0.061313186
92	0x3d9e6485	0.07734016
93	0x3d4041a4	0.0469376
94	0xba293017	-0.00064540043
95	0x3d38cdd7	0.04511818
96	0xbc675d11	-0.01412131
97	0x3d3a238b	0.045444053
98	0xbc9472b7	-0.018121107
99	0xbd6956b9	-0.05696747
100	0xbc77a388	-0.0151146725
101	0x3cd6d038	0.026222333
102	0x3cf6ca92	0.03012589
103	0xbc9a76d4	-0.01885549
104	0xbc8f2979	-0.01747583
105	0xbc938b92	-0.018010888
106	0x3d4edf04	0.050505653
107	0x3cfa91af	0.030587045
108	0xbc85c9d3	-0.016331589
109	0xbbf9d53d	-0.007624297
110	0x3d890f9b	0.0669243
111	0x3d37d82b	0.04488389
112	0x3d68536f	0.056720193
113	0xbc8eb3a2	-0.01741964
114	0xbd4984f7	-0.04919907
115	0xbd757850	-0.059929192
116	0x3bc4c768	0.0060052164
117	0xbcc74f2c	-0.024329744
118	0xbd0a69bd	-0.033792246
119	0xbd5833f3	-0.052783918
120	0x3cd5e40f	0.026109723
121	0xbbc53c7d	-0.0060191737
122	0x3ce7adbc	0.028281085
123	0x3da32695	0.07966343
124	0x3ce028ea	0.02736326
125	0xbc131bad	-0.008978766
126	0xbd7fc916	-0.06244763
127	0x3dc32481	0.09528447
128	0x3ce3bc48	0.02779974
129	0x3b0d008a	0.0021515214
130	0x3d942a3e	0.072346196
131	0x3ca361aa	0.01994403
132	0xbc51bd5e	-0.012801496
133	0x3db18885	0.08668617
134	0xbc360040	-0.011108458
135	0x3d6fee73	0.058577012
136	0x3d48b74c	0.04900293
137	0xbd4e0d5f	-0.05030572
138	0xbcc4dcfa	-0.024031151
139	0x3c9c41c2	0.019074325
140	0x3cbb81a8	0.022888973
141	0x3c230e10	0.009952083
142	0x3c666530	0.014062211
143	0xbd65aac8	-0.056071073
144	0x3d443522	0.047902234
145	0x3da71411	0.08158124
146	0xbd0267a2	-0.031837113
147	0xbd1d8690	-0.038458407
148	0xbd249691	-0.040182654
149	0x3ce74ee0	0.028235853
150	0xbd24e4b6	-0.04025718
151	0xbcc05fc7	-0.02348317
152	0x3d589ddc	0.05288492
153	0x3c940432	0.018068407
154	0x3c0a461f	0.00843957
155	0xbcc35384	-0.023843534
156	0x3dc233ea	0.09482558
157	0x3bb419a2	0.0054962197
158	0x3d876fd1	0.06613124
159	0x3c5ed09c	0.013599541
160	0xbcbad967	-0.022808744
161	0x3d313b1b	0.043269258
162	0xbd14bcee	-0.03631299
163	0x3c9903c8	0.01867856
164	0x3d8d6010	0.06903088
165	0xbcd8c1c4	-0.026459582
166	0x3d7b92ba	0.061419226
167	0x3c6f1366	0.014592027
168	0x3cc05236	0.023476701
169	0x3daff059	0.085907646
170	0x3d6cfffe	0.05786132
171	0xbd046ef6	-0.032332383
172	0x3d9ea237	0.07745784
173	0x3ccb8133	0.02484188
174	0x3d2d0899	0.042244527
175	0x3cea7bda	0.02862351
176	0xbc423c9e	-0.011855273
177	0xbd4cb040	-0.049972773
178	0xbd206cdf	-0.039166328
179	0x3c2ecb09	0.010668525
180	0xbb453808	-0.0030093212
181	0x3ab51191	0.0013814439
182	0xbd846ec5	-0.0646644
183	0xbd7026b1	-0.05863065
184	0xbd1bebc5	-0.038066644
185	0x3c472335	0.01215439
186	0xbca4d6ae	-0.020121899
187	0xbc913d4c	-0.017729424
188	0x3d5057a1	0.05086482
189	0xbad7cd3a	-0.001646436
190	0xbcabb054	-0.020958103
191	0x3cf8cecd	0.030372048
192	0xbd46fd5f	-0.048581477
193	0x3d50f69e	0.051016442
194	0xbce741e8	-0.028229669
195	0x3ca329b8	0.019917354
196	0xbd25568f	-0.04036575
197	0x3d1f97a6	0.038962983
198	0xbc95e658	-0.018298313
199	0x3cfc1690	0.030772477
200	0x3d82b303	0.063818
201	0x3d642ef8	0.055708855
202	0xbd45969b	-0.04823933
203	0x3d5d0432	0.05395908
204	0x3d3cc57e	0.04608678
205	0xbb262bf3	-0.0025355786
206	0xbd5d088a	-0.05396322
207	0x3d040c6d	0.032238413
208	0x3d904ef5	0.0704631
209	0x3db23f5f	0.08703493
210	0x3ba582a0	0.005050972
211	0xbd5c2428	-0.05374542
212	0x3d57faae	0.0527293
213	0x3d8b82fb	0.06812092
214	0x3d6f460c	0.05841641
215	0x3cd133aa	0.02553733
216	0x3d13494a	0.035958566
217	0xbc2d170d	-0.010564578
218	0xbd7f0f53	-0.062270474
219	0xbbc6c107	-0.006065491
220	0x3d8e7bbb	0.069571935
221	0x3cf4848a	0.029848356
222	0x3d1cd4b6	0.038288794
223	0xbcb99264	-0.022652812
224	0xbc3af2b5	-0.011410405
225	0xbcd27357	-0.025689764
226	0x3d469ffd	0.04849242
227	0x3ce2fcfc	0.027708523
228	0x3d83effd	0.064422585
229	0x3ce38ba4	0.027776547
230	0xbcd3da7e	-0.025861021
231	0xbb47cbeb	-0.0030486535
232	0x3d6c29e5	0.05765714
233	0x3caefa09	0.02135946
234	0x3d77a817	0.060463037
235	0x3d673579	0.05644748
236	0xbc92d89e	-0.017925557
237	0x3be50cc4	0.006990047
238	0x3da5560f	0.08073055
239	0x3d1625a8	0.036657006
240	0x3da0570e	0.07829104
241	0xbcb07513	-0.0215402
242	0xbce2cc30	-0.027685255
243	0xbd37a12e	-0.044831447
244	0x3d820962	0.06349446
245	0xbd507464	-0.05089225
246	0xbd5af766	-0.053458594
247	0xbc3b6c2b	-0.0114393635
248	0xbd6372fc	-0.05552958
249	0x3d9c4aa2	0.076314226
250	0xbcf97670	-0.030451983
251	0x3c8f4965	0.017491052
252	0xbbd1a006	-0.00639725
253	0xbd2cf427	-0.04222503
254	0x3c0c410e	0.008560432
255	0xb8695e0e	-5.5639124e-05

linear3.weight f4 [10, 512]
0	0x3c7c9549	0.015416452
1	0x3da4644d	0.08026943
2	0x3d6648a7	0.05622163
3	0xbc1fb5e2	-0.009747954
4	0x3d268bbe	0.040660612
5	0x3d37108c	0.044693515
6	0xbd037c56	-0.032100998
7	0x3dcb39cc	0.09923133
8	0x3c1df6eb	0.009641389
9	0x3db39465	0.087685384
10	0x3bef9f3c	0.0073126834
11	0xbc304b77	-0.01076018
12	0xbc49c7ae	-0.012315674
13	0x3b544584	0.0032390067
14	0x3d969ed1	0.073545106
15	0x3d0840a6	0.03326478
16	0xbd0bef4f	-0.03416377
17	0x3cc3d452	0.023904953
18	0x3d9533b3	0.072852515
19	0xbcda5242	-0.026650552
20	0xbd1b091f	-0.037850495
21	0x3cbcb1da	0.023034025
22	0x3d91b9e3	0.07115533
23	0x3d8fe7ca	0.07026632
24	0x3d079d8e	0.03310924
25	0x3d7566a8	0.059912354
26	0x3d1d5216	0.03840836
27	0x3d73f6bc	0.059561476
28	0xbca781af	-0.02044758
29	0x3dba43ee	0.09094988
30	0xbb93240e	-0.004490382
31	0xbc510212	-0.012756841
32	0x3cd73f17	0.0262752
33	0x3dad9b9f	0.08476948
34	0x3d88ddf4	0.06682959
35	0x3db7847d	0.08960817
36	0x3c9864c4	0.018602736
37	0x3caca579	0.021074997
38	0x3d86c6e4	0.06580904
39	0x3d13eef9	0.036116574
40	0x3db3bd40	0.08776331
41	0xbcdde484	-0.027086504
42	0x3d18f684	0.03734447
43	0x3bffd710	0.00780762
44	0x3d76b666	0.060232542
45	0x3db27cdd	0.08715222
46	0xbcaa8579	-0.020815598
47	0x3db4d105	0.0882893
48	0x3d1e08d0	0.038582623
49	0x3dbda0d2	0.0925919
50	0x3bca3b2a	0.0061716037
51	0x3dc060d4	0.093934685
52	0xbca6544b	-0.020303866
53	0x3c3083fe	0.010773657
54	0x3d563da4	0.05230488
55	0x3dba4749	0.09095628
56	0x3d24cc58	0.04023394
57	0x3c3ea672	0.011636363
58	0x3ba2b8b4	0.004965866
59	0x3d612574	0.05496736
60	0xbc94c27d	-0.018159145
61	0xbcc8a244	-0.024491437
62	0x3d32030b	0.043459933
63	0xbc9ad840	-0.018901944
64	0x3d129e22	0.03579534
65	0xbd0d4a64	-0.034494773
66	0x3d616da4	0.055036202
67	0xbc82e900	-0.015980244
68	0x3d4370eb	0.04771511
69	0x3c9ecd4e	0.019385006
70	0x3cdf17cc	0.027233027
71	0xbc9252ca	-0.017861743
72	0x3da6314f	0.081148736
73	0x3af5938d	0.001873599
74	0x3d8c8466	0.068611905
75	0x3db54bd7	0.08852356
76	0xb993d8fe	-0.00028199697
77	0x3d04d83a	0.032432772
78	0xbd03731b	-0.032092195
79	0x3c9d7864	0.019222446
80	0x3d17f6e5	0.03710069
81	0xbc8496f5	-0.016185263
82	0x3da3b0bc	0.07992694
83	0xbc229dd2	-0.009925323
84	0xbd2084e5	-0.039189238
85	0x3c94a8aa	0.018146832
86	0x3d14ab16	0.036295973
87	0xbc6b9976	-0.01437985
88	0xbbb5301a	-0.005529416
89	0xbc073591	-0.008252517
90	0xbbc608c0	-0.0060435236
91	0x3d9b7beb	0.07591995
92	0x3d26bf99	0.040710066
93	0x3d5571b9	0.052110408
94	0xbcfe1612	-0.031016383
95	0x3daa85a0	0.08326268
96	0x3daff307	0.08591276
97	0x3d10b497	0.035328474
98	0x3b18e214	0.0023328112
99	0xbd03d2de	-0.03218352
100	0xbcadf941	-0.021237018
101	0xbd0c1633	-0.03420086
102	0x3db6c9f6	0.0892524
103	0xbc9d2cda	-0.019186426
104	0xbcaf5d2f	-0.021406738
105	0xbc9a3a18	-0.01882653
106	0x3dc8e055	0.09808413
107	0x3dab2f48	0.083586276
108	0xbd1ccf82	-0.038283832
109	0x3d9886ac	0.074475616
110	0x3cd815c1	0.02637756
111	0xbc4cd8d5	-0.012502869
112	0x3d95fa24	0.07323101
113	0xbd11ae1e	-0.03556644
114	0x3ce619da	0.028088499
115	0x3bf140ed	0.007362476
116	0x3d9b52e0	0.075841665
117	0xbce02485	-0.027361164
118	0x3d33e2a0	0.0439173
119	0x3c2dc47b	0.010605927
120	0x3d7cf146	0.061753534
121	0xbcfc71a8	-0.030815914
122	0x3da8913b	0.082308255
123	0x3da06370	0.07831466
124	0x3da2a0bc	0.07940814
125	0x3d318116	0.043335997
126	0xbd007999	-0.031365965
127	0x3da436cd	0.08018265
128	0xbd0217b1	-0.031760875
129	0x3d420877	0.047371354
130	0x3d6a497b	0.057198983
131	0x3d06b416	0.032886587
132	0x3d8cc2f4	0.06873122
133	0x3d7600ab	0.06005923
134	0xbce85741	-0.028361918
135	0x3d456f4e	0.04820185
136	0x3c6be276	0.014397254
137	0xbc0aee8c	-0.008479726
138	0x3da5a6a6	0.08088426
139	0x3da35373	0.07974901
140	0x3d80bb5b	0.06285735
141	0xbc70927d	-0.014683363
142	0xbc1a2f9c	-0.009410765
143	0xbbd3565f	-0.006449505
144	0xbbddc423	-0.006767766
145	0x3d9a9aeb	0.075490795
146	0xbc13185b	-0.008977975
147	0x3bd95360	0.0066322535
148	0xbd163874	-0.03667493
149	0x3cc306c4	0.023806937
150	0xbbd17768	-0.006392408
151	0x3d0152b3	0.03157301
152	0xbcc3d932	-0.023907278
153	0x3d498bc0	0.04920554
154	0x3dc1a9bb	0.09456202
155	0xbc3e88de	-0.011629311
156	0x3d976141	0.073915966
157	0x3dacedfd	0.0844383
158	0x3d5a1239	0.053240035
159	0xbc79532e	-0.0152175855
160	0x3d82f6e9	0.063947506
161	0x3d3651b0	0.044511497
162	0xbd06a90c	-0.03287606
163	0xbac601d1	-0.0015106743
164	0x3d82be85	0.06383995
165	0x3d1c7b50	0.038203537
166	0x3cd2b9ae	0.025723305
167	0xbcf3d4ee	-0.029764619
168	0x3d67423f	0.05645966
169	0x3d998c99	0.0749752
170	0x3d5d6392	0.054050036
171	0x3cf9bb85	0.030484924
172	0x3d985887	0.0743876
173	0x3ba8dcbc	0.0051532667
174	0x3db00cad	0.08596168
175	0x3d9dd7d5	0.07707182
176	0x3c4fc72c	0.012681764
177	0x3d0e312b	0.03471486
178	0x3d020d05	0.031750698
179	0xbd0d7220	-0.034532666
180	0xbcb9d34f	-0.022683768
181	0xbb1f696d	-0.0024324313
182	0x3c4cf4c4	0.012509529
183	0x3ca456d6	0.020060938
184	0xbc9235e8	-0.01784797
185	0x3cb689ab	0.022282442
186	0x3cac307a	0.02101921
187	0xbce4005c	-0.027832203
188	0xbcb690d4	-0.022285856
189	0xbcf01357	-0.029306097
190	0xbc3cbb24	-0.011519227
191	0x3d6fb6bc	0.05852388
192	0x3ca95650	0.02067104
193	0x3dc0e61c	0.0941889
194	0x3d91e48e	0.071236715
195	0x3cbeac9a	0.023275662
196	0xbc800d41	-0.01563132
197	0x3cdde689	0.027087467
198	0x3d25ee47	0.040510442
199	0x3d39da41	0.04537416
200	0x3d50cf25	0.0509788
201	0x3cd1768c	0.025569223
202	0x3d0d4107	0.034485843
203	0xbc8fb6b0	-0.017543167
204	0x3cf81e73	0.030287957
205	0x3da6f7af	0.08152711
206	0xbacaa81a	-0.0015461475
207	0x3c81437a	0.015779246
208	0x3da72d5f	0.08162951
209	0x3cfc5486	0.030802023
210	0xbc091a7c	-0.008368131
211	0xbcc149c0	-0.023594737
212	0x3d4032d0	0.04692346
213	0x3d885531	0.06656874
214	0x3d0b504b	0.03401212
215	0xbaab5c83	-0.0013073835
216	0xbc2ae8fc	-0.010431524
217	0xbc17aacc	-0.00925703
218	0xbc1af85a	-0.009458626
219	0x3c92a794	0.017902173
220	0x3d433272	0.04765553
221	0x3d433c36	0.047664843
222	0x3dab6741	0.083693035
223	0x3da7c7fb	0.0819244
224	0xbc8edc26	-0.01743896
225	0x3c9f0c2e	0.019414987
226	0x3d093630	0.033498943
227	0x3c3e329a	0.011608744
228	0x3cac99d3	0.021069443
229	0x3da01eb0	0.07818353
230	0xbc81c198	-0.015839383
231	0xbca2f68a	-0.01989295
232	0x3db826b4	0.08991757
233	0x3db20efd	0.08694265
234	0xbb0f6743	-0.0021881617
235	0xbc3fbe05	-0.011703019
236	0x3d7281c8	0.0592058
237	0xbcdf96e1	-0.027293624
238	0x3d271f7e	0.040801518
239	0x3d94f8cb	0.07274016
240	0x3d8130a2	0.06308104
241	0xbbc4c850	-0.0060053244
242	0xbd03da83	-0.03219081
243	0xbb905a22	-0.004405276
244	0x3ceea17c	0.029129736
245	0xbc8eab51	-0.017415674
246	0x3cf16d8b	0.02947118
247	0xbcdb3d6c	-0.026762687
248	0x3c41d937	0.011831573
249	0x3d8e74ba	0.069558576
250	0xbd148d46	-0.03626754
251	0x3dbfdc8f	0.0936824
252	0x3d8f9382	0.07010557
253	0x3d337849	0.043815885
254	0x3ceb1f50	0.028701454
255	0x3d7970de	0.060898654

linear3.bias f4 [10]
0	0x3d781db4	0.060575202
1	0x3c777bbb	0.015105183
2	0x3d576462	0.052585967
3	0xbcfa9351	-0.030587824
4	0xbd3813bf	-0.044940706
5	0x3c21191b	0.009832646
6	0x3cb37a21	0.021908822
7	0xbd4c61ca	-0.049897946
8	0xbd02d861	-0.031944636
9	0xbcf0f6cd	-0.029414559
