src/pepper_training/training_results/2022-11-16-baseline200/model/actor-baseline200.pkl (torch, 561047 bytes, 6 tensors)

linear1.weight f4 [256, 11]
00000000: 0fbf 143e a80f 22be f8d1 383e 1d1a 12be
00000010: 975e 10be 099a 3cbe cb48 82be 1201 89bd
00000020: b56a fe3d 824e e63c b7de 49be e3b2 353e
00000030: 8c9c 9bbd 815e 89be 789b 703e 895b 11bd
00000040: fec7 5ebd 5f02 273e f67b 823e e8fd f73d
00000050: 006a 99bd c76e 263e 7058 91be abf8 2dbd
00000060: c4c7 8e3d 2e6f 7a3e 5d77 7dbe 0d40 3b3d
00000070: 3afc 15be 28b8 b4bc 507c fd3d f909 82bd
00000080: ab46 4d3e 4185 73be 6a81 4c3d 5cd4 153e
00000090: 3cd2 9bbe bf2e 483e a82d 413e 96e4 24bc
000000a0: a43b 2e3d 12ca 7cbe da17 71be 2fa4 853e
000000b0: 0332 e3bd 2828 18bd cbb5 7abe 1e8e 7c3d
000000c0: 2b6f 963e 4d85 4cbe b0a5 863c 28bf ce3d
000000d0: f569 60be 3d45 e93d 75a1 8a3e 06a5 09bd
000000e0: 6071 ee3c d4ac 7ebd 4651 5cbe bdda 33bd
000000f0: 6e03 083d 7115 ab3d 3c6a 22be ec47 aa3d
00000100: 169d c13d 8964 0dbe 8b8a 90bd 8afe 5a3e
00000110: 9fdb 7e3e c9e9 27be 9df7 803e 3e22 5d3e
00000120: 3ec2 473e 0f3d debd 39ad 2cbe 5726 113e
00000130: 5667 963e 7c9d adbd 1830 823d 6dbb 2d3a
00000140: 5b3f 80bb f74a 823e 5187 473d dd83 563e
00000150: b19c 53bd 18c5 e7bd c02a 633e fc55 793e
00000160: 36a9 90bd 5dc2 973e 3b37 de3b f753 8ebe
00000170: b1a9 1d3d 3b22 0b3e f913 85be 49a4 bbbd
00000180: c450 723e 4070 88be 457f 60be 9c4f 7d3e
00000190: f572 813b f95a 803e f6d1 80be 2e3d 0ebe
000001a0: 1ffd 693d 506d 19be d5e4 2a3d fa93 76be
000001b0: 52a0 97bd 881f 4d3e 7a91 2abe bbd9 88bd
000001c0: 3023 35be ac85 91bd 975f 98be cd25 003e
000001d0: 540e 47be 046d 9abe 11e9 2bbe 1b3e 6ebe
000001e0: ff4d 42be a7b3 fabd 797e 7cbe ee45 283e
000001f0: 08a8 0cbe 2daa 60be b596 2e3c be9a 09bb
00000200: a381 ecbd b815 0dbe d485 573e 00fa 823e
00000210: 0f68 37be 7980 8fbe fb3d 3cbe e350 20be
00000220: b2e8 a9bc fae0 893d 4f4e 6c3e 0103 42be
00000230: 1b80 913e a175 323e 7ea1 613e bad0 68bd
00000240: 8d8b d8bd 4d35 563d 85c9 953d 5ff7 883e
00000250: 2dcb 65bd 8ded 42be 1457 443d 3bdf 01be
00000260: 0bb3 78be 64bc cd3b e11c 363e 8a90 8abe
00000270: 547e 943e 3f32 f1bd fa71 3d3e aff3 3fbd
00000280: 3b22 3abc e84b 83ba 7d0e 88be 7006 8a3d
00000290: d488 5a3e 9258 7fbe d1c7 53be 4d7c e6bd
000002a0: 9e22 6f3e 0d67 893e b013 993e c63a f8bd
000002b0: e690 713e f5f7 18be 0eb2 e13d fa79 a73d
000002c0: 81c2 913e 325a 9f3d a92c 823e a989 083e
000002d0: ab15 27bd 3e27 8ebc 7504 75be 3857 983e
000002e0: 737c 55be 646e 073e d34c f13d 7422 02bc
000002f0: b8c9 633e d1d0 123e 7c5a 09bd 5896 8d3e
00000300: d449 67bd 6596 9c3d f7c4 773e 0664 4c3e
00000310: e05c 51be ab47 79be e1cf 19bd c37c 6ebe
00000320: 330c 28bd a76f 49be e0fd 06bc 8f45 173e
00000330: 0603 9d3d 9ecc 41be 5aa2 3abe ed05 11be
00000340: 773c 2c3e 5324 8abe 1b16 90be def7 77bd
00000350: db6f 7f3e 16fe 87bd e24f a1bc 8eb7 863e
00000360: 3310 813e a097 31be d064 73be f82c a5bd
00000370: 8b9d 9e3d 4b16 5bbe 47f1 993c e57c e7bc
00000380: dbf5 b33d 90f3 75be 8314 143e 899e f5bd
00000390: 41d6 803e 8574 163e 52ed 093e c957 3a3d
000003a0: c79b d9bd a6af 413e f228 4ebe 1b00 a23d
000003b0: bf41 983d 4fb3 533d 5eaf d53d 5f13 123e
000003c0: b605 b4bd 65b2 2b3e 74ad 83be fc99 81bd
000003d0: 7ac1 1f3e 463f 493d afb4 7dbe 8269 733e
000003e0: 68d2 803d bc67 96be 682b 9a3e f69e 8bbe
000003f0: f53d 59be 0e83 4d3e 698e 66bc 0d03 77be
0.14526008 -0.15826285 0.18048847 -0.14267774 -0.14098583 -0.18418135 -0.25446162 -0.06689657
0.124226965 0.028113607 -0.19713865 0.17744021 -0.07598218 -0.26829913 0.23496807 -0.035487685
-0.054389946 0.16309498 0.254852 0.12108976 -0.07490921 0.16253196 -0.28387785 -0.042473476
0.06971696 0.24456474 -0.24752565 0.04571538 -0.14646998 -0.022060469 0.12377226 -0.063495584
0.20046489 -0.23781301 0.049928106 0.1463179 -0.30433834 0.19549082 0.18865073 -0.010064265
0.042537346 -0.24686459 -0.23544255 0.26101825 -0.11093523 -0.03714767 -0.24483411 0.06165897
0.2938169 -0.19972725 0.016436428 0.10095054 -0.2191542 0.11390159 0.27076307 -0.033604644
0.029106796 -0.06217654 -0.21515378 -0.043909777 0.033206396 0.08353699 -0.15860838 0.08314499
0.0945379 -0.13807882 -0.07057675 0.21386161 0.24888466 -0.16397776 0.25188914 0.21595094
0.19507691 -0.1085149 -0.16862954 0.14174782 0.29375714 -0.084773034 0.063568294 0.0006627355
-0.0039138026 0.2544782 0.048713032 0.2094874 -0.051663104 -0.113168895 0.22184277 0.24349207
-0.070635244 0.29640475 0.0067814863 -0.27798435 0.03849191 0.13587277 -0.259918 -0.09162194
0.23663622 -0.2664814 -0.2192355 0.247374 0.0039504715 0.25069407 -0.25160187 -0.13890526
0.05712616 -0.14983106 0.041722137 -0.24079886 -0.074036255 0.2003156 -0.16657057 -0.06682154
-0.17689204 -0.07105574 -0.2976043 0.1251442 -0.1943906 -0.30161297 -0.16788127 -0.23265879
-0.18975066 -0.12241297 -0.2465762 0.16432926 -0.13735974 -0.21939917 0.010656049 -0.0020996775
-0.11548164 -0.13777816 0.21047145 0.2558136 -0.17910789 -0.28027704 -0.18383019 -0.15655856
-0.02074084 0.06732364 0.23076747 -0.18946458 0.2841805 0.17427684 0.2203426 -0.056839682
-0.10573492 0.052296925 0.073138274 0.2675123 -0.056101967 -0.19035931 0.047934607 -0.12682812
-0.2428705 0.0062785614 0.17784454 -0.270634 0.2900263 -0.11777162 0.1850051 -0.046863254
-0.0113607 -0.0010017129 -0.26573554 0.06739509 0.21341258 -0.2493613 -0.20681693 -0.11254177
0.23353049 0.26836434 0.29897833 -0.12120585 0.2359043 -0.14938338 0.11020289 0.08177562
0.28468707 0.07780875 0.25424698 0.13333763 -0.04079215 -0.017352697 -0.23927481 0.29754043
-0.20848255 0.13225704 0.11782231 -0.007942785 0.22244918 0.1433747 -0.03353356 0.27653766
-0.056466892 0.07645873 0.2419623 0.19960031 -0.20445585 -0.24343745 -0.037551764 -0.2328978
-0.04102726 -0.19671498 -0.008239239 0.14772628 0.07666592 -0.18925712 -0.18225995 -0.14162417
0.1681994 -0.26980838 -0.28141865 -0.06053912 0.24945013 -0.0664026 -0.019691411 0.26311916
0.25207672 -0.17342997 -0.23768926 -0.08065218 0.07744893 -0.21395223 0.018791808 -0.028257797
0.087871276 -0.24018693 0.1446095 -0.11993129 0.25163463 0.14692886 0.13469437 0.045493875
-0.10625415 0.18914661 -0.20132807 0.07910176 0.07434415 0.051684674 0.10433839 0.14265202
-0.08790152 0.16767271 -0.25718272 -0.06328198 0.15601149 0.049132608 -0.24775957 0.23770717
0.06290132 -0.29376018 0.3011124 -0.27269715 -0.21215041 0.20069525 -0.014072039 -0.24122258

linear1.bias f4 [256]
00000000: 3ee3 5c3e 9a39 d9bd 9fb6 7b3d 971b 92bd
00000010: 4173 52be 3bb8 c53d 7040 9cbe faa1 4dbe
00000020: abd4 57be 24bd 81be 2efb cbbd 4d5e 083e
00000030: e39b 3e3e 3c5d d13d b8fd cbbc e45f 5e3e
00000040: 1c4e 853e 0395 85be 8019 99bc c44c 9fbd
00000050: dd77 bcbd c75e 82be abad 3dbe 534b 5cbe
00000060: 0afb 5b3e 4bd3 fd3c ebd6 c83d 9865 74be
00000070: aafe 503e 60f6 86be 1d60 e83d 08f5 733e
00000080: 4515 95be 0766 1d3d a337 d53c d374 163e
00000090: 5316 873c 8643 b9bd 2c08 bebd 4d85 143e
000000a0: f76f 0c3e 2a83 81be c34d 2fbe c994 263e
000000b0: 7ad5 fc3b e952 883d 44e5 eb3c 1e47 383e
000000c0: 3b3b 253e a241 49bd f2fa 323d 1ccd c43c
000000d0: 4ed9 743d a431 f53b 2363 a2bd f122 2dbc
000000e0: 6569 863e cb53 6ebd 004d c3bd 941c 59be
000000f0: bf36 653d ea70 973d e3a5 eb3d d8f4 113e
00000100: a524 8c3e a642 4a3d 93a9 803e 891b 153d
00000110: eaa7 203e b166 bd3c 543a 693d 8ea2 5fbe
00000120: ad5e 263e 1af8 e1bc ecac 803e f892 84be
00000130: 305c c43d f2c2 19be 3c90 2a3d c6d2 09bc
00000140: a23e 9b3e 6d9a e13c 1cf0 943d 2d73 7d3e
00000150: 8e68 8a3e db0a dcbd 7579 253c 2eb6 39bc
00000160: 1102 2fbe 71c5 833d a169 54bd c5f1 d83d
00000170: ae89 70be 446f 263e 8e6f 823e 4e04 7d3e
00000180: f275 75be a253 013e c839 83be e08d 863e
00000190: 4564 30bc 763c 4cbe accf 763e 5d55 81be
000001a0: 168f 433a 3070 4f3c 2a01 82be 1bae 3b3d
000001b0: a5df 603a 04b8 1bbe e18d 483e 52bf 973e
000001c0: 73bd 243e ee2b 373e 9920 9c3e c38b 3cbe
000001d0: 7299 3e3d 5aac 34be 83b8 093e b993 1fbe
000001e0: 6cd4 1e3e 7a2e 813e 5d3a ccbd 4fb9 f13d
000001f0: 4f73 5b3e e19d 3ebe 3090 923e a7b4 6bbe
00000200: 6c65 40be 0363 9a3e 28c7 58bd c165 243e
00000210: 5915 80be 5b7d e3bd e300 3ebe 1094 a73c
00000220: 3d33 553e b4a9 863e dc88 4f3c b92f 1cbe
00000230: 65fb d3bd 71f7 843e cb56 12be 6794 0a3e
00000240: 6f74 7cbe ae90 1fbd 66da 17bd 3954 88be
00000250: e59d e03d 178d 6cbd e2d0 89be 802c 5f3e
00000260: 1876 fa3d 08d0 2fbe 556a 643e 33d6 383e
00000270: 13e9 01be de92 583e 2540 323e aa01 5e3e
00000280: 9949 433b 0800 88bd 0f35 53be 9b03 1f3d
00000290: c0cf 4bbe b7de 28be ace8 65be b704 28bd
000002a0: 20f7 7d3e 6fc8 2a3e ddcf 8ebe 7bef a63d
000002b0: 74f5 523d 59f8 633d 63a9 3e3e 6362 8fbe
000002c0: fb4e 6ebe 92c9 433d 611e 593e 2ba0 8f3d
000002d0: 1acf 523e 1e8a 6b3d b823 39be 6223 5bbe
000002e0: 26f7 0f3e 5a8d e1bd 979d 813e 1240 a2bd
000002f0: 5e19 82bb 292b d2bd 58da 893d b193 99bc
00000300: 7790 aabd 8ab8 9f3d b4be 98bc 7f47 06be
00000310: dc32 5f3e 036d 49be 9a68 8fbe f20a 143b
00000320: 5d12 273e 70d8 8c3e dc0e 6a3e ce7f 3a3e
00000330: df77 00be ff42 d2bd 917e 89bd f4e9 06be
00000340: 75a1 a63d c082 babc 2ced 11be 2339 84be
00000350: 9bb5 413e 7793 1d3e f939 83be 20b3 2fbc
00000360: 6bf6 d0bd 9c61 173e d2df 94be 78b0 e13d
00000370: 12fd 46be d7e7 533e 012e d43d bf93 ec3d
00000380: 145d 893b 86f2 7d3e 9678 6d3d 94ff b63c
00000390: f4cf 94be c220 6bbe 580b 973e ff91 893d
000003a0: 4110 d7bd 4d76 d13d 3fb3 683d 4b67 75be
000003b0: 6f28 4ebe 9576 f23c 4946 e8ba 8b98 f5bd
000003c0: 2f4e 6c3e dad3 893e 2ff5 183e c1df fcbd
000003d0: d210 fbbd ddab 28be 2581 363e aa87 18be
000003e0: 4420 65be 6b7c 37be 23df 1c3e c8d2 ebbd
000003f0: 6cac 63be 40bb 8e3e 3369 28be 7d4d eebd
0.21571061 -0.1060669 0.061453458 -0.071341686 -0.20551778 0.0965428 -0.30517912 -0.2008132
-0.2107722 -0.25339615 -0.09960018 0.13317223 0.18614154 0.10222861 -0.024901256 0.21716267
0.26036155 -0.2609025 -0.018688917 -0.07778314 -0.092025496 -0.25462934 -0.1852328 -0.21513109
0.21482483 0.030984541 0.09806617 -0.2386688 0.20409647 -0.26359844 0.11346457 0.23823941
-0.2911779 0.03842738 0.026027506 0.14693002 0.016490137 -0.09046082 -0.092789024 0.14503975
0.13714586 -0.25295383 -0.17119507 0.16267695 0.007715878 0.06656439 0.028795846 0.17995879
0.16135876 -0.049134858 0.04369635 0.024023585 0.05977755 0.0074827243 -0.07929065 -0.010567413
0.26252285 -0.05818538 -0.09536171 -0.21202308 0.055960413 0.073945835 0.1150625 0.14253557
0.27371708 0.049379967 0.25129375 0.036403213 0.15689054 0.023120256 0.05694039 -0.21839353
0.16247053 -0.027584124 0.2513193 -0.25893378 0.09587896 -0.15015772 0.04164146 -0.008412069
0.30321223 0.027539456 0.0727236 0.24750967 0.27032894 -0.10744258 0.010099758 -0.011334939
-0.17090632 0.06434143 -0.051858548 0.10592989 -0.2349002 0.16253382 0.25475734 0.24708673
-0.23970774 0.1262956 -0.2563002 0.26280117 -0.010766094 -0.19944939 0.24102658 -0.2526044
0.0007459981 0.012661025 -0.25391513 0.045820337 0.00085782475 -0.15206915 0.19585373 0.29638153
0.16087894 0.17887852 0.3049362 -0.1841269 0.046533056 -0.17643872 0.13449292 -0.15583695
0.1551072 0.2523077 -0.099720694 0.11802923 0.21430705 -0.18614914 0.2862563 -0.23018132
-0.1878869 0.30153665 -0.052924305 0.16054441 -0.25016287 -0.11107894 -0.18555026 0.020456344
0.20820327 0.26301348 0.012666907 -0.1525258 -0.10350684 0.25970033 -0.14290921 0.13533174
-0.24653791 -0.038956337 -0.037073515 -0.26626757 0.10967616 -0.05775174 -0.26917177 0.21794319
0.12229556 -0.17169201 0.22306187 0.1805046 -0.12686567 0.21149775 0.17407282 0.21680322
0.0029798506 -0.06640631 -0.20625709 0.038821798 -0.19903469 -0.16491209 -0.22452039 -0.04102012
0.24801302 0.16678022 -0.27892962 0.08151146 0.051503614 0.055656765 0.18619303 -0.2800475
-0.23272316 0.047799654 0.21202995 0.070129715 0.20586815 0.057504766 -0.18080032 -0.21400216
0.14059123 -0.11013289 0.25315544 -0.07922377 -0.003970309 -0.102621384 0.06731099 -0.018747183
-0.08328336 0.0779887 -0.018645622 -0.13113211 0.21796745 -0.19670491 -0.28009492 0.0022589532
0.16315599 0.2750888 0.22857231 0.18212816 -0.12545727 -0.10266685 -0.06713594 -0.13175184
0.08136264 -0.022767425 -0.1425063 -0.25824842 0.18916933 0.15388285 -0.25630167 -0.010723859
-0.102032505 0.14783329 -0.2907701 0.11019987 -0.19432476 0.20693909 0.10360337 0.11551618
0.004192004 0.24799547 0.057976328 0.022338666 -0.29064906 -0.22961715 0.29500842 0.067173
-0.10501147 0.10227642 0.056811567 -0.23965184 -0.20132612 0.02959756 -0.0017721142 -0.11991986
0.230767 0.26919442 0.1493728 -0.12347365 -0.122590676 -0.1647181 0.17822702 -0.14895502
-0.2237559 -0.17918555 0.15319495 -0.11514813 -0.22233742 0.27877235 -0.1644638 -0.116358735

linear2.weight f4 [512, 256]
00000000: c127 433d 4ca5 9ebc 25b6 303d 2a56 153d
00000010: 8e52 563c c55c 2c3c 97e0 5e3d e7fd cdbc
00000020: d33c 03bd 84b3 99bc c84b 08bd 61a6 6e3d
00000030: dea9 30bd d5c3 26bd 212c 173d 2fcd 94ba
00000040: be28 c1bc d012 81bc 7dcf 4cbc 9b68 80bb
00000050: 2af3 12bc 9be6 2abc ac43 34bb e03a 173c
00000060: 3ac6 4c3d 29a3 0d3d 815d 42bd c741 463d
00000070: 56bc ba3c caea 16bd 7206 28bd 9cb0 1fbc
00000080: 3343 9bbc 3564 f93c 57a8 653d 92e1 1a3b
00000090: ff96 d9bc 1f2f 683d f597 b9bb b4a8 8cbc
000000a0: 94b5 5b3d fbef 0b3d 4611 5a3d c71f 5abd
000000b0: f2d4 01bd e67a 0d3d 42cd 5dbd 8ef4 f33c
000000c0: 87f1 10bd 8837 2bbb c07b 84ba 24d9 273d
000000d0: ce45 46bc 60b5 0dbd fc14 7abc 8ef6 99b9
000000e0: 763c 3d3d 3ca2 86bb 6ede 5b3d dd42 5c3c
000000f0: 2e2d 8a3d 4240 18bd 89b8 513b 675d 133c
00000100: 2c86 283c f40a 823d d862 87ba edd8 de3c
00000110: 98e9 3e3d 91c3 593d 84c0 dd3c 2f8c 1abd
00000120: f2d0 d33c 860b 3bbd ae3e ef3c b10a 48bd
00000130: f4ab bb3b 1eb5 393c 735d 523d 27f5 92bc
00000140: 8507 c13c 5e50 0bbd 27ad 2f3c e518 b43c
00000150: abd2 3fbc bc27 f2bc 6d36 6ebd dd25 27bd
00000160: 3778 4e3d fd29 78ba 1817 c6bc 1c12 4e3d
00000170: 032b cd3c 3150 75bc be33 0e3d b6eb 1e3c
00000180: 8d60 ea3c 303b 803d 00f2 4c3c e8a7 443d
00000190: db84 32bc 4469 17bd 0062 463c 59fa 363c
000001a0: 7adb d9bc bd23 a43c 7e54 e03c b47b 723d
000001b0: 2339 31bd 42d2 583b 16e8 88bc 6728 2e3d
000001c0: bda1 083d b162 20bc 9afd 71bc 0e08 01bd
000001d0: 0821 adbb 07f9 12bd 2dfa b1bc b01c 44bc
000001e0: 9e30 603d 0169 6cbc e8aa e5bb d44f 7bba
000001f0: 219a 05bc ff55 2c3d 8057 403d c3b6 1fbc
00000200: 190a bd3c 4bd3 ad3c 3b21 78bd 6cba d53c
00000210: 077e 17bd 432b 09bc 0d92 65bd eb52 6abd
00000220: 6c26 6fbc 660a d8bc f0e9 edbc b799 863c
00000230: e72c b23c 8b4d 7b3d 6920 c6bc 67bf e73c
00000240: 0aa5 f43c ee2b 28bd c06f aa3c 123e 883b
00000250: 15aa 01bd fb93 41bd 8dd9 9ebc a01e 2bbd
00000260: f6e6 1d3d 2743 a63c bd47 ecbc b35f 9bbb
00000270: aa08 523d a45b 243d 1fdb 47bd 3eb4 35bd
00000280: 10aa cf3c a28b 5f3d 9f5e 3d3c a467 9b3c
00000290: 0064 f838 adca 8f3a c87a 45bc 598f 163d
000002a0: 68da cb3c 745c 99bc b719 ec3c 51cc 773d
000002b0: bc69 4ebd c4e6 0fbc dca4 6abd 7c0a e03c
000002c0: df94 3a3d 658e fb3c 38a5 39bb f560 053d
000002d0: ad6f 5b3c 5049 cc3c 5ef8 33bd 1c64 35bd
000002e0: 87d2 883d 2881 33bd 8713 4e3d f3d0 3ebc
000002f0: ca28 9bbc f601 3dbd e05a 7abd 0948 963c
00000300: 1ea3 023d 3a41 2c3d 77d7 5a3c e38e bebc
00000310: 6f34 8bbc fe10 31bd 6345 223c 464e 6a3d
00000320: 203d 4cbd 7da1 643d feac 09bd eed3 183d
00000330: 02be 3ebd e6f7 5c3d fbd8 7e3d da3d 40bd
00000340: 5e4e d83c 9ea3 cbbc c756 43bd e359 203d
00000350: db15 303d 6e60 0d3c 34d4 41bd 5a93 f6bc
00000360: 3970 5a3d aacc 473c bc3e c93b 722f c43b
00000370: f55d 623c 2986 b8bc 5366 b03c 29ee 6a3c
00000380: 0723 843c a03f 5d3c 241a 98bc fef8 4bbd
00000390: 2d65 0cbd fd7c 5d3d df64 d03c 4fa3 133d
000003a0: 0b8a 8ebc 1c45 45bd 03bb 1a3d 4512 703d
000003b0: 0db1 2dbd 9b57 533c 432f e13c 10b5 723d
000003c0: 6d58 7a3d 43ab 73bb fa9f 1c3c a674 07bd
000003d0: 474d 383d ec9b 793d 93af 203b 51d0 273d
000003e0: c5db 3dbd 25b9 ddbc 08b4 083d 833e b2bc
000003f0: 340e 4ebd 0f23 b8bc abab 80bc 66c1 cc3c
0.047645334 -0.019365929 0.043142457 0.036459126 0.013081206 0.010520165 0.054413404 -0.025145484
-0.03204043 -0.018762358 -0.033275396 0.05826414 -0.043130748 -0.040714104 0.03690732 -0.0011352653
-0.023578998 -0.01575604 -0.012500641 -0.00391872 -0.008969108 -0.010430957 -0.0027506156 0.0092303455
0.04999373 0.03457943 -0.047452454 0.048402574 0.022794884 -0.036845006 -0.04102177 -0.009746697
-0.018952942 0.03044329 0.056068745 0.0023632986 -0.026561258 0.056685563 -0.0056638666 -0.017170288
0.053639963 0.03416441 0.05323913 -0.05325296 -0.03169722 0.034541033 -0.054150827 0.029779699
-0.03538659 -0.0026125629 -0.0010107681 0.040978566 -0.012101604 -0.0345968 -0.015263792 -0.00029366132
0.04620024 -0.0041086953 0.053678922 0.013443676 0.067468986 -0.037170656 0.003200086 0.008994437
0.010285895 0.063497454 -0.001032914 0.027203048 0.04660949 0.053165022 0.027069338 -0.037731346
0.025856469 -0.045665286 0.029204693 -0.04883832 0.0057272855 0.011334686 0.05135865 -0.017939163
0.023563156 -0.03401219 0.010722435 0.021984527 -0.011707942 -0.029559962 -0.058157373 -0.040807594
0.050407615 -0.0009466706 -0.024180934 0.05031024 0.025044924 -0.014972732 0.034717314 0.009699753
0.028610492 0.06261289 0.012508869 0.04801169 -0.010895933 -0.036965623 0.012108326 0.011168086
-0.026593912 0.020036573 0.027384039 0.059200004 -0.04326738 0.0033084308 -0.01671223 0.042519
0.03335737 -0.009789155 -0.014769936 -0.031501822 -0.0052834786 -0.035882022 -0.021725738 -0.01196973
0.054733865 -0.014429332 -0.007008899 -0.00095867855 -0.008154423 0.0420742 0.046958447 -0.009748164
0.023076104 0.021218916 -0.060578566 0.02608987 -0.036985423 -0.008372131 -0.056047488 -0.057207983
-0.014596563 -0.026372146 -0.029042214 0.016430719 0.021749927 0.061353248 -0.024185376 0.02828951
0.029863853 -0.04105752 0.02080524 0.00415779 -0.031656343 -0.047260266 -0.019390846 -0.041777253
0.03855034 0.020295693 -0.028842801 -0.004741633 0.051277794 0.040126458 -0.048792955 -0.044361345
0.025349647 0.054576524 0.011558204 0.018970318 0.00011844188 0.0010970436 -0.012053199 0.0367578
0.024884418 -0.018720843 0.028820856 0.060497586 -0.050393805 -0.008783046 -0.05728613 0.02734875
0.04555213 0.030707547 -0.0028327238 0.03256317 0.013393325 0.024937302 -0.043938033 -0.044284925
0.0668078 -0.043824345 0.05031159 -0.011646497 -0.018940348 -0.04614445 -0.06112182 0.018344896
0.031893842 0.042054392 0.013357035 -0.023261493 -0.016992776 -0.043229096 0.009904238 0.057203554
-0.04986298 0.05581807 -0.033612244 0.037311487 -0.046567924 0.053947352 0.062218647 -0.046933986
0.026404556 -0.024858292 -0.04769018 0.039148223 0.042989593 0.008628948 -0.047321513 -0.03009956
0.05332968 0.012194792 0.0061415117 0.0059871012 0.013816346 -0.02252491 0.021533167 0.014339008
0.016129984 0.013503939 -0.018567152 -0.049798004 -0.034276176 0.054074276 0.025438724 0.036044415
-0.017399808 -0.04816161 0.037776005 0.058611173 -0.042405177 0.012899305 0.027488356 0.059254706
0.061119486 -0.0037180937 0.009559626 -0.03307023 0.044995572 0.060939714 0.0024518713 0.04097015
-0.046352167 -0.027065823 0.033374816 -0.021758324 -0.050306514 -0.022477655 -0.015706858 0.024994563

linear2.bias f4 [512]
00000000: f75f 04bc 9ce9 d7bc 08ea 8cbc 9a88 123c
00000010: 7669 c23b 6dfe 48bd ee43 bdbb c1a1 4abd
00000020: 9f55 37bc a2fb 0cbd 6d85 47bd 95f3 7c3c
00000030: aa18 3d3d cc03 453d 5b75 4bbd 233f 28bd
00000040: c28d 163d 72ab 03bd 8bbe 963c 48fc 0d3d
00000050: a632 e33c 0f44 8cba 541f cdbb cd28 71bd
00000060: e4b8 5abd bef4 fa3c b1d8 4f3d 37c9 993c
00000070: 0604 7dbd 9c74 653d c0bc 4e3d c4b0 a8bc
00000080: 9ef6 583c 2514 a23c c817 853d 64e1 343d
00000090: add5 b4bc ac6f b93c 3265 f43c ea1b 29bd
000000a0: 8382 81bd d43e 1ebd 3953 e1bc 58b7 083d
000000b0: a5c0 5cbd 7019 733d b643 35bd 3616 12bd
000000c0: c369 5abd 0260 2c3b 0471 28bd c498 3e3b
000000d0: 476d fb3c 2809 56bd 1822 0e3b bf46 483d
000000e0: eb48 07bd 3305 4a3d 8571 41bd 870f 2b3d
000000f0: 3803 5ebb 8d05 d23c b14c d7bc 8901 923c
00000100: c12b fdbb f0c5 d53c 9fb9 9c3a 1549 54bd
00000110: c35b 123d d811 1c3c 9cce a63b ecce dbbc
00000120: 5317 01bc 0fa2 0b3d 2a8b 3f3d 98a3 003d
00000130: ca10 6f3d 10cb 653c 8b27 bcbc 7f82 83bc
00000140: 95be 34bd ae99 53bd 5f1a 6b3d 7f2a 4c3d
00000150: 44be 05bd 75b7 33bd feb2 693d 183e 4a3d
00000160: 3589 0bbd d0fb 12bd bc13 c63a c75a 0abd
00000170: e77a c63c 9a2f a73c 7c6e 27bd 2d72 423d
00000180: 59fc 003d e93b eb3c f667 283d 6e5c 65bc
00000190: 0870 8fbc 681c 44bc 8e70 fcbc 382a 51bc
000001a0: 4368 ee3c 02d3 65bd 0f18 a1bc ea9c 943c
000001b0: 6458 d6bc c3cc 163c b089 3abd 2904 d63c
000001c0: 64cc 2f3d 673a a4bc 3294 3cbd 07ed fc3c
000001d0: d6ea 20bd cf8e e6bc 774e c33c d952 073c
000001e0: 601b 5e3d 22a8 4b3c b3c4 d7bc 075f 9dbc
000001f0: c3e7 583d 7ccd 9f3c b987 0b3d 6008 16bc
00000200: 93b3 65bd 1b3e babc 5d1d c3bc 84b2 193d
00000210: 3908 38bc 216c febb dff3 223d 48c5 293d
00000220: 7b31 50bd c1b7 9b3c cc91 913b 8c11 ce3c
00000230: fd60 7a3d ad59 6a3d 7601 503c 1e3c 6abd
00000240: ae10 593d c261 36bd 1a6b 763d 3cd6 ff3c
00000250: 765c 33bd ce58 05bd 442a c9bc 5f54 513d
00000260: bbc2 c4bc c466 2e3d 4897 423c 0441 e73c
00000270: 33c2 11bc faa1 313d 6012 4ebd e3e8 6f3d
00000280: fb59 3cbd 8387 333d 0021 963d 4734 5dbd
00000290: 446c 4d3d 9de6 80bd 601f b9ba 8465 b33c
000002a0: 6e76 073d 18c3 1a3c 72fa 3b3d 98c6 dcbc
000002b0: cab8 1a3d 9abc dfbc 24bd 7c3d 7091 04bc
000002c0: 0610 0abd 380d 673d af1b bf3b 3f09 583d
000002d0: 2fbb e9bc 07af b5bc f544 033d c73e 733c
000002e0: 6ae0 183d 0608 67bd e014 043b 0fac 123d
000002f0: badd da3c e972 713b eebb dc3c d190 bdbc
00000300: d6bf 1fbd 3b37 5b3d 8aa6 42bd ac5e 0fbd
00000310: ee57 393c 094d 7b3c c67f 683c 6c9f 1dbd
00000320: ab13 73bc 73f0 533c a774 fbba 29f5 603d
00000330: 84ad eebc b25c 3cbd f3f5 7f3b 3556 d0bc
00000340: abbc 4dbd 2467 11bd 1299 1cbc 5d45 863c
00000350: 5adb 7b3d c73e 24bc 31ec 66bd cd57 a9bc
00000360: dd12 c0bc 1d9e f8bc 5ccf 5a3d b148 063d
00000370: 4b5c eabc bff8 33bd 9f9c ccbc 4d94 223d
00000380: 207b 7f3c f757 7ebc 5bc6 13bd bcc6 0f3d
00000390: d955 bcbc b2c6 d3bc 9894 7abd a086 693c
000003a0: 1501 753d 918d 58bb 4dac 583d ad85 c9bb
000003b0: 1cd9 05bd 0b9c a03c 7761 cb3b d873 2b3c
000003c0: f698 3a3d a127 1bbd 45a6 4ebb 5df0 063d
000003d0: 397a 383d 3856 5cbc 7b05 06bc f183 1cbc
000003e0: d111 2fbc 0356 10bd f6cf 723d 8ac5 343d
000003f0: a014 71bd 4fdb 83bd d592 6cbd e1f0 993c
-0.00807952 -0.02635651 -0.017201439 0.008943701 0.005932982 -0.049070764 -0.00577592 -0.049470667
-0.011189847 -0.034419663 -0.04871123 0.015438934 0.0461661 0.048099324 -0.049672466 -0.041075837
0.036756285 -0.032145925 0.018401405 0.034664422 0.027734112 -0.0010701435 -0.006259838 -0.0588768
-0.05339898 0.03063428 0.050743762 0.018772705 -0.061771415 0.05601941 0.050472975 -0.0205921
0.013242392 0.019784996 0.064986765 0.04416026 -0.022074545 0.022636257 0.02983341 -0.041286387
-0.06323721 -0.038634136 -0.027505504 0.033377975 -0.053894658 0.05935043 -0.044254027 -0.035665713
-0.05332352 0.0026302342 -0.041123405 0.0029082755 0.030691756 -0.052254826 0.0021687802 0.048895594
-0.033028524 0.049321365 -0.0472274 0.041762855 -0.003387643 0.025637412 -0.026281686 0.017822998
-0.007726163 0.02609536 0.0011957175 -0.05182751 0.035732042 0.009525739 0.0050905477 -0.026832066
-0.007879096 0.034090098 0.046763577 0.031406015 0.05836562 0.014025465 -0.022968074 -0.016053436
-0.044127066 -0.051660232 0.057398196 0.049845215 -0.032652155 -0.04387613 0.057055466 0.049375623
-0.034066398 -0.03588468 0.0015112082 -0.03377798 0.024228526 0.02040844 -0.04087685 0.047472168
0.031490657 0.02871509 0.04111477 -0.013999088 -0.017509475 -0.011969663 -0.030815389 -0.012766413
0.02910245 -0.056109436 -0.019664792 0.018141229 -0.026165195 0.009204092 -0.045541465 0.02612503
0.04291953 -0.02004738 -0.046039768 0.030874742 -0.039286457 -0.028144268 0.023841126 0.0082594985
0.054225326 0.012430223 -0.02633891 -0.019210352 0.0529554 0.019507162 0.034064982 -0.00915727
-0.05607946 -0.022734692 -0.023817712 0.03752376 -0.011232429 -0.007764355 0.039783355 0.041447908
-0.05082844 0.01900852 0.004442429 0.025154851 0.06112765 0.057214428 0.012695661 -0.05718624
0.052994423 -0.044526823 0.060160734 0.031230085 -0.04378935 -0.032555394 -0.024556287 0.051105853
-0.024018636 0.042578474 0.011876889 0.028229244 -0.008896398 0.043367364 -0.050310493 0.058571707
-0.04598425 0.043830406 0.07330513 -0.054004934 0.05015208 -0.06293986 -0.001412373 0.021898992
0.033071928 0.009445928 0.04589314 -0.026950166 0.037773885 -0.027311612 0.061703816 -0.008091316
-0.033706687 0.05640909 0.0058321576 0.052743193 -0.028531639 -0.022178186 0.032048184 0.01484651
0.037323393 -0.056404136 0.0020154044 0.03580862 0.026717056 0.0036842173 0.02694508 -0.023140343
-0.03900131 0.05351947 -0.047522105 -0.035002396 0.011312468 0.015338191 0.01419062 -0.038482115
-0.014836232 0.0129357455 -0.0019184545 0.054921303 -0.029135473 -0.04598684 0.003905651 -0.025431732
-0.050228756 -0.035498753 -0.009557979 0.016390497 0.061488487 -0.010024733 -0.056377593 -0.02067175
-0.023446495 -0.030348832 0.05342041 0.032784168 -0.028608462 -0.043938395 -0.024977027 0.039692212
0.01559332 -0.015523902 -0.03607784 0.035101637 -0.022990154 -0.025851581 -0.061176866 0.0142532885
0.059815485 -0.0033043365 0.052898694 -0.0061499686 -0.032677755 0.019605657 0.006206687 0.010464631
0.04555603 -0.03787959 -0.003153221 0.032944072 0.045038436 -0.0134482905 -0.008180018 -0.009552942
-0.0106854 -0.035238277 0.05928036 0.0441337 -0.05885756 -0.06438314 -0.057757217 0.018791618

linear3.weight f4 [10, 512]
00000000: cf95 53bd a1eb 313c 44be 01bc f8f3 1a3d
00000010: abc7 46bc cd56 c039 ed7f 07bd 8859 3abc
00000020: c05f c83c c82b 14bd 1dee 94bc 330b cabc
00000030: e81b 27bd a881 673c 32ab 733c afed 71bb
00000040: 6c6c ad3c c189 4cbd 90a9 2bbd 7235 7abb
00000050: 3960 11bd f9ec debc 7538 2d3d 3296 1abc
00000060: 672e e83b 2581 f2bc 5b0f 993c 4ab8 103c
00000070: 49d3 24bd 71f6 193d 527b 5a3c c77e b63c
00000080: 4846 2ebd 4088 26bb 6b44 c83c 4c64 32bd
00000090: 6251 153d f68e 43bd dc10 fc3c 80cb 9ebc
000000a0: 7d76 4f3c 1cfc 1c3c e881 3abd bf8e 25bd
000000b0: d2ea 94bc 5f6d 80bb bb6d 4b3c ac9b 22bd
000000c0: 2a47 513c 9124 f8bc c921 24bd 7041 f93b
000000d0: fa44 b63b 030b 82bb 322d db3c c1a1 f1bc
000000e0: f098 13bd 5beb 1fbd b9b5 1b3d 3f80 a1bc
000000f0: ad38 18bd b554 203d fc09 143d fb5c 77bc
00000100: 07b4 8c3c 4648 8c3c 8931 86bc f8c3 6fbc
00000110: 0f56 2abc c35e 6b3c 9560 16bc 13f8 1b3d
00000120: fcf1 0e3c d74d 44bc 8d6a cdbb 1d65 d83b
00000130: 7aee ab3c a0a8 4f3b 92b5 2c3c 0998 dd3c
00000140: 4768 1e3c e499 023d ce70 133c 66b7 f03c
00000150: 7d0e 99bc 9821 eebc 3746 5b3a ff43 85bb
00000160: dd7b 37bd 0392 b1bc fe6f 1d3d c115 40bd
00000170: 23b3 3abd 7761 83bc 9cae 04bd 7469 89bc
00000180: 674e 2b3b 2bf0 22bd 1b2f 1d3d 3717 39bd
00000190: 2ea4 5e3c f7cc 1a3d f338 113d a28e 01bd
000001a0: ee36 57bc ced8 d13c 9445 23bd d127 88bc
000001b0: af5c 88bc f0e5 17bd 75a2 963c 0791 40bd
000001c0: 2e51 a33c e2a2 13bd d32e f6bc 3683 2bbd
000001d0: aa34 1fbc 4907 d93c c689 123d ad28 4dbd
000001e0: 35ad 25bd fab9 fcbc d48c 0ebd e376 cd3c
000001f0: 0c19 aebc fad4 d63c ad2b 27bd 7032 23bc
00000200: b2a7 813a d418 083d 8a65 b5bc 0450 37bd
00000210: 9801 39bd 8336 a43c f20d 0bbd 0747 45bd
00000220: 6fb6 393c 7be3 063d d7dd ddbb b219 debb
00000230: 3aa3 84bb 368b 42bd 85b5 203d 70de 763c
00000240: a038 c7bc c17b d23b b56a 0d3d 877f ea3c
00000250: ad3d 013d 0841 e0bb 9cff fcbc 00a7 1fbd
00000260: 66d7 973c 1f43 b73c ec26 e53c ac0e 03bd
00000270: 59b7 bebc e825 86bc 9bc2 abbc ffb1 633c
00000280: 5bd7 a4bb c2e2 02bd cb61 3abc 5130 993c
00000290: ced3 7cbc a9c3 1e3d 03b6 d43c c4dd 6bbc
000002a0: d7e4 0a3c e6c7 7fbc ee6e 5bbc 8f89 10bd
000002b0: f48c 013d f3b7 cebc 52ce 47bd 15a3 b5bc
000002c0: f1dd 7dbc c2a9 0f3d c57c ad3c b603 92bc
000002d0: 609e 34bd 2c06 f93b f2ac 383d 7a78 dbbc
000002e0: 6563 763c 1cc1 663c ae17 b5bb d9a5 82bb
000002f0: db40 4bbd b31e e8bc 1017 37bd a13a 13bd
00000300: 5c86 0d3c 2568 a53b 0d90 eabc cc5a b4bc
00000310: 041c 02bd 3bd1 5cbc b11e 1f3d 5a34 dcbc
00000320: 8d34 01ba e8af 03bd 48be bbbc e23d f33c
00000330: 7de6 33bd 5bca 1cbd 4887 1a3d 7eda 4f3c
00000340: 5015 3cbd f2f5 9bbc 4444 033d 7c01 ebbc
00000350: 51ac 0d3d 44c7 863b 84a7 2fbd 3ac3 9d39
00000360: 716b 86bc f702 08bd d165 c13c cb8b 0c3d
00000370: 7ac8 c23c 5d32 1c3d b382 0cbb 1f1e 663a
00000380: 770e debc d99e 273b 488f fcbc f8a4 c3bc
00000390: a4ef 463a 55ab b33c 580c a53c ddde 82bc
000003a0: 3ecc 0bbd c2d2 f1bb e572 3cbd 1ee4 e4bb
000003b0: a488 a5bc 38d0 173d bc50 013d c695 a53c
000003c0: 0679 c2bc 0076 b6bc f600 69bd 18eb 8d3b
000003d0: 5c2f f63c 169a 10bd c3c4 fbbc ba02 073d
000003e0: 66f7 38bd 138f 35bd 4d34 563a a399 3bbd
000003f0: f9a2 a3bc f115 bfbc 4dad f93c d71e 94bc
-0.05165654 0.010859401 -0.007918898 0.037830323 -0.0121325655 0.00036685765 -0.033080984 -0.011373885
0.02445972 -0.036174566 -0.018179948 -0.024663543 -0.040798098 0.014130034 0.014872359 -0.0036915352
0.021169864 -0.04993606 -0.041909754 -0.0038178829 -0.035492156 -0.027212607 0.04229017 -0.009435223
0.0070856097 -0.029602597 0.01868408 0.008833 -0.04024056 0.03758854 0.013335066 0.022277249
-0.042547494 -0.0025410801 0.024446687 -0.04355268 0.036454566 -0.04774376 0.030769758 -0.019384146
0.012662527 0.009581592 -0.045534045 -0.040419336 -0.018178377 -0.003919288 0.0124162985 -0.03969924
0.0127733145 -0.030290874 -0.040071283 0.0076066777 0.005562422 -0.003968598 0.02675495 -0.029496076
-0.036034524 -0.03904281 0.0380151 -0.019714473 -0.037163425 0.039143283 0.036142334 -0.015097852
0.017175687 0.017124306 -0.016381042 -0.014634125 -0.0103964945 0.014365855 -0.0091783 0.03807838
0.008724686 -0.011981449 -0.0062688054 0.0066038505 0.020987738 0.0031686202 0.010541337 0.027050035
0.009668416 0.031885043 0.008999063 0.029384326 -0.018683666 -0.029068753 0.000836465 -0.0040669437
-0.04479586 -0.02167607 0.038436882 -0.046895746 -0.045580994 -0.016037686 -0.032393083 -0.016773917
0.002613926 -0.039779823 0.038375 -0.045188155 0.013588948 0.037793126 0.0354547 -0.031630166
-0.013135655 0.025616076 -0.039861277 -0.016620548 -0.016645757 -0.03708452 0.018388012 -0.04701331
0.01993617 -0.03604401 -0.030051624 -0.04187318 -0.009717146 0.026492732 0.035775922 -0.05008762
-0.040448386 -0.0308504 -0.034802273 0.025081104 -0.021252178 0.026224602 -0.040813137 -0.009960756
0.0009891896 0.033226803 -0.022143144 -0.044754043 -0.045167536 0.020045524 -0.033948846 -0.04816344
0.011334999 0.032931786 -0.00677083 -0.0067779655 -0.0040477784 -0.047496043 0.03923561 0.015067682
-0.024318993 0.006423444 0.034525592 0.028625263 0.03155296 -0.00684369 -0.030883603 -0.038977623
0.018535327 0.022370873 0.027972661 -0.031996414 -0.023280786 -0.016375497 -0.020966819 0.013897418
-0.005030555 -0.031954534 -0.011375855 0.018699797 -0.015431358 0.038760815 0.025965696 -0.014396135
0.008477411 -0.015611624 -0.013393147 -0.035287436 0.031628564 -0.025234198 -0.048780747 -0.02217249
-0.0154948095 0.035074003 0.021177659 -0.017824035 -0.04409635 0.0075996127 0.04508681 -0.026790846
0.015038346 0.014084127 -0.0055265045 -0.0039870557 -0.049622398 -0.028334951 -0.04469973 -0.035944585
0.008637991 0.0050478154 -0.028633142 -0.022015952 -0.031765 -0.013477619 0.03884763 -0.026880432
-0.000492879 -0.03215018 -0.022917882 0.029692594 -0.043920983 -0.03827892 0.03772667 0.01268637
-0.045918763 -0.019038174 0.032047525 -0.028687231 0.03458816 0.00411311 -0.042884365 0.0003009083
-0.016408654 -0.033205952 0.02360812 0.034313004 0.023777235 0.038133968 -0.0021440207 0.0008778292
-0.027106507 0.0025576858 -0.03083004 -0.023882374 0.000758881 0.021932283 0.020147488 -0.01597541
-0.034130327 -0.0073798606 -0.04600801 -0.0069852015 -0.020206757 0.037063807 0.031571135 0.02021302
-0.02373935 -0.022273064 -0.056885682 0.004331004 0.03005188 -0.035303198 -0.030733472 0.032961585
-0.045157813 -0.0443259 0.00081712456 -0.045800816 -0.019975172 -0.023325892 0.030478144 -0.018081112

linear3.bias f4 [10]
00000000: 3acd 8cbc 6457 053c 15cf b6bc daa6 12bd
00000010: 6001 233b 88fb 2e3d 4347 d43c b02a cbbc
00000020: 03ac 213d ef3c e33c
-0.017187703 0.008138511 -0.022315541 -0.035803653 0.0024872646 0.042720348 0.025912886 -0.024800628
0.039470684 0.027739016
