src/pepper_training/training_results/2023-1-12-small_size_network/model/actor-small_size_network.pkl (torch, 14487 bytes, 6 tensors)

linear1.weight f4 [32, 11]
00000000: fd8a 413e 6e3f 713e ae88 c83c 7c1b 35be
00000010: 1bb7 dabc 1867 b03d 4905 753e bb58 ed3d
00000020: fcc5 d13c 3274 143e 3368 db3d 2a34 513c
00000030: 05ac c9bd e269 aa3e 132f 813e 27d7 a83d
00000040: 5f43 5abe c7a7 203e 94e0 93be 087e f73d
00000050: 0a4d 72be 6725 efbd 2d80 28be 67c9 adbd
00000060: beb1 4c3e a56e 54be f357 ae3d 4cb3 05bd
00000070: a06e e4bb 4e24 8c3a ed65 83bd 7f60 1b3e
00000080: 1963 4cbe 3919 2c3e 6442 8ebd 2049 073d
00000090: 0cc0 0ebe 2375 f43c 2655 483e 6953 8f3d
000000a0: 803b bd3c 2d2e 863e d79d a4be e30a 153e
000000b0: db13 273e 7520 7b3e 40c5 ef3d 8ff4 84be
000000c0: 306a 9cbd 6cd9 01bc 4a8c 00bd 3045 f6bd
000000d0: 4996 973e 7c18 34be 9a35 993d 2de4 313e
000000e0: 4cb7 2c3e 5359 9b3e 55e3 82be 2992 01be
000000f0: aa58 993e e55c 753e f37b 54be 79dc 643e
00000100: 7813 51be 7f9d 6b3e 88e4 773e ea7a 58be
00000110: 8cc7 f3bd 439d 603e 1600 4c3d 2181 3dbc
00000120: e399 33be 082c e03d c059 28be 1dd2 103e
00000130: f1c3 99bd 7aff 6d3e 237b 01be 8ced 5fbe
00000140: c6a9 f33d 4a94 2ebe aac1 5f3e 8776 c9bd
00000150: 9ff1 61be e119 50bd e829 9a3e f430 4abd
00000160: ece8 72be fc8a 6a3e 6b7c 023e 195b cd3d
00000170: 2cf3 8ebe c5b7 6d3d 9454 41be d477 5dbe
00000180: 60b4 5ebe e461 093e 557c 7dbe 72e8 7d3e
00000190: 1d95 68be 15c2 913e b405 e4bd ef33 1a3e
000001a0: 12cf 8cbe cbca 423c 29c4 40be 7be4 303d
000001b0: 68ba 423d bb41 20be a12f a5bd b43d 3d3e
000001c0: 02f8 1bbe fa5c 15bd bf65 46be 8776 4b3e
000001d0: 8c8c 2ebd a04e 913e 7934 393d df33 fdbd
000001e0: 8223 debd d939 56be 37b9 ce3c 0268 8ebd
000001f0: 4e9e 92be c605 14be db66 893d e512 303e
00000200: e216 4c3e 353b 4f3e d4c1 8dbe bf33 763e
00000210: f4c4 d73c 2162 b3bd c548 3f3e 447c 963e
00000220: d24d 8c3c 3dcc 8f3d 56b2 953e 6cbd 64be
00000230: 9b8e ecbd baf5 81bd cb62 97bd 56c8 9c3e
00000240: 1f5d 6a3e 76ac 293e 0b2b 47be 1abf 0e3e
00000250: 38db 20ba 963a f13d 3087 59bd a733 0abe
00000260: 3741 2c3e b1bf 80bd b6a7 c83b 005b 8a3d
00000270: beda 5cbd 8e37 04be 56c7 0cbe 9b23 f9bd
00000280: 9365 0fbe f425 163e 006c 91be 1124 593e
00000290: ae55 973e 6f3f 64be 303f bb3d fefd 32be
000002a0: f217 09bc b8ce 663e 98e4 37be c401 f73d
000002b0: b9f7 313e 112a e2bd eed5 a33e a954 673c
000002c0: fbd2 513d 8f64 173d 63fb f9bc 5b3b 17bd
000002d0: 7f17 2d3e 576b 6e3e 26d5 a5bd 33ff 02be
000002e0: 6d18 9dbe 4320 133e 353d 633e 306a 113c
000002f0: cf73 df3c b4c2 07bd 93f8 78be f903 01bd
00000300: c197 883d 3e2c 52be 4b94 133e 89a3 80be
00000310: d8b6 7bbe 3419 b03c b485 0f3d 447a a63d
00000320: 9912 8ebe 4b81 233c e372 62be 06a0 373e
00000330: a141 343e d88a 0dbe d51c 013e 61ee 37be
00000340: 6f1b c63d 9ab8 b8bd cc89 31be 1dc7 19be
00000350: 2d79 86be 8f0f 35be ee6f 773e 8242 03be
00000360: 8248 9abd 7609 c5bc 3658 883e 86be 5ebe
00000370: 5e9a dd3d e284 32be 3f1a 24be faa6 023e
00000380: ecf7 60be d658 9039 e0fb 373e c09f 5b3d
00000390: 202c 933d cdf5 40bd 14f0 39be 02b6 96be
000003a0: ecda 2a3e ffbf 45bc 7f21 04be d036 92be
000003b0: 731b 0bbe db3c 223e 86d6 69be 1e08 1a3e
000003c0: 67bc f03c dcf2 3d3d e6a4 563e cc14 3fbe
000003d0: c9e1 81be c5b1 5fbe f7f1 983e 971d 943e
000003e0: 8674 383d 2783 f8bb 1840 aebd 7c70 b83c
000003f0: 1679 99be a16c 883e 9488 6ebe e210 9f3c
0.18900676 0.23559353 0.024479236 -0.17686266 -0.02669864 0.086134136 0.23927797 0.115891896
0.025607102 0.1449745 0.10713234 0.012768785 -0.09847263 0.33283907 0.25231227 0.08244162
-0.21314763 0.15689002 -0.28882277 0.120845854 -0.236622 -0.11677056 -0.16455145 -0.0848568
0.19989678 -0.20745333 0.08512869 -0.032641694 -0.0069711953 0.0010691972 -0.06415925 0.15173529
-0.19959678 0.16806497 -0.06946257 0.03302872 -0.13940448 0.029841011 0.19563732 0.06998331
0.02309966 0.26207104 -0.32151672 0.14554934 0.16316168 0.245241 0.11707544 -0.25967833
-0.07637441 -0.007925373 -0.03138379 -0.12024915 0.29606846 -0.17587465 0.07480927 0.17372198
0.16866797 0.30341586 -0.25564066 -0.12653412 0.29950458 0.23961218 -0.20750408 0.22349729
-0.20417583 0.23009299 0.24208272 -0.21140638 -0.11903295 0.2193499 0.04980477 -0.011566431
-0.17539172 0.10945898 -0.16440487 0.14142652 -0.07508076 0.23241988 -0.12644629 -0.2186796
0.11897616 -0.17048755 0.2185122 -0.098370604 -0.22064827 -0.05080593 0.30110097 -0.04936309
-0.23721665 0.22904581 0.12742774 0.10027141 -0.279199 0.058036584 -0.1887992 -0.21627742
-0.21748495 0.13416249 -0.2475446 0.24795702 -0.22713132 0.28468385 -0.111339 0.15058874
-0.27501732 0.01188917 -0.18824829 0.043186646 0.047541052 -0.15650074 -0.08065725 0.18480569
-0.15231326 -0.036465622 -0.1937475 0.19869433 -0.042614505 0.283803 0.045216057 -0.12363409
-0.10846616 -0.20920505 0.025234802 -0.06953432 -0.28636402 -0.14455327 0.06709071 0.17194708
0.19930604 0.2023743 -0.27686942 0.24043177 0.026339032 -0.08758951 0.18680103 0.29391682
0.017126951 0.07021377 0.29237622 -0.22337884 -0.11550637 -0.06345697 -0.0739189 0.30621594
0.22887085 0.16569695 -0.19450013 0.13940087 -0.0006136182 0.117787525 -0.05310744 -0.13496266
0.16821752 -0.06286562 0.0061235083 0.06755638 -0.053919546 -0.12911817 -0.13747916 -0.12164994
-0.14003591 0.14662915 -0.2840271 0.21205164 0.29557556 -0.22289823 0.091429114 -0.17479703
-0.008367525 0.22539794 -0.17958295 0.12060884 0.17379655 -0.1104318 0.31999153 0.014119306
0.051226597 0.036961135 -0.030515378 -0.03692184 0.16903494 0.23283134 -0.080972955 -0.12792663
-0.30682698 0.14367776 0.22191317 0.008875415 0.027276902 -0.033144668 -0.24313574 -0.03149793
0.0666957 -0.2052469 0.14412038 -0.25124767 -0.24581468 0.021496393 0.03503962 0.08128789
-0.27748564 0.009979556 -0.22114138 0.17932138 0.1760316 -0.13822496 0.12608655 -0.17962028
0.09673201 -0.09019585 -0.17337722 -0.15017362 -0.26264325 -0.17681716 0.24163792 -0.1281834
-0.07533361 -0.024052363 0.266298 -0.21752366 0.10820459 -0.17433503 -0.16025637 0.12759009
-0.21969575 0.00027532008 0.17967176 0.053619146 0.071861506 -0.047109414 -0.18157989 -0.29435736
0.16685075 -0.012069701 -0.12903403 -0.28557444 -0.1358469 0.15843527 -0.2283574 0.15042159
0.029386712 0.046374187 0.20961341 -0.18660277 -0.25367573 -0.21845157 0.29872105 0.28928825
0.045033 -0.007583994 -0.08508319 0.022514574 -0.29975194 0.26645377 -0.23294288 0.01941723

linear1.bias f4 [32]
00000000: 7b49 31be 66ca 403e adad 0ebe e65b 213d
00000010: 4849 783e e011 9b3e 6fef 51be 277b 663e
00000020: ade8 da3d 9d0b d03c ca52 32bd f7da 6e3d
00000030: 5a7d b1bd 96f0 bcbd 247b 3dbc 08db 153e
00000040: 5a35 9a3e 6b99 73bd ae14 cc3d 16fd 81be
00000050: 0d81 743d a874 803e 9320 863e 1548 793e
00000060: 1ce6 0c3d 4865 8fbd c197 52bd 3900 8f3e
00000070: 42f1 6e3e bb98 513d a3b8 9d3d 9311 e8bd
-0.17313187 0.18827209 -0.1393344 0.03939428 0.24246705 0.30287075 -0.20501493 0.22507916
0.10688911 0.025396163 -0.043535985 0.05831429 -0.08666487 -0.092255756 -0.011565004 0.14634335
0.3011883 -0.059472483 0.09964882 -0.25388402 0.059693385 0.25089002 0.26196727 0.24343903
0.034399137 -0.0700174 -0.051414255 0.27929857 0.2333422 0.051171046 0.07701232 -0.11331477

linear2.weight f4 [64, 32]
00000000: d5ae b13d 68f6 acbd 5644 55bc 504b 04bd
00000010: 71f8 043e 622c 8cbd 1181 d23d be74 27be
00000020: bf53 bebd d6bc fb3d 395f 6b3d ff45 0abe
00000030: 8326 40bd d699 0abe 18b8 23be 0c8b 4bbd
00000040: e743 143d 29b4 203e 4d4a b93d 8628 b8bc
00000050: 1724 07bd fc7b 643c 1d26 e8bd 6ca3 c0bd
00000060: a501 193c 3334 8b3d f749 a5bc 729a adbc
00000070: a52b c7bd 469c 1a3e f982 fbbd 7c92 07be
00000080: 1ec8 10be 3d15 143e 34e9 1d3d e22b f13d
00000090: e270 be3d 18f1 ae3c 50d8 28bd 00f8 2f3a
000000a0: 422d 13be 00f6 2b3b 9094 f1bc 40ea 483b
000000b0: 20a2 2cbd 1a09 be3d 7f90 123e a856 823d
000000c0: beb0 06be a330 22be b8d7 2fbe 911e 26be
000000d0: 70bd edbc e443 3bbd 102d f33c ba5c 27be
000000e0: 107d afbc 44d0 4fbd 9622 a93d 8e5f 883d
000000f0: b8a2 9dbc 1ac7 28be 1e4b ab3d e833 dcbc
00000100: 753c 763b 5f5e 713d 9582 b03d a7c9 99bd
00000110: 0f23 d83d 6ce8 74bd dc26 a1bc 621d e3bd
00000120: 900d 3b3e 6f86 ef3d 6b5c 4fbd 1090 fa3d
00000130: 7c90 2d3d b656 55bd b4e9 283e 8d8f 2abd
00000140: 9719 09be f6ab f8bc 35a6 a739 cb57 913d
00000150: 199c 223e 5a83 e0bd c093 24be 7100 8b3d
00000160: a59d 92bd 9f3a f1bd c6f0 913c 01f1 66bd
00000170: df21 e03d 67c0 953d 5025 a53c b093 253b
00000180: 954f 033e 5231 023e e94a ad3d fc4b c63d
00000190: e9ef a63d b570 b63d 0007 383b bbfd 17be
000001a0: a01d c8bb 9064 2fbd ee03 ad3c 5513 34be
000001b0: b163 bf3d d127 863d dd73 b33d 89aa d73d
000001c0: 9bf2 15bd 9837 e7bd 054f d4bd 62ce fa3c
000001d0: 564b 7a3d 46fb 233e 780e 363d 244d 9bbd
000001e0: 9155 a33d cbff 17be 5e88 e33d a79a e13d
000001f0: bc61 cfbd 4373 0cbe e9c9 243e 63dd 073e
00000200: ab87 283e b4c8 da3c a0f4 253e 22c8 f9bc
00000210: 3566 c73d b133 b8bd f500 8abd 7e85 ecbd
00000220: f4bb d13c 0b67 3d3e 7a07 f63d c8a2 1fbe
00000230: d272 c5bd 04aa d9bb 6e8c 0f3e a58b 173d
00000240: 0cb4 2c3e cee8 373e 8dc1 b33c c4cf e6bc
00000250: 141b 83bd 2215 adbd 223d 473e 46e5 fabc
00000260: e0ae 3ebc 23e2 ae3d d616 ed3d e1f9 fcbd
00000270: 9d35 823d f718 c1bd 90c4 08be 9206 00be
00000280: fa47 52bd 8aae 953d 9c36 793c 0ebf 0bbe
00000290: e2f1 22bd ca34 293e 8fe8 72bc 0158 153e
000002a0: 296f 543c fe90 e3bd 1a43 e9bd f80b b0bd
000002b0: f763 09bd 578c 8e3d 46c1 d4bd 1e42 babd
000002c0: 176c 993c 7205 2d3d 15e3 e83d 310e 26be
000002d0: 70e8 9dbd 04c2 333e 6309 ed3c a154 e9bd
000002e0: acb0 bbbb 8c1e 373e 9629 e7bd d3a0 14bd
000002f0: f35f 68bd a732 acbd 2eb1 973d b6aa 30be
00000300: d462 623d cfce 13be cafd b03d 28a2 dbbc
00000310: af32 0e3e 70e8 a1bc 9882 68bd 8a57 ec3d
00000320: f5aa 043e e0fb 98bb 72f0 f23d 52a4 a5bd
00000330: 6cec 8c3d 70e3 fabc f095 f53c 7459 aebd
00000340: 4177 92bd 55e3 073e 1ca4 05be dcb2 223d
00000350: b80b 19be 1aba a0bd 3030 08bc 50aa 3fbc
00000360: 2010 ebbc 264e 09be 1c20 63bd 0c6e 313d
00000370: 7a17 ab3d 3c6e 463d 70b8 433c 6fd1 33be
00000380: 4a3b 97bc e760 0c3e 64ee d6bd 9228 213e
00000390: 4b81 383e 6a39 c6bd d8e9 3e3d 10c7 cebd
000003a0: cdea 1dbe 6ce1 62bc 4627 7fbc 3e46 093e
000003b0: ccb4 9abd 78ef fe3d ca85 733d 0c03 1a3e
000003c0: 355d 903d 26e7 3a3e 431a f03d 05d3 f63d
000003d0: 9c96 e8bd d5da b33d 28a1 353e 7f65 cb3d
000003e0: 256a 28bc f5ac 403d b531 06be 4dfe c63d
000003f0: 92d6 343d 5a98 243b a243 5f3d 61db 7b3d
0.08675925 -0.08445436 -0.013016781 -0.032298386 0.12985398 -0.06844403 0.10278524 -0.16353127
-0.09293317 0.12291877 0.05746386 -0.13503264 -0.046911728 -0.13535246 -0.15988195 -0.049693152
0.03619757 0.15693726 0.09047375 -0.02248026 -0.032993402 0.013945576 -0.113353945 -0.0940617
0.009338771 0.067970656 -0.02017687 -0.02119181 -0.097251214 0.15098676 -0.122808404 -0.13239473
-0.14138839 0.14461227 0.038552478 0.11775948 0.092988744 0.021355197 -0.041221917 0.0006712675
-0.14372733 0.0026239157 -0.029489785 0.0030657202 -0.042146802 0.0927908 0.14312933 0.063641846
-0.1315336 -0.15838866 -0.17172134 -0.16222598 -0.029020995 -0.045719042 0.029684573 -0.16343966
-0.02142194 -0.050735727 0.0825855 0.066588506 -0.01924263 -0.16482201 0.08363937 -0.02688022
0.0037572656 0.05892789 0.086186565 -0.07509165 0.10553562 -0.059791967 -0.01967185 -0.11089589
0.18266892 0.11695563 -0.050625246 0.12234509 0.04237412 -0.052084647 0.164954 -0.041640807
-0.13388668 -0.030355435 0.00031976556 0.07096823 0.15879859 -0.10962553 -0.16071987 0.067871936
-0.071589746 -0.11778759 0.017815005 -0.056382183 0.109439604 0.073120885 0.020159394 0.002526503
0.12823327 0.12714127 0.084615536 0.096824616 0.08151228 0.08908216 0.0028080344 -0.14842884
-0.006107047 -0.042820513 0.021120038 -0.175855 0.093451865 0.06550563 0.087623335 0.10530574
-0.03660832 -0.112899005 -0.10366634 0.03061599 0.061107002 0.16013822 0.044447392 -0.07583073
0.07975305 -0.14843671 0.11109994 0.11015826 -0.10126063 -0.13715844 0.16092648 0.13268046
0.16458003 0.02670703 0.16206598 -0.030490939 0.09736291 -0.08994234 -0.06738464 -0.11548899
0.025602318 0.18496339 0.12013145 -0.1558944 -0.09641041 -0.006642582 0.14018413 0.03699841
0.16865557 0.17959902 0.021942878 -0.028175242 -0.06401649 -0.084512964 0.19456914 -0.030626904
-0.011638373 0.08539226 0.11576621 -0.12352348 0.06357882 -0.0942859 -0.13356233 -0.12502506
-0.051338173 0.07308681 0.015210774 -0.136471 -0.03978146 0.16524044 -0.014825954 0.14584352
0.012965956 -0.111116394 -0.11389752 -0.08596033 -0.0335426 0.069603615 -0.103884265 -0.09094642
0.018728299 0.04224152 0.113714375 -0.16216351 -0.077103496 0.1755448 0.02893514 -0.11393095
-0.005727848 0.17882746 -0.11287229 -0.036286186 -0.05673213 -0.08408099 0.07406841 -0.17252621
0.05527003 -0.1443436 0.086421564 -0.02681072 0.13886522 -0.019764155 -0.05676517 0.11540134
0.1295584 -0.0046686977 0.118622676 -0.08087982 0.068810314 -0.030626029 0.029978722 -0.085131556
-0.07151652 0.13270314 -0.13050884 0.039721355 -0.14945877 -0.07847996 -0.00831227 -0.0116983205
-0.028694212 -0.13408718 -0.055450544 0.04331784 0.08354087 0.04844497 0.011945829 -0.17560361
-0.018460888 0.1370884 -0.10494688 0.15738133 0.18018071 -0.096789196 0.04660973 -0.10096562
-0.154216 -0.01384769 -0.015573328 0.13405702 -0.075540155 0.12448019 0.059453763 0.15040225
0.07049028 0.18252239 0.11723759 0.120519675 -0.113568515 0.08781973 0.17737257 0.09931468
-0.010279213 0.047039945 -0.13104899 0.09716473 0.044149943 0.0025115223 0.05450786 0.061488513

linear2.bias f4 [64]
00000000: a68c 433e ecd8 0bbe ddb9 1e3e bb5c b0bd
00000010: 212a bd3b 9733 153e aa0f c6bd 596d a5bd
00000020: 3429 1e3e 90af b1bc d2ea 33bb 79a3 1f3d
00000030: d6bd e23d 1713 803c a5ce 08be afe1 0fbe
00000040: 0c68 c03d b4d2 0e3d 5578 153d f6b8 f73d
00000050: e829 ffbd 1ef3 573c fb2d e63d 01b8 463d
00000060: e5f2 18bc fed7 dabd 6759 a63d 06f3 2d3e
00000070: 539d 2dbe 99db 0c3e 48e5 d63d 7c47 27be
00000080: d15b d03c c0c0 f5bd e9e1 373e 0e22 86bd
00000090: f841 29be b9da f5bd 441c fabd 5a24 133e
000000a0: 533c c9bd 5e99 b0bd 9a4b 193d 6316 28be
000000b0: 2920 af3d 667a 063d b7b3 0d3e cac3 533e
000000c0: c15f 923b e799 e63d 391c 273e fb93 ac3d
000000d0: 8d65 3d3e 4414 dabd 3c28 e23a da8f 1abd
000000e0: 0844 263d 7017 0e3e ac7b a9bd c853 ae3d
000000f0: 746f 6b3d fe6f efbd 1a4c 9f3d e219 1dbe
0.19096622 -0.13656968 0.15500589 -0.08611437 0.0057728444 0.14570461 -0.096709564 -0.08077497
0.15445405 -0.02169016 -0.0027453196 0.03897426 0.110713646 0.015634103 -0.13360079 -0.14050935
0.09394845 0.03486891 0.03649171 0.120958254 -0.12459165 0.013180522 0.11239239 0.048515324
-0.009335254 -0.106857285 0.08122521 0.16987237 -0.16954546 0.13755645 0.10492951 -0.16335863
0.025434406 -0.11999655 0.17957272 -0.06549464 -0.16529071 -0.12004609 -0.122124225 0.14369336
-0.09825959 -0.086230025 0.037425615 -0.1641479 0.08551056 0.032831572 0.13838087 0.20680156
0.004466981 0.11259823 0.1631936 0.084266625 0.1849577 -0.106483966 0.0017254422 -0.037734844
0.040592223 0.13876128 -0.08275542 0.08512074 0.057479337 -0.11691283 0.07778187 -0.15341905

linear3.weight f4 [10, 64]
00000000: 3bb0 9abb 2e16 a7bd d021 883d a1c7 98bd
00000010: 73e5 b1bc b458 c7bc bebd ecbd 47fe e8bd
00000020: d116 aa3b 9bac a8bd 7a9b 953d f05d 2dbc
00000030: 34d4 cdbd 3466 13be 6f97 023d 484d bbbd
00000040: a034 2f3b b838 d1bd 3d43 b93d 7852 01bc
00000050: 0be7 79bc 5e43 023d 7e4d 6e3d 0a78 03bd
00000060: dbfe de3d 00cb 7cbc f7a2 dfbd ff02 dcbd
00000070: 60c3 803d a63b fa3d d2cb 103c b07b 9f3d
00000080: 08d1 59bd 0068 f23d 7ffd 6d3d 5864 a83c
00000090: f835 143d 9c8a b0bc 087c 88bc a711 ce3d
000000a0: 3eb0 a23d bb02 d2bc fb0b f53d b0ac 343c
000000b0: 2505 14bd 4237 31bd 93cf b53d 498c 18bd
000000c0: 00df 32bd fabd 933c 73b9 01bd 5458 01bc
000000d0: 773e b9bd 9067 e1bd aa1a b73b 38bb 9d3d
000000e0: 6c5a 6ebd e2e7 6ebd 1cfc 1cbd bc90 f33d
000000f0: 2724 d2bd 81a8 6b3d e0c9 503d 1a4a d9bd
00000100: 24f2 f33c c452 90bd ff2b a7bd 3108 b4bd
00000110: f421 583d ba32 9a3d 9833 873d c265 2abd
00000120: c46a 97bd 4801 033d ac11 5ebd d22b 863d
00000130: 431d 38bd cba5 573d 4c54 a73d a4a6 4e3d
00000140: 52ed 00be 49f8 d2bd 107b f03d 6b9d 86bb
00000150: 894f 9f3d 973d b0bd cb74 953d 41fd aa3d
00000160: a1f2 e6bd 0c2d 25bd 0245 c3bd 1411 9a3d
00000170: f081 093d b08f 8b3d bfec a93d e064 323c
00000180: 7a05 40bc 00f6 2c3d 3568 73bd d0ba c6bd
00000190: 9888 ddbc 08ce 753d 3c87 0c3d 536d 8d3d
000001a0: f3ca 98bd 42d5 fbbd 76e0 863c 6886 cb3d
000001b0: 3fbd 973b 6e20 bcbd 6d9d 89bd 5cb9 dfbd
000001c0: 8e80 f13d 68c6 0f3d 2d04 323c 9956 96bd
000001d0: 641a f4bd 64f8 253d 7d00 963d 65c5 54bd
000001e0: 1d3d f5bd 5d20 e43d 208e cbbb ca62 d8bc
000001f0: d8f9 963d abea 2b3d cad2 a53d e557 833d
00000200: 1e58 1c3e 3ac0 d83d b470 133e b56b 44bd
00000210: f629 843d dd10 98bc 6a10 d63d 28f1 303d
00000220: 1f99 11bc f5e8 bbbd df65 523d d853 023e
00000230: 3360 213e e158 cd3d b37c 273d b26b ab3d
00000240: e40c a83d cfdf c43c fd5c 593d e7bf bd3d
00000250: 0f50 ea3d c00c 143c 9f92 8fbc a150 133c
00000260: d08a efbc f2a9 e63d fe1d 603d 7c3c b7bc
00000270: 7097 ffbd 5cf7 bcbc d0a8 113e ca58 863d
00000280: 99e5 c63d 9044 343d 988f cbbc 48bb 11bd
00000290: 1428 ba3d c6c7 b6bd 9faf 14bd 4156 cb3c
000002a0: 9acf 77bd 9c5e eabd 3e5d c83d 8a43 e63d
000002b0: 380a 1b3d 7306 bd3d 02cd 913b 8430 0d3e
000002c0: 6082 a83d a9c2 b03d 789b a5bd 8b15 273e
000002d0: ddd7 a93d 1434 083d 04da 9bbd ab46 0f3d
000002e0: 8f90 d1bc 7b0a b73d ba25 efbd 5ea3 283e
000002f0: 8136 e93c 399f ab3d 51fe 393d b9c9 833d
00000300: df8d 733d ac06 f2bd 8578 ccbd a338 d7bd
00000310: e91c f0bd 8e89 24be f81b ab3d 4328 e0bd
00000320: 2a99 d3bd 5669 ac3d 044a 4b3d abb6 e13d
00000330: fc3c debd 5840 e2bd 0a63 9ebd f4dd 78bd
00000340: 4e66 5a3d 3e3b 3d3d 09f7 1f3d 5adb 22be
00000350: c825 ae3d aa93 753d 9b38 d9bc 2c0a 05bc
00000360: ea26 d13d 4808 333d 4b4a bcbd a810 1fbe
00000370: 3874 983d adde b5bc 9465 98bd b4ae 07bd
00000380: 2958 d7bd fafb c33d f2be 1bbe 0ccd 593d
00000390: 527f c9bd 8eb9 853b a9ed c43c 70f1 0abe
000003a0: 9399 ea3d ba4d da3d c0b5 0ebd 5690 bb3d
000003b0: 3933 a83d 3baa 023c 395d 0cbe ed29 20be
000003c0: 77b6 873d 2579 15be 8c49 15be 3b1b 93bd
000003d0: 5e93 0bbb d234 e5bd 8170 383d 5bb7 e6bd
000003e0: 1e9d babd 408a 3f3c 20a6 073d 7956 1ebe
000003f0: 12d8 743d 311c cf3c 4d62 183d 835d 4ebd
-0.0047207153 -0.08158527 0.06647074 -0.07459951 -0.021715855 -0.02433429 -0.11559628 -0.113766246
0.005190708 -0.08236047 0.073050454 -0.0105814785 -0.1005024 -0.14394456 0.0318827 -0.091455996
0.0026734248 -0.10215896 0.09046028 -0.007893197 -0.015252839 0.031802528 0.05817937 -0.0320969
0.108884536 -0.015429258 -0.10919755 -0.10742759 0.06287265 0.12218408 0.008837657 0.077872634
-0.053177863 0.11836243 0.05810308 0.02055566 0.03618428 -0.02155047 -0.016660705 0.10061961
0.07943772 -0.025636068 0.11965176 0.0110275 -0.03613772 -0.04326559 0.08877482 -0.03724316
-0.0436697 0.018034924 -0.031671 -0.007894594 -0.09045117 -0.11006081 0.0055878954 0.07701725
-0.0581917 -0.05832661 -0.038326368 0.1189284 -0.10260802 0.057533745 0.050973773 -0.10609837
0.029778548 -0.07047036 -0.081626885 -0.08790625 0.052766755 0.075292066 0.066016376 -0.04160095
-0.07393411 0.031983644 -0.054216072 0.06551327 -0.04494978 0.052648347 0.08170375 0.05045189
-0.1259053 -0.10301263 0.11742222 -0.004108121 0.07778842 -0.08605497 0.07297667 0.083490856
-0.112767465 -0.040326163 -0.095346466 0.07522789 0.033571184 0.068145156 0.08297109 0.010888308
-0.011720056 0.04222679 -0.05942555 -0.097036004 -0.027042672 0.06001094 0.034308657 0.069056176
-0.074605845 -0.12296535 0.016464453 0.09937745 0.004630714 -0.09185873 -0.0671948 -0.10924026
0.11792098 0.035101324 0.010865253 -0.07340736 -0.11919096 0.040520087 0.07324312 -0.051946063
-0.11974547 0.11138985 -0.006212011 -0.026414294 0.07371873 0.041971844 0.080968454 0.06413249
0.15267989 0.10583539 0.14398462 -0.04795428 0.06453316 -0.018562729 0.104523495 0.043198735
-0.008886605 -0.091752924 0.051366683 0.12727296 0.15759353 0.10026718 0.040890407 0.083701506
0.08205584 0.024032502 0.053067196 0.09265118 0.11441051 0.009036243 -0.01752597 0.008991391
-0.029240996 0.11262883 0.054716103 -0.022367708 -0.12480056 -0.023067169 0.14224553 0.06559904
0.09711761 0.0440107 -0.024848744 -0.035578996 0.090896755 -0.089248225 -0.036300298 0.024821403
-0.06050072 -0.114438266 0.097834095 0.11243351 0.037851542 0.09229746 0.0044494877 0.13788038
0.08227992 0.086308785 -0.08086294 0.16316812 0.08293126 0.03325279 -0.076099426 0.034979504
-0.025581626 0.08937546 -0.11677118 0.1646857 0.028468372 0.08379979 0.04540855 0.0643496
0.05946147 -0.11817679 -0.09983925 -0.105088495 -0.11724264 -0.16068098 0.08354944 -0.10945179
-0.10331948 0.08418529 0.049631134 0.11021169 -0.108514756 -0.11047429 -0.07733734 -0.060758546
0.05332022 0.046199076 0.03905395 -0.15903988 0.085033 0.059955277 -0.02651625 -0.008120101
0.102125004 0.04370907 -0.09193858 -0.15533698 0.07444042 -0.022200907 -0.074412495 -0.033125594
-0.10514862 0.09569545 -0.15209559 0.053174064 -0.098387375 0.0040809577 0.024039106 -0.13568664
0.11455073 0.106593564 -0.0348413 0.09158389 0.08212895 0.007975156 -0.13707437 -0.15640993
0.06626599 -0.14596994 -0.14578837 -0.07182928 -0.0021297554 -0.11191715 0.045029167 -0.11265441
-0.09111999 0.011690676 0.033117414 -0.15462674 0.059776373 0.025281997 0.037203122 -0.05038215

linear3.bias f4 [10]
00000000: 112b 4abd b8d1 98bc 19b0 303d b35a 243d
00000010: be89 e0bc a017 a33b 7900 343d 539a 503c
00000020: 8ac2 97bc cb5a 1c3d
-0.049357478 -0.01865469 0.04313669 0.04012556 -0.02740943 0.0049771816 0.043945763 0.012732106
-0.01852538 0.038172524
