src/pepper_training/training_results/2022-12-09-direct_to_cube_30_steps/model/critic-direct_to_cube_30_steps.pkl (torch, 542615 bytes, 5 tensors)

linear1.weight f4 [256, 11]
0	0x3e476f4c	0.1947605
1	0xbda96088	-0.08270365
2	0xbe5b9d3e	-0.21446702
3	0x3e9486e9	0.29009178
4	0x3bb67d04	0.0055691022
5	0x3de321ae	0.11090408
6	0xbe8667e6	-0.26251143
7	0x3e185e61	0.14879753
8	0xbe7c7cf6	-0.24657044
9	0x3d2c91b5	0.042131145
10	0x3dbdd3e9	0.09268934
11	0x3d95f2f5	0.07321731
12	0x3e2a4934	0.16629487
13	0x3d95133b	0.072790585
14	0xbe3bfadd	-0.18357415
15	0x3dc09c19	0.09404773
16	0x3ddfd46a	0.10929187
17	0xbca3d586	-0.019999277
18	0xbe276e5a	-0.1635069
19	0x3d1ac792	0.03778798
20	0x3eb53e36	0.35399026
21	0xbe95b69f	-0.2924089
22	0xbdd6f9ed	-0.10496888
23	0x3e261895	0.16220315
24	0xbde744d2	-0.11292423
25	0x3e4040b9	0.1877469
26	0x3d009f14	0.03140171
27	0x3e662566	0.22475204
28	0xbe2f280a	-0.17105117
29	0xbe940067	-0.28906557
30	0xbde41ee0	-0.111387014
31	0xbdf49f64	-0.11944464
32	0xbd6ed65e	-0.058309905
33	0x3de42abe	0.11140965
34	0xbdc713ec	-0.09720597
35	0x3e88c0ab	0.26709494
36	0xbe785a4e	-0.24253199
37	0x3eb9a87f	0.36261365
38	0x3eb2ae88	0.34898782
39	0x3ea8678f	0.3289151
40	0xbea587bd	-0.32330123
41	0xbebfb36b	-0.37441573
42	0xbde49b3c	-0.11162421
43	0x3db2c48b	0.08728894
44	0x3e93b8be	0.28851885
45	0x3e1e156b	0.15437858
46	0x3c0001c0	0.007812917
47	0xbd8f2961	-0.06990314
48	0xbe860ad4	-0.26180136
49	0xbd1b3c75	-0.037899453
50	0xbe98e2ee	-0.29860634
51	0x3cebd33e	0.028787252
52	0xbe839f40	-0.25707436
53	0xbda00287	-0.07812982
54	0xbe4c20a7	-0.19934331
55	0x3c012c1b	0.007884051
56	0xbd812131	-0.06305159
57	0x3e8a62bd	0.27028456
58	0xbe4e985e	-0.20175311
59	0x3ebfa8df	0.37433526
60	0xbe1edd00	-0.15513992
61	0xbe3e99f9	-0.18613423
62	0x3e6414db	0.2227358
63	0x3e170c4f	0.14750789
64	0x3dcb602b	0.09930452
65	0xbe94a03d	-0.29028502
66	0xbe873f8c	-0.2641567
67	0x3db9cd9e	0.090724215
68	0x3e2265ec	0.15859193
69	0x3e5ced8c	0.21574992
70	0x3e3755bd	0.179038
71	0x3e5fe25f	0.21863697
72	0xbe3a33af	-0.18183778
73	0xbec08cd2	-0.37607437
74	0xbe610609	-0.21974958
75	0x3e02c139	0.12769021
76	0x3e2b3de1	0.16722824
77	0xbdda0ab6	-0.10646574
78	0x3e9453b0	0.28970098
79	0x3e83e34b	0.25759348
80	0x3e45d9e9	0.19321407
81	0x3d8862c2	0.066594616
82	0xbd9b63dc	-0.07587406
83	0x3e808d71	0.2510791
84	0xbbf016b7	-0.0073269266
85	0xbe313ab9	-0.17307557
86	0x3dfc5961	0.12321735
87	0x3e00284d	0.12515374
88	0x3e125b62	0.14292672
89	0x3ce7c6f5	0.028293112
90	0x3e6686b6	0.22512326
91	0x3d4e62d3	0.050387215
92	0xbe0d8b14	-0.13822585
93	0x3c030db3	0.007998872
94	0xbe61cd97	-0.22051083
95	0xbd497b6a	-0.049189962
96	0x3e38e14a	0.18054691
97	0xbe6a6582	-0.22890285
98	0xbe90dbba	-0.28292638
99	0xbe99ca4e	-0.3003716
100	0xbe600e6b	-0.218805
101	0xbe631004	-0.22174078
102	0xbc447f9f	-0.011993318
103	0x3ec39bf6	0.38204926
104	0x3e334ed3	0.17510538
105	0x3da2765b	0.07932731
106	0x3e559d3c	0.20860761
107	0xbe55a0f7	-0.20862184
108	0xbd475a08	-0.048669845
109	0xbe9828ff	-0.29718778
110	0x3e6cc1bf	0.23120783
111	0xbd07cbea	-0.033153452
112	0x3ea5707a	0.32312375
113	0x3dc212ba	0.09476228
114	0x3e19d4cf	0.15022586
115	0x3e2456ff	0.16048811
116	0x3cebeb5e	0.028798755
117	0xbeb86dce	-0.36021274
118	0x3db03307	0.08603483
119	0x3de9e069	0.11419756
120	0x3da3df55	0.080015816
121	0xbe64f63f	-0.2235956
122	0x3cc962c5	0.02458323
123	0x3dcffe70	0.10155952
124	0xbe754ea6	-0.23955783
125	0x3d60f35d	0.05491959
126	0xbd89de22	-0.067318216
127	0xbe3d7b76	-0.18504128
128	0xbeac75a7	-0.33683512
129	0x3e360bc9	0.17777933
130	0xbd0fabf0	-0.03507608
131	0xbe865226	-0.2623455
132	0x3e0f6752	0.14004257
133	0x3e9fa4d1	0.31180432
134	0x3ea4cac1	0.3218594
135	0xbe78ac89	-0.24284567
136	0x3e4b6e18	0.19866216
137	0x3c9eed57	0.019400282
138	0x3d8f7672	0.070050135
139	0xbe7dcbca	-0.2478477
140	0x3e079071	0.13238694
141	0xbdbffe38	-0.0937466
142	0xbe78eab8	-0.24308288
143	0xbe9ead17	-0.30991432
144	0x3dd35ec1	0.10320807
145	0x3dd47fe4	0.10375956
146	0x3e256766	0.16152725
147	0x3bf8d359	0.007593554
148	0x3e81fac5	0.25386634
149	0x3dc532a0	0.096287966
150	0xbdc06589	-0.09394366
151	0x3e41118f	0.18854354
152	0x3c9e44f8	0.019319996
153	0xbe92f411	-0.28701833
154	0x3e0aabfc	0.1354217
155	0xbe9297c8	-0.28631425
156	0xbe0acbcb	-0.13554303
157	0xbe973666	-0.2953369
158	0x3d9220fd	0.07135198
159	0x3e24be75	0.16088279
160	0xbe05f96c	-0.13083428
161	0x3e9142ab	0.28371176
162	0xbe7c7763	-0.24654917
163	0xbddb6e8d	-0.10714445
164	0x3e4b18ae	0.19833633
165	0xbe8e84c6	-0.27835673
166	0x3d807bf3	0.062736414
167	0x3e25c202	0.1618729
168	0x3e5f0f2b	0.2178313
169	0xbe57ef54	-0.2108739
170	0x3dc063cf	0.09394037
171	0x3e76195a	0.24033108
172	0x3db56ece	0.08859025
173	0xbec30c33	-0.38095245
174	0x3ec3bf31	0.38231805
175	0xbeae1023	-0.33996686
176	0xbbc0f100	-0.0058881044
177	0xbe8182df	-0.2529516
178	0x3ce35ce0	0.027754247
179	0xbcbd1380	-0.023080587
180	0x3d290440	0.04126382
181	0xbe8b02da	-0.27150613
182	0xbe8da349	-0.2766364
183	0x3e5d24d0	0.21596074
184	0x3e732d4c	0.23747748
185	0xbe163ac1	-0.1467085
186	0x3e1058f6	0.14096436
187	0xbb5e7379	-0.0033943339
188	0x3d6fca09	0.058542285
189	0x3e8e72fa	0.27822095
190	0xbe19b922	-0.15012029
191	0xbd4c9bde	-0.049953334
192	0x3ebe4dbf	0.3716869
193	0x3e84593f	0.2584934
194	0xbea8f539	-0.3299959
195	0xbe835250	-0.25648737
196	0x3d47c822	0.048774846
197	0xbcf44f56	-0.029822987
198	0xbe8ffc73	-0.2812229
199	0xbe775835	-0.24154742
200	0xbd80bba2	-0.06285788
201	0x3e1ea29a	0.15491715
202	0x3d9e5d8b	0.07732686
203	0x3dbbdbec	0.09172806
204	0xbcb17148	-0.021660462
205	0xba82b8e2	-0.0009973312
206	0x3e44b976	0.19211373
207	0x3d889af7	0.06670182
208	0x3e19c628	0.15016997
209	0x3e15e138	0.14636695
210	0x3e1e8474	0.15480214
211	0xbe54dcb3	-0.20787315
212	0xbe0c92fe	-0.13727948
213	0x3e556971	0.20841004
214	0xbd2cef7c	-0.042220578
215	0x3e982a4a	0.29719764
216	0xbea1bfc6	-0.31591624
217	0x3d552d5e	0.05204522
218	0xbe2a26db	-0.16616385
219	0xbe1b3dca	-0.1516029
220	0xbeb3fd16	-0.35154027
221	0xbe6d3578	-0.23164928
222	0xbe519149	-0.20465578
223	0x3e3256a3	0.17415862
224	0x3e01d477	0.12678705
225	0x3e1114e3	0.14168124
226	0x3e76e501	0.24110796
227	0x3e193c7c	0.14964479
228	0x3c97d07d	0.018532032
229	0x3e8ffd5b	0.28122982
230	0x3c3c1868	0.011480428
231	0xbdfe7aee	-0.12425791
232	0xbe66cb47	-0.22538482
233	0xbe2717ec	-0.16317719
234	0xbc60f2ac	-0.0137297325
235	0x3e04a4a5	0.12953432
236	0xbe60b334	-0.2194336
237	0x3db2970e	0.08720218
238	0x3da7056a	0.081553295
239	0xbe8dfb1a	-0.27730638
240	0xbe8c90af	-0.27454135
241	0x3e47a347	0.19495879
242	0xbcdcc3fa	-0.026948918
243	0xbe9070b5	-0.2821099
244	0x3eb523bf	0.35378835
245	0xbe01c6f3	-0.1267355
246	0x3e6a2799	0.22866668
247	0x3e83e00f	0.2575688
248	0x3c6e68b5	0.014551331
249	0x3dee82fd	0.11646078
250	0xbdcd1842	-0.100143924
251	0x3e64983f	0.22323702
252	0xbe9a0126	-0.30079
253	0x3e07d006	0.13262948
254	0x3e894d80	0.2681694
255	0xbe5ba940	-0.21451283

linear1.bias f4 [256]
0	0xbe1b31ec	-0.15155762
1	0x3e392aac	0.18082684
2	0x3e963088	0.293339
3	0xbe2ae8bb	-0.16690342
4	0x3dae14ae	0.08500038
5	0xbd1b4ddd	-0.037916053
6	0x3d8fa3c3	0.07013657
7	0x3e70f446	0.23530683
8	0xbd5e04a7	-0.054203656
9	0x3e47672f	0.19472955
10	0x3e74a1b7	0.23889814
11	0x3ea30aff	0.31844327
12	0x3eb56a50	0.35432673
13	0x3d3d992b	0.04628865
14	0xbe91daa7	-0.2848713
15	0x3eb413e6	0.3517143
16	0xbe35d9c2	-0.1775885
17	0x3e973295	0.2953078
18	0xbe76b5cc	-0.24092788
19	0x3cbaa9ce	0.022786047
20	0x3e5b8767	0.2143837
21	0xbe087fbb	-0.13329975
22	0xbe437be4	-0.1909023
23	0xbe7d4858	-0.24734628
24	0x3dd5da75	0.10442058
25	0x3e673d6b	0.22582023
26	0x3e1e2ce5	0.15446813
27	0x3e2d2341	0.1690798
28	0xbdfc0ca8	-0.123071015
29	0xbd96e3b6	-0.07367651
30	0xbe7cebf8	-0.2469939
31	0x3e81dd39	0.25364092
32	0x3e36cc14	0.17851287
33	0x3ebeed63	0.37290487
34	0x3d1df03d	0.038559187
35	0x3d624606	0.05524256
36	0x3e864cd3	0.26230487
37	0x3d2efae0	0.04271972
38	0xbe2c167b	-0.1680545
39	0x3e80b2d9	0.2513645
40	0x3e8e34fe	0.27774805
41	0x3e6f07d4	0.2334283
42	0xbcd48c1d	-0.025945717
43	0xbc9d6bfb	-0.019216528
44	0x3db97e64	0.0905731
45	0x3e9b2036	0.30298012
46	0x3df0c8d6	0.117570564
47	0xbe7554e6	-0.23958167
48	0x3e8cc00b	0.27490267
49	0x3dd4ccb1	0.10390604
50	0x3e80be66	0.25145262
51	0xbd41e3b6	-0.047336303
52	0x3d8f8644	0.07008031
53	0xbde7d095	-0.11319081
54	0xbc6ca206	-0.014442926
55	0x3e09fbf1	0.13475014
56	0xbe8e3e6c	-0.27782
57	0x3ddb64a4	0.10712555
58	0x3eac5f14	0.3366629
59	0x3e82f7fe	0.25579828
60	0xbd9770e6	-0.073945805
61	0x3d9c29d5	0.07625166
62	0xbe581b50	-0.21104169
63	0xbde93fdf	-0.113891356
64	0x3e7d0420	0.24708605
65	0x3ea2adcc	0.31773221
66	0x3e06f53d	0.13179488
67	0xbe4ceb99	-0.20011748
68	0xbe58968f	-0.21151184
69	0x3dd8b2e5	0.105809964
70	0xbdd16710	-0.10224736
71	0xbb6b4045	-0.0035896462
72	0x3e8b5b9d	0.27218333
73	0xbe8168ac	-0.2527517
74	0xbd3ec056	-0.046570145
75	0xbe56c74e	-0.20974466
76	0x3e76ae98	0.2409004
77	0xbdd8772d	-0.10569606
78	0xbdd0237a	-0.101630166
79	0x3e8012dd	0.25014392
80	0x3ea079a3	0.313428
81	0xbe7f5423	-0.2493444
82	0x3e0ca279	0.13733853
83	0xbe17b2f2	-0.14814356
84	0xbe36ce29	-0.17852081
85	0x3e016e6f	0.12639783
86	0x3e5b3d71	0.21410157
87	0xbe833d4d	-0.25632706
88	0x3ebe510a	0.37171203
89	0x3ccd328b	0.025048515
90	0x3e155d6f	0.14586423
91	0x3da02edf	0.0782144
92	0x3ea76090	0.3269086
93	0x3e88c051	0.26709226
94	0x3dbf136d	0.09329877
95	0x3d4a73d0	0.049426854
96	0x3e42e0b0	0.19031024
97	0xbe95c4cd	-0.2925171
98	0xbac55863	-0.0015056249
99	0xbe19ce8b	-0.15020196
100	0xbe3caf4a	-0.18426242
101	0x3d77d3dd	0.060504783
102	0x3ec251fe	0.3795318
103	0x3e37c6ff	0.17947005
104	0x3bc5783d	0.0060262964
105	0x3ebd0538	0.36918044
106	0x3ea04aaa	0.31306964
107	0x3dc36ae5	0.09541873
108	0xbe56bbe6	-0.20970115
109	0x3e3f3461	0.18672325
110	0xbe6e2ff9	-0.23260488
111	0xbe82fb04	-0.25582135
112	0x3c1e0cb6	0.009646585
113	0xbe46f32c	-0.194287
114	0x3d60d7c0	0.054893255
115	0x3dd45c2a	0.103691414
116	0xbcfb867d	-0.030703777
117	0x3e3e2798	0.18569791
118	0x3e961e60	0.2932005
119	0x3eac2df8	0.3362882
120	0x3e37cab1	0.17948414
121	0xbe092501	-0.13393022
122	0x3ea47e69	0.32127693
123	0x3da222c6	0.07916789
124	0x3e9e3175	0.30897108
125	0x3d9ab64f	0.07554304
126	0xbe5a3e51	-0.21312834
127	0x3cd841f3	0.026398635
128	0x3e8dfb38	0.27730727
129	0x3deb77d1	0.114974625
130	0xbe2e27d7	-0.17007385
131	0x3e92a0e8	0.28638387
132	0xbe51ca50	-0.20487332
133	0x3e4d95a2	0.20076612
134	0xbd8255cb	-0.0636402
135	0x3e5f646e	0.21815655
136	0x3b5169c6	0.0031953915
137	0x3e9ba951	0.30402616
138	0x3e8daea2	0.27672297
139	0xbdeb775b	-0.114973746
140	0x3dbba795	0.09162823
141	0xbe2a5928	-0.16635573
142	0x3e117ec1	0.14208509
143	0xbe81a2a0	-0.25319386
144	0x3e042236	0.12903675
145	0x3ea16f9b	0.3153046
146	0x3df82bc2	0.12117721
147	0x3e09c527	0.13454114
148	0x3e7abe2f	0.24486612
149	0x3ddd86d1	0.1081673
150	0x3e9ffd4b	0.31247935
151	0x3e89b265	0.26893917
152	0x3ebb51b8	0.36585784
153	0x3e79fa27	0.24411832
154	0xbe46489f	-0.1936364
155	0x3e214636	0.1574944
156	0x3e49bb38	0.19700325
157	0x3c61be2a	0.013778249
158	0xbe80a777	-0.25127766
159	0x3e13a2ad	0.14417525
160	0x3ec372e8	0.38173604
161	0x3e040cbb	0.12895481
162	0x3e30d3b0	0.17268252
163	0x3e94dcd8	0.2907474
164	0x3e9496ee	0.290214
165	0xbe95b494	-0.29239333
166	0x3e366989	0.17813696
167	0x3ec09523	0.37613782
168	0x3d9d7518	0.076883495
169	0x3e3265cc	0.17421645
170	0x3e36ec89	0.17863669
171	0x3d5d4d19	0.054028604
172	0x3da26d45	0.07930998
173	0x3e9c9c78	0.30588126
174	0xbd33c25d	-0.04388653
175	0x3da4d6fb	0.08048817
176	0xbe801fd7	-0.25024292
177	0x3e9c62ab	0.30544028
178	0x3dae3be9	0.08507521
179	0xbe82714f	-0.25477073
180	0x3e506db4	0.20354348
181	0xbe66b3c0	-0.22529507
182	0xbe8079f3	-0.2509304
183	0x3eaa2602	0.33232123
184	0xbe80b810	-0.2514043
185	0xbe5f5ddb	-0.21813147
186	0xbe043eda	-0.12914601
187	0x3db5541a	0.08853932
188	0x3e802f2e	0.25035995
189	0xbe1760e6	-0.14783058
190	0x3e83120c	0.25599706
191	0x3e91709a	0.2840622
192	0xbe89d416	-0.2691962
193	0x3e684569	0.22682728
194	0xbdba75a9	-0.09104473
195	0xbbee4000	-0.007270813
196	0xbdc58382	-0.09644224
197	0xbe05100e	-0.12994406
198	0x3e8bea8b	0.2732738
199	0x3dc0ecc0	0.094201565
200	0x3da5b8db	0.08091899
201	0x3d1143ea	0.03546516
202	0xbe7cd3c1	-0.24690153
203	0x3e15ec14	0.14640838
204	0xbde9d447	-0.11417442
205	0xbdfc4c67	-0.1231926
206	0x3e9c90af	0.30579135
207	0xbd84a394	-0.064765126
208	0xbd8a5fc8	-0.0675655
209	0x3a4ce8ac	0.0007816653
210	0x3eae0eb6	0.339956
211	0x3e820dcf	0.2540116
212	0x3ec5e250	0.38649225
213	0xbe2ca4a3	-0.16859679
214	0x3ea73354	0.32656348
215	0xbdd5fcce	-0.10448609
216	0x3ec60c00	0.3868103
217	0xbd96cf87	-0.073638014
218	0x3e6165ab	0.2201144
219	0xbe3acb78	-0.1824168
220	0xbd695ce7	-0.056973364
221	0x3d11fb28	0.035639912
222	0x3e9bb3b5	0.30410543
223	0xbe87b861	-0.26507857
224	0x3e8f29e6	0.27961653
225	0xbd0853dc	-0.0332831
226	0xbc6c9462	-0.014439674
227	0xbe2be2f1	-0.1678579
228	0xbd25f706	-0.040518783
229	0xbd5a5d1f	-0.053311463
230	0xbdc65c80	-0.09685612
231	0xbe2d7d3a	-0.16942301
232	0x3e3cff45	0.18456753
233	0xbe8ff609	-0.28117397
234	0x3e49d88d	0.19711514
235	0x3ea6161f	0.32438752
236	0xbe7356ce	-0.23763582
237	0x3e799223	0.24372153
238	0xbe396c69	-0.18107761
239	0x3dbb3827	0.091415696
240	0x3e5642f6	0.20923981
241	0x3e0e29cd	0.13883133
242	0xbe6e17a9	-0.23251213
243	0xbe755c1f	-0.23960923
244	0x3eb0a64c	0.34501874
245	0x3e0041ff	0.12525176
246	0xbe2a2d9e	-0.16618964
247	0xbe1d33c8	-0.15351784
248	0x3ebe67ab	0.37188467
249	0x3cad1b79	0.021131264
250	0xbe8a844b	-0.27054057
251	0x3dc3c33a	0.09558721
252	0x3ea474e5	0.32120433
253	0xbdbb48f7	-0.09144776
254	0x3d815a90	0.063161016
255	0x3e30b41d	0.17256208

linear2.weight f4 [512, 256]
0	0x3c939f68	0.018020347
1	0xbd69767e	-0.05699777
2	0x3c74f702	0.014951469
3	0x3d72bd5a	0.05926261
4	0x3d342b60	0.043986678
5	0xbd3161a0	-0.043305993
6	0xbcbdd559	-0.023173021
7	0xbd4af8bb	-0.049553614
8	0xbd2be450	-0.041965783
9	0x3c7c6d72	0.015406953
10	0x3d14cba5	0.036327023
11	0xbcfb3c67	-0.03066845
12	0x3c3f152a	0.011662761
13	0x3d3cb54e	0.046071343
14	0x3d1763ee	0.036960535
15	0xbbb90c44	-0.005647214
16	0x3d1c5bba	0.038173415
17	0x3d0ffff3	0.0351562
18	0xbcb37587	-0.021906627
19	0x3d6e4d6c	0.058179304
20	0x3d183696	0.037161432
21	0x3c0fff27	0.00878886
22	0xbd1958ab	-0.037438076
23	0xbd3b424c	-0.045717523
24	0xbc4b89e6	-0.012423014
25	0xbd800744	-0.06251386
26	0xbc80bd4d	-0.015715266
27	0xbc8845f7	-0.016634924
28	0xbd4956e5	-0.049155135
29	0x3d2f71f5	0.042833287
30	0x3c6ce238	0.014458232
31	0xbc280214	-0.010254402
32	0x3d08cc64	0.033398047
33	0xbc892e5b	-0.016745737
34	0xbc839dfd	-0.016066546
35	0xbbe654fe	-0.007029175
36	0xbd68fc67	-0.056881335
37	0x3d7161ad	0.05893104
38	0x3d6bd33d	0.0575745
39	0x3d2990bb	0.04139779
40	0x3d69ab37	0.05704805
41	0x3d1760f7	0.036957707
42	0xbd45137b	-0.04811428
43	0xbd2a539a	-0.041583635
44	0xbaace86a	-0.0013191823
45	0xbd09882e	-0.033577137
46	0x3b8913ea	0.004183282
47	0xbcd78c5c	-0.026312046
48	0x3d56afb3	0.052413654
49	0x3d705d0e	0.058682494
50	0xbd220bdb	-0.039562088
51	0x3c2a6a85	0.010401373
52	0xbcdfd588	-0.0273235
53	0x3d50540a	0.050861396
54	0x3c42d3cc	0.011891317
55	0xbd43e94c	-0.04782991
56	0x3d6d7fa2	0.05798305
57	0xbd6ed66f	-0.05830997
58	0xbc41a179	-0.011818283
59	0xbd4e62d0	-0.050387204
60	0x3cfd1bc0	0.030897021
61	0x3d4a21f4	0.049348786
62	0x3d5910c8	0.05299452
63	0xbd36f57d	-0.04466771
64	0xbd6b94a1	-0.05751479
65	0xbc203e34	-0.009780455
66	0xbd37bbb5	-0.044856746
67	0x3d4dc87d	0.05024003
68	0xbd3a6733	-0.045508575
69	0xbba73710	-0.0051029995
70	0x3c79e600	0.01525259
71	0x3a885f1d	0.0010404323
72	0x3d5979c7	0.05309465
73	0xbd2ee777	-0.04270121
74	0xbd5ddb3c	-0.054164156
75	0x3ceb0814	0.028690375
76	0xbc65d62e	-0.014028115
77	0xbc505014	-0.012714405
78	0xbcf0d929	-0.029400425
79	0xbca8029f	-0.020509062
80	0x3b77346c	0.0037720455
81	0x3c69da93	0.014273304
82	0xbbe3f3d4	-0.006956557
83	0xbca2218e	-0.01979139
84	0x3d401326	0.04689326
85	0xbc7281e0	-0.014801472
86	0xbcb41c2e	-0.021986093
87	0x3d6e135f	0.058123942
88	0xbce83344	-0.028344758
89	0x3d484354	0.048892334
90	0x3c18f7f1	0.009336458
91	0xbd19b38a	-0.037524737
92	0x3cbfe23e	0.02342331
93	0x3d6c4e22	0.0576917
94	0x3d62bdc5	0.05535676
95	0x3c76d026	0.015064275
96	0x3d2c42da	0.042055942
97	0x3cdcb3b4	0.026941158
98	0x3d668d45	0.05628707
99	0x3d6acba4	0.057323113
100	0x3d399392	0.04530675
101	0xbc215906	-0.009847885
102	0xbd26d4a6	-0.04073014
103	0x3cf25764	0.029582687
104	0x3c151e15	0.00910141
105	0x3c4e2126	0.012581145
106	0xbd81d9b0	-0.06340349
107	0xbce7d63c	-0.028300397
108	0xbd5b4ec0	-0.0535419
109	0xbbde7e02	-0.0067899236
110	0xbd2609f2	-0.04053683
111	0xbca26b40	-0.019826531
112	0xbd7b5762	-0.06136263
113	0xbba61b00	-0.0050691366
114	0xbd68bfc0	-0.056823492
115	0x3ccfb33b	0.025354018
116	0x3c05fbe3	0.00817773
117	0x3d30ecf9	0.043194745
118	0x3d1c07a2	0.038093217
119	0x3bd20d3a	0.006410268
120	0x3d03793b	0.032098036
121	0x3b1f0a8f	0.0024267768
122	0xbcb796c6	-0.022410762
123	0x3d49f050	0.049301445
124	0x3d6d3ad5	0.057917435
125	0xbcba383f	-0.022731898
126	0x3bceb78e	0.0063085025
127	0xbd2218cd	-0.039574433
128	0x3d386cf1	0.04502577
129	0x3d5616bb	0.05226777
130	0x3d4ca6f7	0.049963918
131	0xbd807f9d	-0.0627434
132	0xbc422568	-0.011849739
133	0x3ca41a0a	0.020031948
134	0xbcbfe5cd	-0.023425007
135	0xbd143ead	-0.036192585
136	0xbccf9f8f	-0.025344638
137	0xbce4174e	-0.027843144
138	0xbd68f1a7	-0.056871083
139	0xbd09ea26	-0.033670567
140	0x3d61b108	0.05510047
141	0xbd75c0e0	-0.059998393
142	0xbbca1fae	-0.0061683273
143	0xbd0aca6a	-0.033884443
144	0x3caee507	0.021349443
145	0x3d15e277	0.036592927
146	0x3cddc997	0.027073665
147	0x3cc2990b	0.023754617
148	0x3c4296d5	0.0118767815
149	0x3cdd6cb7	0.027029378
150	0xbd4b82dc	-0.049685344
151	0x3d17e3c0	0.037082434
152	0x3bdb4604	0.006691696
153	0x3c88d613	0.016703641
154	0xbd2e5680	-0.04256296
155	0xb99a8604	-0.00029473018
156	0x3cc8d48b	0.02451541
157	0xbd0a4673	-0.03375859
158	0x3c88d43c	0.016702764
159	0xbd38b1fc	-0.045091614
160	0x3d302cf8	0.043011636
161	0xbb911e0c	-0.0044286307
162	0x3d607a34	0.054804042
163	0x3be83e91	0.0070875366
164	0xbd84812f	-0.06469952
165	0x3d3f9962	0.046777137
166	0x3d6ae697	0.057348814
167	0x3d468767	0.048468973
168	0x3c4870b8	0.0122339055
169	0xbd1601a7	-0.03662267
170	0xbd84b0a2	-0.064790025
171	0xbd464e7b	-0.04841469
172	0x3c2ec035	0.010665943
173	0x3ca2c7b4	0.019870616
174	0x3d1f303b	0.038864356
175	0x3cad6a4f	0.021168856
176	0xbd3e0f19	-0.046401117
177	0x3c0daf35	0.00864773
178	0x3d5818ac	0.052757904
179	0xbd00fd57	-0.031491604
180	0x3d6fe8b8	0.058571547
181	0x3cfac248	0.030610219
182	0x3d6d45fa	0.057928063
183	0xbc698130	-0.014251992
184	0x3af916c8	0.0019003982
185	0xbd57bf1a	-0.052672483
186	0x3cdfc80c	0.02731707
187	0xbcb6c13d	-0.02230894
188	0x3c4361f3	0.011925208
189	0x3d50ef93	0.051009726
190	0x3ccd5dca	0.025069136
191	0xbd5f4c49	-0.05451611
192	0xbc5c6ecf	-0.013454153
193	0x3c9fbda0	0.0194996
194	0x3c1ea102	0.009681942
195	0x3c9079b6	0.017636161
196	0xbc4de4a8	-0.012566723
197	0x3d1419f1	0.036157552
198	0x3d44feef	0.048094686
199	0x3d4a6aac	0.049418136
200	0x3bdfcb80	0.006829679
201	0xbd33c32d	-0.043887306
202	0xbc8892d4	-0.016671576
203	0xbcfdc267	-0.030976487
204	0xbc070618	-0.008241199
205	0xbd72ef8e	-0.05931049
206	0xbd1b1187	-0.037858512
207	0x3b412e7a	0.0029477165
208	0xbad7ef7d	-0.0016474571
209	0xbd3b17d6	-0.04567703
210	0xbd0cad42	-0.03434492
211	0xbc427915	-0.0118696885
212	0x3c0cb769	0.00858865
213	0x3cae16fc	0.021251194
214	0xbcb47b5b	-0.022031477
215	0xbc7368b8	-0.01485651
216	0xbb2c5041	-0.0026292952
217	0x3d5b9521	0.053609017
218	0x3d6be22c	0.05758874
219	0xbc08e210	-0.008354679
220	0x3cdaba75	0.026700238
221	0x3b5c1923	0.0033584319
222	0xbd61eb10	-0.055155814
223	0xbd588721	-0.052863244
224	0xbc9703fb	-0.018434515
225	0x3cb98153	0.022644674
226	0x3c087f7f	0.008331179
227	0x3caf4d07	0.021399034
228	0xba8aa3f9	-0.0010577432
229	0x3b89c08d	0.004203862
230	0x3d3f2108	0.04666236
231	0x3cdbc8d9	0.02682917
232	0xbc2e73f3	-0.010647762
233	0xba2a2d4d	-0.00064917357
234	0xbd160057	-0.036621418
235	0xbd72f8ad	-0.059319187
236	0xbd158b18	-0.036509603
237	0x3cc0840e	0.023500469
238	0xbd7f78ac	-0.06237094
239	0x3ce3c180	0.027802229
240	0xbd8830ad	-0.06649909
241	0xbc10f846	-0.0088482555
242	0x3c2445ed	0.010026437
243	0xbb8e50d7	-0.004343133
244	0xbce4527d	-0.027871365
245	0xbc9b6f30	-0.018973917
246	0x3cc6d514	0.024271525
247	0xbc431f9d	-0.011909393
248	0xbd17ecf5	-0.037091214
249	0xbb15796c	-0.0022807969
250	0xbce74860	-0.028232753
251	0xbd7532fc	-0.059863076
252	0xbd747479	-0.05968139
253	0x3d5c2e4f	0.0537551
254	0xbc245bdf	-0.010031669
255	0xbbabfbcc	-0.0052485224

linear2.bias f4 [512]
0	0x3d4898df	0.048973914
1	0xbd2086d7	-0.039191093
2	0xbcff9e24	-0.031203337
3	0x3d175b5d	0.036952365
4	0xbd6c2f61	-0.05766237
5	0x3cbfe8b5	0.023426393
6	0xbc623734	-0.013807107
7	0xbc82f3e0	-0.01598543
8	0xbd21a6f1	-0.03946585
9	0xbd0e55bb	-0.034749728
10	0x3d1a484c	0.037666604
11	0xbd5a8aa9	-0.053354893
12	0xbd08db6c	-0.033412382
13	0x3dcea2f1	0.10089672
14	0x3d580011	0.05273444
15	0xbc88829e	-0.016663846
16	0x3d206794	0.03916128
17	0xbc2438af	-0.01002328
18	0xbd51caed	-0.051218916
19	0x3e02f283	0.12787823
20	0x3d80a09d	0.062806346
21	0x3d5c49f9	0.053781483
22	0x3e072f64	0.13201672
23	0xbcc19aa7	-0.023633314
24	0xbd667f51	-0.056273762
25	0xbcb66c36	-0.022268396
26	0x3d6923c5	0.056918878
27	0x3d720d09	0.059094463
28	0xbd427df6	-0.047483407
29	0xbc7200be	-0.014770685
30	0xbccf4710	-0.02530244
31	0x3e04146c	0.12898415
32	0x3cc9627d	0.024583096
33	0x3e06b48e	0.13154814
34	0xbd143bea	-0.03618995
35	0x3d1a42ae	0.037661247
36	0xbc80c442	-0.015718583
37	0x3a255671	0.0006307131
38	0x3d2f6f46	0.042830728
39	0x3afd999c	0.0019348147
40	0xbcf50644	-0.029910214
41	0x3c922afa	0.017842758
42	0x3c340936	0.010988524
43	0x3d05729c	0.032580003
44	0x3dcad42c	0.0990375
45	0x3ddaccc5	0.10683588
46	0xbd7fb3d7	-0.062427368
47	0x3d97cc3f	0.07412004
48	0x3d0ce5cc	0.03439884
49	0xbcfaa083	-0.030594116
50	0x3bb4810f	0.005508549
51	0x3e03c889	0.12869467
52	0x3cd0ac50	0.02547279
53	0x3cd1ddc9	0.02561845
54	0x3d1f6c57	0.03892168
55	0x3df268aa	0.11836369
56	0x3cef2b83	0.029195553
57	0x3c80e08b	0.01573207
58	0x3daac548	0.0833841
59	0x3d330372	0.043704458
60	0x3cb0300c	0.021507286
61	0x3d2b30a3	0.04179443
62	0x3d4af3e3	0.049548995
63	0x3c3fe09c	0.011711266
64	0xbb931bfa	-0.004489419
65	0x3e00cd64	0.1257835
66	0x3d5a5408	0.053302795
67	0xbd5f20d1	-0.054474656
68	0x3a9bdd9d	0.0011891607
69	0x3e031f4d	0.12804909
70	0x3d99cab5	0.075093664
71	0x3dec63fc	0.11542508
72	0x3d0b492f	0.03400534
73	0xbcffd805	-0.031230936
74	0x3d9538c1	0.072862156
75	0xbb41f26c	-0.0029593958
76	0x3d91a01b	0.07110616
77	0x3d61b8a1	0.055107716
78	0x3d0d94e3	0.034565818
79	0x3de44c87	0.11147409
80	0x3cd8c18c	0.026459478
81	0xbd36b8e0	-0.044609904
82	0x3d6723ea	0.056430735
83	0x3d61a97b	0.05509327
84	0x3c6e3d6d	0.014541012
85	0xbd5259e6	-0.051355265
86	0x3d97b5f6	0.07407753
87	0xbd03b0d6	-0.032151066
88	0x3b8b9219	0.0042593596
89	0xbc0568ee	-0.008142693
90	0xbb55cc69	-0.0032623059
91	0x3db238ac	0.087022156
92	0x3d5ce356	0.053927742
93	0x3e0ac2b6	0.13550839
94	0x3cb1dd56	0.021711987
95	0x3e090feb	0.13384978
96	0xbd1af114	-0.037827566
97	0x3db7e230	0.08978689
98	0xbc4c0e0d	-0.012454522
99	0x3de8f7eb	0.113754116
100	0xbd0a3b07	-0.0337477
101	0x3d1d7621	0.038442735
102	0xbc322260	-0.010872453
103	0x3dcc5070	0.0997628
104	0x3d52c57b	0.051457863
105	0x3e08fca5	0.13377626
106	0x3d538195	0.05163725
107	0xbd322c7f	-0.043499466
108	0x3d6c38f9	0.05767152
109	0xbb1275ee	-0.0022348124
110	0x3cfbf76b	0.030757627
111	0x3d03b2f7	0.032153096
112	0x3d37beeb	0.044859808
113	0x3e04dea8	0.12975562
114	0x3cb2ca1b	0.021824887
115	0xbb40af86	-0.0029401495
116	0xbd564f89	-0.052321944
117	0xbd029a61	-0.03188551
118	0xbd5564c5	-0.052098054
119	0x3b818a15	0.0039532282
120	0xbd09a2ac	-0.0336024
121	0x3c867d3a	0.016417135
122	0x3e0d0a83	0.13773541
123	0x3cabf2a0	0.020989716
124	0x3c990f72	0.018684123
125	0xb9af8571	-0.00033478023
126	0x3d2aed5b	0.041730266
127	0x3e098dc9	0.13432993
128	0x3dbbf024	0.091766626
129	0x3d3fcb42	0.0468247
130	0xbb57c71c	-0.0032925075
131	0x3cd8bcdf	0.026457248
132	0xbd638540	-0.055547
133	0xbc4a1ebe	-0.012336431
134	0xbd090478	-0.033451527
135	0x3ddbfe51	0.107418664
136	0xbd33c280	-0.04388666
137	0x3ca8ce83	0.020606285
138	0x3d46bdd2	0.04852087
139	0x3c002111	0.007820384
140	0x3e0cdeac	0.13756818
141	0xbcd38a14	-0.025822677
142	0xbca79b0c	-0.020459674
143	0x3dc7c207	0.09753805
144	0xbd84c898	-0.06483573
145	0x3cbbeaee	0.022939172
146	0xbd7c4522	-0.061589368
147	0x3cb6552e	0.022257414
148	0xbd7b0014	-0.06127937
149	0xbc1f43c0	-0.009720743
150	0xbcd7b8fa	-0.02633332
151	0x3d50cf17	0.050978746
152	0x3dc10aa8	0.09425861
153	0xbcac1e68	-0.021010593
154	0xbc1d1f09	-0.009589919
155	0x3db95b64	0.090506345
156	0x3cef2fa0	0.029197514
157	0xbd679062	-0.05653418
158	0xbbd83c76	-0.0065990044
159	0x3de325eb	0.11091217
160	0x3cdda322	0.027055327
161	0x3db67a8d	0.089100935
162	0x3dc81a97	0.097706966
163	0x3c06f748	0.008237667
164	0x3de027a9	0.109450646
165	0xbc979a16	-0.018506091
166	0x3df2a5fa	0.11848064
167	0xbcf977ff	-0.030452726
168	0x3caf7fc4	0.021423228
169	0x3d8f26e3	0.06989839
170	0x3ceba6fa	0.028766144
171	0x3d1fc735	0.039008338
172	0x3d5c7a7f	0.05382776
173	0x3ce9cb71	0.028539391
174	0xbc0dcf5f	-0.008655398
175	0xbcb48610	-0.022036582
176	0x3cfd72c3	0.030938512
177	0x3dd5984c	0.10429439
178	0x3dea8f77	0.11453145
179	0xbca76349	-0.020433085
180	0x3df20060	0.11816478
181	0x3d7a25ad	0.061071087
182	0x3d0ba16a	0.034089483
183	0x3d259e83	0.04043437
184	0xbcc4eafe	-0.024037834
185	0x3c1b891b	0.009493138
186	0xbc9033fc	-0.017602913
187	0xbd22b047	-0.039718892
188	0xbcbc656f	-0.022997586
189	0xbd020e2e	-0.031751804
190	0x3ce2e40d	0.027696634
191	0xbd71ac16	-0.059002005
192	0xbd277dac	-0.040891334
193	0x3df5ff79	0.12011618
194	0x3cfeabc8	0.031087771
195	0x3de58add	0.11208127
196	0x3cd3946b	0.025827607
197	0x3d607e3a	0.05480788
198	0xbce5026c	-0.027955256
199	0x3cfe1a45	0.031018386
200	0x3cdce63a	0.02696525
201	0x3dfe2eed	0.12411294
202	0x3cc82c22	0.024435107
203	0x3c700de7	0.014651752
204	0x3c054236	0.008133462
205	0x3e076c9d	0.13225026
206	0x3d866bbd	0.06563518
207	0x3cd54a0c	0.026036285
208	0x3dc856fe	0.097822174
209	0x3d9821a6	0.07428293
210	0xbd6a964a	-0.057272233
211	0xbd8381b1	-0.06421221
212	0xbcc7a97f	-0.024372814
213	0x3dc620b3	0.09674206
214	0x3c0c6c1b	0.008570696
215	0xbd6b9bc0	-0.05752158
216	0xbd6a1a7a	-0.057154156
217	0xbd7b7c86	-0.06139805
218	0x3cedd3ac	0.029031597
219	0xbd533b4c	-0.05157022
220	0x3e025fa0	0.1273179
221	0x3d2b94b2	0.041889854
222	0x3d34487e	0.044014446
223	0x3d216208	0.03940013
224	0x3d2aa6bd	0.04166292
225	0x3d38f119	0.045151804
226	0x3d830dbc	0.06399104
227	0x3e032c2d	0.1280982
228	0x3d930352	0.07178368
229	0xbd814da4	-0.06313637
230	0x3ced143c	0.028940313
231	0x3c0a89f6	0.008455744
232	0xbd2a8469	-0.041630182
233	0x3cbc984c	0.02302184
234	0x3d34a5c0	0.044103384
235	0xbd31246a	-0.043247618
236	0x3d215e4b	0.039396565
237	0xbc073ace	-0.008253766
238	0xbc574a38	-0.013140254
239	0x3d14784d	0.03624754
240	0xbd38ae8a	-0.04508833
241	0x3d5b1ed4	0.053496197
242	0x3c47c49f	0.012192874
243	0xbd567b7b	-0.052363854
244	0x3c7cdd07	0.015433556
245	0xbd315508	-0.043293983
246	0x3a6af861	0.0008963403
247	0x3db8c27c	0.0902147
248	0xbada85ca	-0.0016671952
249	0x3db3b2bc	0.08774325
250	0xbcfafb18	-0.030637309
251	0x3d6df2ef	0.058093008
252	0x3d3b4579	0.04572055
253	0xbd33b232	-0.043871112
254	0x3d494f3e	0.049147837
255	0xbca895bf	-0.020579217

linear3.weight f4 [1, 512]
0	0xbd10198f	-0.035180625
1	0x3d11352b	0.035451096
2	0x3d1ef032	0.038803287
3	0xba421605	-0.0007403794
4	0xbba7e4bc	-0.005123703
5	0xbd12e57f	-0.035863396
6	0xbbbc89be	-0.005753725
7	0x3cb847f2	0.022495244
8	0x3d2605ad	0.040532757
9	0x3c8b83c4	0.017030604
10	0x3dfba728	0.12287742
11	0xbcc85349	-0.024453776
12	0x3d2b3233	0.04179592
13	0x3e01d292	0.12677982
14	0xbc8f75f5	-0.017512301
15	0xbd094cab	-0.033520382
16	0x3dfdbfe3	0.12390115
17	0x3c29343b	0.010327394
18	0xbc051121	-0.00812176
19	0x3da3c97b	0.07997414
20	0x3db61077	0.08889859
21	0xbca0fdd9	-0.019652294
22	0x3ddec491	0.10877336
23	0x3c4248d5	0.011858185
24	0xbc9f404b	-0.019439837
25	0xbb9b44b7	-0.004738416
26	0x3dc64a74	0.096821696
27	0x3e0320b6	0.12805447
28	0xbbbd0777	-0.005768712
29	0xbd0c58f5	-0.034264524
30	0x3cfcbcd5	0.03085176
31	0x3e02b0cd	0.12762757
32	0xbc3c9440	-0.011509955
33	0x3dea2aae	0.11433922
34	0x3b886ae2	0.004163132
35	0xbcd2937f	-0.025705097
36	0x3c3d2207	0.011543757
37	0xbaef8666	-0.0018274307
38	0xbc1446ac	-0.009050053
39	0xba3135e9	-0.00067600474
40	0xbcecbc5a	-0.028898407
41	0x3dfc85c9	0.12330205
42	0x3c6a9c5f	0.014319508
43	0x3c754d34	0.01497202
44	0x3dd26e5b	0.10274955
45	0x3df281c1	0.11841155
46	0x3c95eeb1	0.018302293
47	0x3e05b141	0.13055898
48	0xbd03c902	-0.032174118
49	0x3d231ea0	0.03982413
50	0xbcffa0ab	-0.031204542
51	0x3dd726e8	0.10505468
52	0x3dd60833	0.104507826
53	0xbcc20e48	-0.02368845
54	0x3e07f6b8	0.1327771
55	0x3e08dc04	0.1336518
56	0x3ce762cb	0.02824535
57	0x3df4ecf8	0.11959261
58	0x3deca4fb	0.11554905
59	0x3dc80c45	0.09767965
60	0x3ddc489d	0.107560374
61	0xbcbd3b4f	-0.02309957
62	0xbcdfed0b	-0.02733471
63	0xbba4aeeb	-0.0050257347
64	0x3b1cdd21	0.0023935514
65	0x3e00b0e9	0.12567486
66	0xbc571400	-0.013127327
67	0xbce1cb25	-0.027562687
68	0xbb314f72	-0.002705541
69	0x3ddc263f	0.10749482
70	0x3db694a3	0.08915069
71	0x3dcdac71	0.10042656
72	0x3d24ac3f	0.04020333
73	0xba960738	-0.0011446243
74	0x3de08580	0.10962963
75	0x3c1cb9ba	0.009565765
76	0x3db3c9e5	0.08778743
77	0x3d25c6f1	0.04047293
78	0xbcff926b	-0.031197747
79	0x3dd754ab	0.10514196
80	0xbb947fe8	-0.004531849
81	0x3ce3d5be	0.027811881
82	0x3db92ade	0.090413794
83	0x3e09b4d7	0.13447891
84	0xbd239b0e	-0.039942794
85	0xbd208f6f	-0.03919929
86	0x3dd75008	0.105133116
87	0xbd29f54e	-0.041493706
88	0xbca42280	-0.020035982
89	0xbce7818e	-0.028260019
90	0x3be94b80	0.007119596
91	0x3dfef0e8	0.12448293
92	0x3dc7675b	0.0973651
93	0x3dc57363	0.09641149
94	0xbb9ca0f1	-0.004779928
95	0x3dc9084a	0.09816034
96	0xbbc52b47	-0.006017122
97	0x3da43fb0	0.0801996
98	0xbcd3fe04	-0.02587796
99	0x3dd65cbe	0.10466908
100	0xbcbf54f7	-0.023355944
101	0xbd0d7448	-0.034534723
102	0x3cddd7ce	0.027080443
103	0x3e0742d7	0.13209091
104	0xbc81ff79	-0.01586889
105	0x3e001f6b	0.12511985
106	0xbce7d383	-0.028299099
107	0xbcbba370	-0.022905082
108	0x3de9421c	0.113895625
109	0xbcae9fbf	-0.021316407
110	0x3e0425ac	0.12904996
111	0xbd1fc445	-0.039005537
112	0x3c9bc5fe	0.019015308
113	0x3dd70ec0	0.1050086
114	0xba9477ca	-0.0011327204
115	0xbbc11c8f	-0.005893297
116	0xbc4958da	-0.01228925
117	0xbd0f926b	-0.035051744
118	0xbd011076	-0.03150984
119	0xbb966c33	-0.004590535
120	0x3d048faa	0.03236357
121	0xbcd09678	-0.025462374
122	0x3dd990cb	0.1062332
123	0xbab65820	-0.0013911761
124	0xbba09026	-0.0048999963
125	0xbd0a0478	-0.033695668
126	0x3de0f92d	0.109850265
127	0x3e019dc4	0.12657839
128	0x3de04c2e	0.1095203
129	0x3dcc5cc2	0.0997863
130	0x3db3b0e4	0.087739736
131	0xbc964e77	-0.018347962
132	0xbd22ce5c	-0.03974758
133	0x3c3189c1	0.010836066
134	0x3c8fabcc	0.017537974
135	0x3dfae9ec	0.12251648
136	0xbcea03c3	-0.028566247
137	0x3da77d75	0.08178226
138	0xbcc8657b	-0.024462452
139	0x3d067c1b	0.0328332
140	0x3dc9ad32	0.098474875
141	0x3ca0c89a	0.019626904
142	0xbca31505	-0.019907484
143	0x3e05b8a9	0.13058724
144	0xbcbf1ab1	-0.023328157
145	0xbd052cb8	-0.03251335
146	0xbd0991a5	-0.033586163
147	0x3df7cc97	0.12099569
148	0xbb2cfba1	-0.00263951
149	0x3d0317db	0.032005172
150	0x3c867832	0.016414735
151	0xbcabe504	-0.020983227
152	0x3da899af	0.08232438
153	0xbd020ef9	-0.03175256
154	0x3aa4b339	0.001256562
155	0x3dc9eb22	0.09859301
156	0x3bd64f9e	0.006540253
157	0xb9f60782	-0.0004692637
158	0xbc263aad	-0.010145825
159	0x3dc42eb0	0.095792174
160	0xbd1594f9	-0.036519025
161	0x3e059839	0.1304635
162	0x3da85192	0.08218683
163	0x3cd86da0	0.02641946
164	0x3dceddb7	0.101008825
165	0xbce58f00	-0.02802229
166	0x3dcd541b	0.100258075
167	0xba3e3600	-0.00072559714
168	0x3df9bcff	0.12194251
169	0x3df4d29f	0.11954235
170	0xbd0cadf5	-0.034345586
171	0xbcddb25d	-0.02706259
172	0x3dff1928	0.1245597
173	0xbc8c7dca	-0.017149825
174	0xbd1ace1c	-0.037794217
175	0xbb151365	-0.0022747156
176	0x3e021f3b	0.12707226
177	0x3e016a76	0.12638268
178	0x3dcde606	0.10053639
179	0x3cce0763	0.025150007
180	0x3dd68507	0.10474592
181	0x3daa3cec	0.08312401
182	0xbcd7daf4	-0.026349522
183	0xbc0b9cf4	-0.008521307
184	0xbc94fadc	-0.018186025
185	0xbc8cca8f	-0.017186431
186	0x3b1a1030	0.0023508184
187	0xbc87b024	-0.016563483
188	0x3b1b6f4b	0.0023717459
189	0xbc8cdb63	-0.017194455
190	0x3cc376e4	0.023860402
191	0x3bb04277	0.005379017
192	0x3d2bb519	0.041920755
193	0x3dd2187c	0.10258576
194	0x3ce9c578	0.028536543
195	0x3dd85549	0.10563142
196	0x3da4ec91	0.08052934
197	0x3dc015d9	0.09379167
198	0xbba92a50	-0.0051625147
199	0xbc86a322	-0.01643521
200	0xbcfb734f	-0.030694632
201	0x3dab51e8	0.08365232
202	0xbceae010	-0.028671294
203	0x3d9d1a62	0.07671048
204	0xbab3d827	-0.0013721035
205	0x3dda0aef	0.10646617
206	0x3df0d35e	0.11759065
207	0xbcf7ee76	-0.030265074
208	0x3ddaa643	0.10676243
209	0x3dc972be	0.098363385
210	0xbd27f2af	-0.041002925
211	0x3aee66d5	0.0018188605
212	0xbcf2ee33	-0.029654598
213	0x3d80fe03	0.06298449
214	0x3cdbdfa1	0.026840033
215	0x3a0032e2	0.00048903946
216	0xbac34f8c	-0.0014901026
217	0xbd11920b	-0.035539668
218	0x3cbc6ac2	0.023000125
219	0xbce9eb5c	-0.02855461
220	0x3dd8fcd5	0.10595099
221	0x3dccc99b	0.09999391
222	0xbc76ef35	-0.01507168
223	0x3db4dfd6	0.08831756
224	0x3dc2bbd9	0.09508485
225	0xbb173652	-0.002307315
226	0x3dc9b8f8	0.09849733
227	0x3defa4e5	0.11701373
228	0x3dd3f064	0.10348585
229	0xbd150939	-0.03638575
230	0xbc93850f	-0.018007783
231	0xbd2684b9	-0.040653918
232	0xbcdbf71b	-0.026851228
233	0xbbe3d935	-0.0069533833
234	0x3d211d77	0.03933474
235	0x3cb1498a	0.021641511
236	0xbd1b3f1a	-0.037901975
237	0xbc8a5763	-0.016887372
238	0x3d1008a2	0.035164483
239	0x3ba44a9b	0.0050137765
240	0xbd3073a9	-0.043079052
241	0x3dc4d0f5	0.09610168
242	0xbc4895cf	-0.012242748
243	0xbd251026	-0.040298603
244	0xbd18bb08	-0.037287742
245	0xbd21651a	-0.03940306
246	0xbb818d97	-0.0039536464
247	0x3db6ce5b	0.08926078
248	0xbcb4fb1c	-0.022092395
249	0x3da026a4	0.0781987
250	0xbd120817	-0.035652246
251	0x3dfe7bb7	0.124259405
252	0xbc5c933b	-0.013462837
253	0xb9e0de85	-0.000428904
254	0x3d2df859	0.04247317
255	0x3d1bfe95	0.038084585
