src/pepper_training/training_results/2022-11-30-human_correrct_initial_joint/model/critic-human_correrct_initial_joint.pkl (torch, 542615 bytes, 5 tensors)

linear1.weight f4 [256, 11]
000000 88 04 02 bc fa 39 05 3c cc 7e 86 bd 76 94 0f bd
       -0.007935651 0.0081314985 -0.06567153 -0.035053693
000010 ae c3 20 be 0f c3 0c be 12 16 03 3e 6e a5 8c be
       -0.15699646 -0.13746284 0.12801388 -0.27469963
000020 f8 7a 7e 3e 42 c0 c5 3d 16 23 89 3e 7f 60 38 bd
       0.24851596 0.09655811 0.2678458 -0.0450139
000030 f3 de df bd 80 55 32 be 30 5c 22 3d ec c7 d9 bc
       -0.10931196 -0.17415428 0.039638698 -0.026584588
000040 c8 ee 44 3e d0 c0 ee 3d be 16 10 3e fa 1e 37 be
       0.19231713 0.1165787 0.14071175 -0.1788291
000050 e7 b0 89 be e1 52 83 be 03 23 71 3e 4a 3a c5 be
       -0.26892778 -0.2564917 0.23548512 -0.38521034
000060 68 12 f7 3d 60 9a 01 be ba f7 8a 3e d6 b0 68 3e
       0.120640576 -0.12656546 0.27142125 0.22723708
000070 3a d0 28 3e bd b0 40 be 07 f7 19 be d2 6e 6a 3b
       0.16485682 -0.1881742 -0.1503564 0.003577162
000080 60 14 cf 3d 60 9f 5a 3e ea 32 3f 3e 86 a8 53 3e
       0.10111308 0.21349859 0.18671766 0.20669755
000090 36 63 90 3e 69 19 93 3e 86 e5 c3 3e aa c3 8f 3e
       0.28200692 0.28730324 0.3826105 0.28078967
0000a0 90 ca 81 3d fe 13 0d 3d 19 49 37 3e 76 9e 21 3e
       0.06337464 0.034442894 0.17898978 0.15783104
0000b0 fc 6d b5 3d 36 41 3b 3e c6 01 99 3e 9f 70 f5 3d
       0.088588685 0.18286595 0.29884166 0.119843714
0000c0 4d 9a ec bd 82 7a b5 3e 93 b2 3c be 56 cf 07 be
       -0.11552868 0.3544503 -0.18427496 -0.13262686
0000d0 16 7a 98 be 20 76 3c bd b0 03 22 3e 80 03 9d bd
       -0.29780644 -0.04601109 0.15821719 -0.07666683
0000e0 19 74 99 bd fb 47 9b 3e 96 bd 86 be 75 50 9e 3e
       -0.07492847 0.30328354 -0.26316518 0.3092076
0000f0 77 27 14 3e 53 eb 1d 3e 2b ad 04 be f0 5a 11 3d
       0.1446818 0.154218 -0.12956683 0.035487115
000100 cc 68 05 bd f3 de 90 3d 1f 56 80 be b1 c3 44 bd
       -0.032570645 0.07073774 -0.25065705 -0.04803819
000110 51 74 97 3e ce bd 32 be 29 87 56 3e 45 ef 1c bd
       0.2958093 -0.17455217 0.20949997 -0.038314123
000120 0a b2 27 3d 3e 07 92 3d c1 b2 7e 3d 4c 60 96 3d
       0.040941276 0.071302876 0.06218219 0.07342586
000130 60 19 14 be 04 41 b1 bd f9 0e 6c 3d 06 35 4a 3e
       -0.14462805 -0.08654979 0.057631467 0.1974679
000140 3b d5 79 3e 11 3f 1a be 79 e4 0e bc be 6b 9c bd
       0.24397747 -0.1506312 -0.008721464 -0.07637738
000150 59 6d 46 3e 76 f9 a0 bc 75 27 f8 3b 52 36 1f 3e
       0.1937765 -0.019650202 0.007573063 0.15548065
000160 19 a7 40 bc 51 71 10 3e 80 e2 9b 3d 28 e3 7a 3b
       -0.011758589 0.14105727 0.07611561 0.0038282368
000170 4e 15 99 3e bf 06 4a be 60 c5 87 3e 26 9a 31 be
       0.29899067 -0.19729136 0.26517773 -0.17343959
000180 de e0 d6 b9 83 bd 9c 3e 42 2f 59 3e d4 8b 62 3e
       -0.000409848 0.30613336 0.21209434 0.22123653
000190 56 49 33 bd c6 16 bc 3e a1 44 a5 3c 40 10 50 3e
       -0.04377111 0.36736125 0.020174326 0.20318699
0001a0 7c d5 2e 3e 05 51 cc bd e6 b5 62 3e 46 48 86 3d
       0.17073625 -0.09976391 0.22139701 0.06556754
0001b0 6d 36 4b bd 23 8a 59 be d2 42 09 3e 15 e7 a2 be
       -0.04961245 -0.21244101 0.13404396 -0.31816927
0001c0 cc 8e 73 be 37 cc 9f 3e a2 0c dd bb 4c 9a 1c bd
       -0.23784941 0.3121049 -0.0067458907 -0.038233086
0001d0 49 f5 79 3d cf a1 82 3e fe a9 70 3e 16 dc 05 bd
       0.061024938 0.25514075 0.23502347 -0.032680593
0001e0 4e 7e 01 be 5d ff 78 be e2 e9 41 3e d4 18 a4 3e
       -0.12645838 -0.24316163 0.18936875 0.32050192
0001f0 f2 bc f8 3d 2c 23 4d 3e 3a 54 18 3d d0 d5 ad bc
       0.121454135 0.20032948 0.0371897 -0.021220118
000200 40 dc 91 3e 57 21 c6 bd 11 14 78 3c 5c 1f 64 be
       0.2848835 -0.09674328 0.015141503 -0.22277588
000210 02 a3 1f 3e 10 b5 72 be 31 07 19 3e 95 c3 69 bc
       0.15589526 -0.23701882 0.1494415 -0.014267822
000220 46 6f 34 3d ec 6f a2 3d b6 08 33 be 61 77 18 be
       0.04405143 0.07931504 -0.17483792 -0.1488929
000230 e4 60 f9 bd 54 42 6f 3d fe 5e f1 bd d1 6d a1 be
       -0.121766835 0.058412865 -0.117856964 -0.31529096
000240 ff 89 98 3d cc 4b 98 bc 00 89 5a bd 19 2d 40 3e
       0.07448196 -0.01859083 -0.05335331 0.18767203
000250 48 20 64 3e 22 b3 b4 3e f8 8f 84 bd 5b a2 ef 3d
       0.2227794 0.35292917 -0.06472772 0.11700889
000260 9a 4e b4 3d 27 2c 77 3e 25 03 52 be 3c ea 8f be
       0.088040546 0.24137937 -0.20509012 -0.28108394
000270 59 04 1a 3d b3 bd 0b 3e 45 d5 26 3e 53 99 05 be
       0.037601802 0.13646583 0.16292293 -0.1304677
000280 45 60 6b bd e8 39 e5 3d ed e7 d4 3c 7e 9a 7b 3d
       -0.057464857 0.11192685 0.025989497 0.061426632
000290 5e aa fc bd 89 e9 b3 bd aa 13 60 3d 1d 2d e3 bd
       -0.123371825 -0.08784778 0.054706253 -0.11092589
0002a0 e3 0d 2d be fe d4 41 3e b6 7d a3 3e 7e 48 a7 bc
       -0.16899829 0.18928906 0.31931847 -0.02042031
0002b0 bc 56 ef bd fb 51 d0 3c d9 cd 05 be 4f 4c 50 be
       -0.11686465 0.025429716 -0.13066806 -0.2034161
0002c0 57 e4 81 be cb 30 62 bb 0e 7e e2 3d 7a cc 0c be
       -0.25369522 -0.0034513946 0.11059199 -0.13749877
0002d0 0f e7 e5 3c 54 0d 83 be da 61 84 3e 9a 9c 40 3c
       0.028064279 -0.25596106 0.25855905 0.011756087
0002e0 a3 bd 67 be 74 20 22 be 34 77 62 3e 97 f2 80 3e
       -0.22630934 -0.15832692 0.22115785 0.2518508
0002f0 ee 02 aa bd f7 66 33 be 45 2b 42 3e a1 25 05 3e
       -0.0830134 -0.17519747 0.18961819 0.13002636
000300 fe da 7a bd 0d fe d7 bd 33 8d 14 3e 89 97 f1 3d
       -0.061244003 -0.10546503 0.14506988 0.11796481
000310 f6 b6 51 be 9b 8d 2b be 6f ab 5a 3d 20 3a ac bd
       -0.2047995 -0.16753237 0.053386148 -0.08409524
000320 8f e1 3d 3e 25 4e 75 be ff 1b 94 bc 77 8f 8a 3e
       0.18543075 -0.23955591 -0.018079756 0.2706258
000330 97 20 32 3e 98 cc 60 3e d8 3a b7 be 70 ea b6 3e
       0.17395245 0.21953046 -0.35787082 0.35725737
000340 2a 19 57 3e c1 91 57 3e ee bf 11 bd 54 6b 50 3e
       0.21005693 0.21051694 -0.03558343 0.20353442
000350 47 20 58 bd e6 4a 97 3e 31 19 55 be 7b d0 81 3d
       -0.052765157 0.2954933 -0.20810391 0.063385926
000360 a2 c4 6a be fa 9e 02 bd c9 cf d5 3d 85 c1 66 be
       -0.22926572 -0.031889893 0.104400225 -0.2253476
000370 ca d8 38 be 45 1e 72 3e ed 0d 6c 3e d4 9f 42 3e
       -0.18051448 0.2364436 0.23052187 0.19006282
000380 70 bf 32 be 74 c3 01 bd 36 d0 45 3d 19 04 5f be
       -0.1745584 -0.03168054 0.04829427 -0.21778907
000390 85 9c 87 3d c0 9a 2e be 7f 63 0a be 28 64 96 bd
       0.066216506 -0.1705122 -0.13514517 -0.07343322
0003a0 fa 64 80 be b0 b0 5b 3e 53 16 13 3d 3f 8a a9 3e
       -0.2507704 0.2145412 0.035909962 0.33113286
0003b0 a9 92 d2 bd 29 47 a0 3e b5 03 4b 3e b2 f1 31 3e
       -0.102818795 0.3130429 0.19825633 0.17377356
0003c0 6c 61 ba 3d 23 71 53 be c3 95 26 be 01 65 0f 3e
       0.09100613 -0.20648627 -0.16268067 0.14003374
0003d0 fd 14 82 3e 23 39 3f be 42 a2 90 3e 09 69 91 3e
       0.25406638 -0.1867414 0.28248793 0.28400448
0003e0 7d 2a 51 3c 2a 30 02 be 83 76 61 be 11 19 25 be
       0.012766478 -0.12713686 -0.22017865 -0.16122843
0003f0 d3 47 9b 3d c3 43 01 3d 40 bc 50 be 70 ed 63 be
       0.07582059 0.031558763 -0.20384312 -0.22258544

linear1.bias f4 [256]
000000 98 fe cc bd 37 be ae 3e 85 37 80 3e d1 90 97 3e
       -0.100094974 0.34129497 0.25042358 0.29602674
000010 da 6e ba 3e 41 f0 59 be ef 25 35 3d ba c2 97 3e
       0.36412698 -0.21283056 0.04422563 0.29640752
000020 7f 98 90 3c f6 c7 68 3d 69 80 b3 bd d1 96 d0 bc
       0.01765084 0.056831323 -0.08764727 -0.02546254
000030 af 9c 75 be 5f cd 8e 3e fc 97 79 3e 89 d4 62 3e
       -0.23985551 0.2789106 0.24374384 0.22151388
000040 f8 4b 8e be 2f 0a 8c 3e dd 95 c1 3c 7b ff 9c 3e
       -0.27792335 0.2735152 0.02363103 0.30663666
000050 d9 14 42 be 15 99 d0 3d 53 74 4c be fc 17 59 bc
       -0.18953265 0.10185448 -0.19966249 -0.013250347
000060 35 7e 37 3e af 0a 5c be 7d 4a 5f be 7b 56 1f 3e
       0.17919238 -0.2148845 -0.21805759 0.15560333
000070 2e c8 ba bd e4 a8 bb 3e 59 80 5c be 2e 6b ac 3d
       -0.091202125 0.3665229 -0.21533336 0.084188804
000080 18 5f 9c 3c 89 98 7d be 96 2f 3b 3d 61 78 4a bd
       0.019088313 -0.24765219 0.04569968 -0.04943121
000090 0b ce 92 3d ad 2d 2d 3e a6 3b 8e 3e e2 11 43 3e
       0.07168206 0.16911955 0.27779883 0.1904979
0000a0 16 04 8d be 34 a8 4c 3e 40 06 aa bc d3 e3 8a 3e
       -0.2754218 0.1998604 -0.020754933 0.2712694
0000b0 bb 44 8d 3d 42 f4 57 3e 04 2d f9 bd f1 a3 85 3e
       0.06897875 0.2108927 -0.12166789 0.2610164
0000c0 e8 bd 1a be f2 ea fb 3d 28 cd 4c 3e e3 ea eb 3d
       -0.15111506 0.12300672 0.20000136 0.115194105
0000d0 d4 ec 42 3e 0b 6a 05 3e 15 a5 af 3e c0 01 0c 3e
       0.19035655 0.13028733 0.34305635 0.13672543
0000e0 3f 28 90 bd 93 64 82 be 9a 08 be bd 0b 5f 59 be
       -0.07038926 -0.25467357 -0.09278984 -0.21227662
0000f0 36 b5 ad 3e 9f 37 ed bb c9 6a 80 bd fe 7c 23 3e
       0.33927315 -0.0072392966 -0.06270368 0.1596565
000100 1a ff 57 3e e7 b9 bb 3e 8c a5 e4 bc ae 43 19 3c
       0.21093407 0.3666527 -0.02791097 0.009354515
000110 ae b4 da 3d 19 a4 48 3e f8 85 c7 3e e6 ef 35 be
       0.10678993 0.19593848 0.38969398 -0.17767295
000120 1f 76 9c 3e 94 63 0f be 1b d7 90 be ef ab 93 be
       0.3055887 -0.1400283 -0.28289112 -0.28842112
000130 17 8f 3c be e4 14 19 3e 36 2c f1 bd 46 e0 ac 3e
       -0.1841396 0.14949375 -0.11776011 0.33764857
000140 c6 d3 b4 3e 95 55 b1 3d 05 aa 98 be a6 32 43 be
       0.3531782 0.086589016 -0.29817215 -0.1906229
000150 fc a0 b3 3d a7 85 0d be 83 57 c2 3e e2 1d 25 3e
       0.0877094 -0.13820516 0.3795739 0.1612468
000160 92 17 83 3e eb 9e 95 be 13 55 a3 3d a0 b6 cc 3e
       0.2560392 -0.29222807 0.07975211 0.39983082
000170 78 3a 39 3d ff 72 bc 3e 75 1c 32 3e e9 7e 24 3d
       0.045221776 0.36806485 0.17393668 0.040160093
000180 3a ae c3 bd be b6 68 3e 8a e5 21 3e 8f 6b bb 3e
       -0.095547155 0.2272596 0.15810218 0.36605498
000190 49 66 1e 3e 28 6a 8d 3e 7c cf 75 3e 6c 2d ad bc
       0.15468706 0.27620053 0.2400493 -0.021139823
0001a0 b1 89 8f 3e 5b be 70 be a8 e4 42 3e 11 1b 29 3e
       0.28034738 -0.23510115 0.19032538 0.16514231
0001b0 20 19 31 3e 68 0f 49 be fc c0 b5 3e e6 57 66 3e
       0.1729474 -0.19634783 0.35498798 0.22494468
0001c0 47 ac b7 3e fc 9b 9d 3e 05 11 8e 3d 61 86 8e be
       0.35873625 0.3078307 0.0693684 -0.27836898
0001d0 56 2c bf bd 72 e9 17 3e 11 2f 9d 3e 39 08 59 be
       -0.09334628 0.14835146 0.3069997 -0.21194543
0001e0 a2 4b fb bd 87 ca ab 3e 6a 58 12 be ae e7 6d be
       -0.12270285 0.33552954 -0.1429154 -0.2323291
0001f0 29 0c 1e 3e b5 d4 d9 bd ab 0e b6 3d 67 8e 6e 3e
       0.15434326 -0.10636274 0.088895164 0.2329651
000200 fd 31 26 3e e6 4d 3b 3e df da 9a 3e fe 9d 62 3e
       0.16230007 0.18291435 0.3024511 0.22130582
000210 7b a4 63 be e1 6e 8b 3d 8d 34 96 be 8f 48 33 be
       -0.22230713 0.06808258 -0.29336968 -0.17508148
000220 ba a7 5b bd bd 13 94 3e 65 41 cb 3d 0b c9 ae 3e
       -0.053626753 0.2892131 0.099245824 0.3413776
000230 c4 53 80 3e a7 2e bc 3e a7 56 01 3e db c2 3c be
       0.25063908 0.36754343 0.12630711 -0.18433706
000240 5b 46 0b 3d c4 a2 a5 3e fa 35 b7 bc 24 ff 7c be
       0.034002643 0.32350743 -0.022364605 -0.24706703
000250 fd 38 71 3e 5c fd 1f be a0 3a ce 3e 26 28 a0 3e
       0.23556896 -0.15623993 0.40279102 0.3128063
000260 76 7d 79 3e 25 11 6e bd b1 98 5b 3e e6 2a 8c 3d
       0.24364266 -0.05812182 0.21444966 0.0684412
000270 7a fa b0 3d 67 94 4d 3d 82 6b e6 bc b7 bd c2 3e
       0.086415246 0.050190356 -0.028127436 0.38035366
000280 b8 ae 06 3e ad 5c 13 be a2 42 b3 3e b2 b4 5a 3e
       0.13152587 -0.14390822 0.35011774 0.21357992
000290 44 0a d8 bd 89 6e 6d bc cf 64 a1 3e 89 7c 6f be
       -0.10548833 -0.014491686 0.31522223 -0.2338735
0002a0 3a 7f 0d be 09 a2 a1 3e ca b4 b3 3e 12 71 b2 3e
       -0.13818064 0.31568936 0.3509887 0.3485189
0002b0 25 ae 96 3e fe 41 6e 3e a1 01 49 3e 43 44 29 be
       0.29429737 0.23267362 0.19629528 -0.16529946
0002c0 f7 ad c0 3e e9 ab 9d 3e 23 b0 b6 3e 53 01 42 3e
       0.37632725 0.3079522 0.35681257 0.18945818
0002d0 80 98 3e 3e a8 19 a5 3d 96 fd 47 3e 3d 68 8d be
       0.18612862 0.08061534 0.19530329 -0.2761859
0002e0 99 ba 89 3e 91 af 87 3e 0e 02 b4 3e 10 1a a3 bd
       0.26900175 0.26501134 0.35157818 -0.079639554
0002f0 17 3b 0d be d6 f1 ad 3e 41 9f a9 3e 03 4d ba 3e
       -0.13792072 0.3397357 0.33129314 0.3638688
000300 50 dc c9 3e 8f 5a fc bd 76 0a df 3d 31 69 ab 3c
       0.39425898 -0.1232196 0.10890667 0.020924183
000310 19 9c 0f 3e af 70 af 3e ba 73 23 3e b0 ba b9 3e
       0.1402439 0.34265658 0.15962115 0.36275244
000320 d5 64 33 3e f8 81 07 3e 5b 59 ff bd 0b 52 26 be
       0.17518933 0.13233173 -0.12468215 -0.16242234
000330 4a b0 ca bd 10 f8 cc 3e 2f 62 ba 3e ab bf 6e 3d
       -0.09896906 0.40033007 0.36403033 0.058288258
000340 d3 e0 17 3e 53 9f 96 3e 1d 8d d5 3d 7b 3a 12 be
       0.14831857 0.2941843 0.10427306 -0.14280121
000350 59 86 83 3e a0 aa b8 3e 89 c7 90 be 56 63 32 3e
       0.25688437 0.36067677 -0.28277233 0.17420706
000360 f6 f9 84 bb c6 6d f9 3d 81 07 42 3e f7 36 25 3e
       -0.004058118 0.12179141 0.18948175 0.16134249
000370 ff 6f d1 3e 2c 4b 47 3e 2b f3 7c 3e fb f9 a4 3d
       0.4090576 0.1946227 0.24702136 0.080554925
000380 fa 96 2a be f3 64 b3 3e fe 83 ce 3e 77 8c 87 be
       -0.16659155 0.35037956 0.40335077 -0.26474354
000390 53 79 b3 3e 3d 74 78 bc 11 46 19 be 67 44 d7 3e
       0.350535 -0.015164432 -0.14968134 0.42044374
0003a0 c0 6d ce bd 85 ca 10 3e 66 ec a0 3e 07 e4 c5 3e
       -0.10079527 0.14139755 0.31430358 0.38650534
0003b0 41 9d 2a be 62 7d 97 be 2d 32 91 be 54 b7 89 be
       -0.1666155 -0.29587847 -0.28358594 -0.2689768
0003c0 ef da 9c 39 3f 75 5f 3e ee 56 bc 3e 06 26 ec bd
       0.00029917757 0.2182207 0.36785072 -0.1153069
0003d0 af 9a c4 3e 29 88 93 3e da 7f f9 3d c7 c4 98 3e
       0.38399264 0.2881482 0.12182589 0.2983763
0003e0 74 41 86 be 3f c7 a2 bd 0b 9e 7f 3e a5 23 2d 3e
       -0.26221812 -0.079481594 0.24962632 0.16908129
0003f0 64 80 86 be 5e f8 a6 3e 85 45 a6 3e 32 a3 d4 3d
       -0.2626983 0.32611364 0.32474914 0.103826895

linear2.weight f4 [512, 256]
000000 e0 fb 65 bd 1b 48 09 bb aa d0 40 bc 0e cb 21 3d
       -0.05614841 -0.002094752 -0.011768499 0.03950029
000010 41 7a 84 bc 2c 81 21 3d ad 1d 1c 3d 23 e7 74 bd
       -0.016171576 0.03942983 0.03811424 -0.05979074
000020 c1 54 5e 3d 1c a1 c0 bb 25 0b 05 bd d6 d5 11 bd
       0.054280046 -0.0058785807 -0.03248133 -0.03560432
000030 12 ff 0d 3d 7b 5a 15 bd e1 cf c4 bb a7 90 85 bd
       0.034667082 -0.036463242 -0.0060062264 -0.06521731
000040 48 3b f1 bc a1 aa 55 bd 76 34 3f bd ea ed e7 3b
       -0.029447213 -0.052164678 -0.04668089 0.007077922
000050 82 e4 00 bd 06 16 53 bd 85 e9 06 bd ec 26 a1 bb
       -0.031467922 -0.051534675 -0.032937545 -0.00491797
000060 ab 0c 72 3c 60 ac 79 bc b6 48 27 3d 68 33 70 3d
       0.014773528 -0.015238851 0.040840827 0.058642775
000070 56 3b 41 bd 26 ea bc 3c 43 32 47 3d 5a d7 38 3d
       -0.047175728 0.02306087 0.048631918 0.04512725
000080 78 24 b0 3b f3 9b ca 3c ff c4 72 3d 94 30 34 3d
       0.005375441 0.024732566 0.0592699 0.04399164
000090 22 69 72 bd e2 8b 81 3c 06 86 10 bd a3 e5 75 3d
       -0.059182294 0.015813772 -0.035284065 0.06003345
0000a0 b7 58 2e bd 90 46 13 bd 00 28 24 39 dd 60 6e 3d
       -0.042565074 -0.035955966 0.0001565516 0.058197845
0000b0 5e a8 1c 3d c8 33 0d 3d 26 cd 3d bd 82 23 02 bb
       0.038246505 0.03447321 -0.046338223 -0.001985759
0000c0 ad 89 a2 3c 8a 73 71 3c 9d 87 1a 3c a9 b7 0b 3d
       0.01984104 0.014737019 0.009431747 0.0341107
0000d0 c4 fa ac bc 14 ec 78 3d b8 11 0a 3d aa c1 20 bd
       -0.021115668 0.060772017 0.033708304 -0.039247192
0000e0 a8 99 e0 bc c2 8a 1d bd 6a 21 dc bb 61 83 c6 bb
       -0.027417019 -0.038462408 -0.0067178505 -0.006058142
0000f0 d4 3e 40 bd 9a e8 39 bd 0f 9c 44 bd de 35 c1 bc
       -0.046934918 -0.04538784 -0.04800039 -0.023585256
000100 f0 f0 d1 bc 6a 78 d3 3b 1f 63 06 3d a9 8f 74 bd
       -0.025627583 0.0064535635 0.032809373 -0.059707318
000110 95 b3 07 3d 3c 8b bb 3c 9a 4d b2 bc c8 b6 5b bd
       0.033130247 0.02289354 -0.021765519 -0.05364111
000120 e0 77 2d bd 55 b8 71 bc 61 5f 84 3d 60 64 68 bb
       -0.04235065 -0.014753421 0.064635046 -0.0035460219
000130 54 86 3e bc fe b6 3e bd 60 88 52 bc dd b5 10 bd
       -0.011628706 -0.046561234 -0.012849897 -0.03532969
000140 42 10 aa bc 99 e4 f5 bc 46 01 2c 3d 3e 64 e1 3b
       -0.020759705 -0.03001623 0.041993402 0.006878405
000150 31 48 4c 3d ee a6 4a bd 58 19 51 bd 2f 9e 9c 3c
       0.049873535 -0.049475603 -0.05104956 0.019118397
000160 7f 57 42 3d 23 ad 8d bc 67 bd 3d bc a6 e6 1b 3d
       0.047446724 -0.017294472 -0.011580802 0.03806176
000170 15 6a 0c bc ca 39 78 bd cb 2c 59 bc 4b 3d e2 bc
       -0.008570214 -0.060601987 -0.013255308 -0.027617117
000180 8f 96 96 bc 2e 0e 42 3d cc 97 c0 bc ac e6 07 bd
       -0.018382339 0.047376804 -0.023509882 -0.03317897
000190 73 55 6b 3d a2 5f 2c bd 65 0d 19 3d fb 31 d6 3c
       0.057454538 -0.04208339 0.03736629 0.02614688
0001a0 63 5d 7a 3d 94 f2 5c bd 6a 0b e7 bc 9a 91 d9 3c
       0.061124217 -0.053942278 -0.028203685 0.026558686
0001b0 bf 7a 4f bc 91 20 4b 3d aa f5 7b bd 6a 02 89 bc
       -0.012663542 0.049591605 -0.06151358 -0.016724784
0001c0 08 da e0 bc 21 1a 06 3d 35 8e ad 3c 38 b8 62 bd
       -0.027447715 0.032739762 0.021185974 -0.055351466
0001d0 e8 a5 8a 3c c1 e5 d6 3c fd ee e4 3c 10 ca 5f 3d
       0.016924813 0.026232602 0.02794599 0.05463606
0001e0 b9 1a 80 3c 52 80 f2 bc c4 26 a4 bc 19 03 42 3d
       0.015637742 -0.029602204 -0.020038016 0.047366235
0001f0 a7 56 18 bd 1b 77 21 bd 8c 56 08 3d b9 88 4f 3d
       -0.037192013 -0.03942023 0.033285663 0.0506675
000200 f7 86 c3 3b d8 22 cb bb 06 0f 99 3c c2 bf 92 3c
       0.005967017 -0.006199222 0.018683922 0.017913703
000210 98 72 ce 3c 0d f3 0a bc fe ae 5b 3d 94 7a 66 bd
       0.025201127 -0.008480799 0.053633682 -0.056269243
000220 30 6a 25 bc 9c b3 26 3d bc 07 2b bd 7a a2 48 bd
       -0.010096118 0.040698633 -0.041755423 -0.048983075
000230 b7 b1 65 bd f4 36 23 3d 83 40 67 3c de b5 97 bb
       -0.056077685 0.03984733 0.014114502 -0.0046298346
000240 ee 2c 70 bd 34 41 91 bc 12 4f 68 3c 4c e8 11 3d
       -0.0586366 -0.017731287 0.014179008 0.035621926
000250 99 f6 26 3d b3 6d 19 bd 56 ea 4f 3c 02 6c c1 3c
       0.040762518 -0.037458133 0.012690147 0.023611072
000260 df 57 62 3d 3b 76 48 3c 34 20 94 3c ac 60 68 3d
       0.05525958 0.01223522 0.018081762 0.05673282
000270 72 a3 2a bd 82 da 91 3c 6d 8a 80 bc 08 08 42 3c
       -0.04165978 0.017804388 -0.015691007 0.011842735
000280 d0 cf 13 bd fe 4a 20 3d ef b9 50 3b 42 8f 11 bd
       -0.036086857 0.039134018 0.0031849106 -0.035537012
000290 50 4d 73 3d d8 8b 86 bc 3a 0a 9a bc cb 8f 06 3c
       0.059399903 -0.016424105 -0.018803705 0.008212994
0002a0 de 40 78 bb ff 9f d1 3b 4d e9 59 bd 27 47 f3 3c
       -0.003788046 0.006397247 -0.05320101 0.029697014
0002b0 2b b6 1d 3d 01 32 2d 3d b2 69 3d 39 3c f1 76 3d
       0.038503807 0.042284016 0.00018063819 0.060288653
0002c0 6c 02 72 bc dc 30 29 3c 48 fc 4a 3d 06 a2 44 3d
       -0.014771085 0.01032659 0.049557 0.04800608
0002d0 89 e6 0b 3d 7a 50 c1 bb 1d 81 42 bc 08 b1 3a 3c
       0.034155402 -0.005899486 -0.011871603 0.011394747
0002e0 93 14 c4 3c 51 1d 77 bd 8c 60 38 bd 84 27 ce 3c
       0.023935592 -0.060330693 -0.04501395 0.025165327
0002f0 40 cb 35 bc 1c cb 1a bd 7f 67 15 3c 72 b6 1e 3d
       -0.011095822 -0.037791356 0.009118914 0.038748212
000300 31 63 34 bd 80 75 a1 bc fa cd 5b bd 80 5e ec bc
       -0.04403991 -0.019709349 -0.05366323 -0.028853655
000310 3c 02 36 3d 47 13 9c 3c a7 b2 5f bd 1e da be 3b
       0.044435725 0.01905216 -0.054613736 0.0058243414
000320 8b 33 f1 bc 70 ea a1 3b 81 9c 45 3d e0 ca 7f 3d
       -0.029443523 0.004941277 0.048244957 0.062449336
000330 44 ea b6 3c f7 6c 27 3c a9 ba d2 bb 7f 12 3d 3c
       0.022328503 0.01021885 -0.006430943 0.011540054
000340 cd 32 08 bc 6a b5 59 bd 29 2b 97 3c dc ab 54 bd
       -0.008312893 -0.053151526 0.018453198 -0.05192171
000350 11 6b 9d 3c b5 19 70 3d 88 34 b4 3c 00 eb c0 39
       0.019216092 0.058618266 0.021997705 0.00036796182
000360 fd ce 32 3b 7f a8 4e 3d 62 a7 6f bd bd 3d 12 3d
       0.002728402 0.05045366 -0.058509238 0.03570341
000370 be 28 08 bd db 0b d1 bc 19 04 6e 3d 13 65 98 bc
       -0.03324198 -0.025518348 0.058109377 -0.018602883
000380 a0 15 ac 3c 48 da 1b 3d 7d 91 14 bd 70 a0 73 bd
       0.021006405 0.038049966 -0.03627156 -0.059479177
000390 e3 c6 6f 3d a8 e4 0b 3c 28 77 e7 3c 8b b9 b9 3b
       0.058539283 0.008538403 0.02825506 0.0056678704
0003a0 f9 9b 77 bd bf 5d 23 bc a1 d6 7f bd fd 29 33 bd
       -0.06045148 -0.009971081 -0.062460545 -0.043741215
0003b0 75 20 c5 3c 3c c5 11 3d 28 11 05 bd e8 9e 3e bc
       0.024063328 0.035588488 -0.032487065 -0.011634566
0003c0 14 8c 21 3c ee 1c 5c 3d ff 1b b5 bc f8 7b 25 3d
       0.009860057 0.053738527 -0.022108076 0.04040143
0003d0 55 83 1e bd 21 81 56 bd d9 6d 2a bd d2 d2 c2 3c
       -0.038699467 -0.05236924 -0.041608665 0.023782168
0003e0 77 c2 0b bd 46 fa 47 bd 80 2d 7e 3b e4 22 4c 3d
       -0.034121003 -0.048822664 0.0038784444 0.04983796
0003f0 12 a5 63 bc ee 22 27 bd 07 90 a3 bc 1c cf 18 3d
       -0.013894336 -0.040804796 -0.019966139 0.03730689

linear2.bias f4 [512]
000000 13 76 54 bd d1 1d 0e 3b a4 98 de 3d 04 f4 9f bc
       -0.051870417 0.0021685252 0.10868958 -0.019525535
000010 79 20 04 bc 68 de 17 3d 4c 79 15 3d 0a 63 3e 3d
       -0.008064383 0.037077338 0.03649263 0.04648117
000020 33 a9 dc bb 08 ef 58 3d 53 5f e2 bb dc af 7e bd
       -0.0067340373 0.052962333 -0.006908336 -0.06217943
000030 98 49 50 3d 8a 54 70 3d 4d f4 90 bc c4 cb a8 3c
       0.050851434 0.058674373 -0.017694617 0.020604976
000040 c8 44 18 3d 41 e1 18 bb 13 c7 48 3d 94 a0 00 3d
       0.03717497 -0.0023327621 0.049017977 0.03140314
000050 5b bc bc 3c ed f3 ad 3d c3 91 92 3d 78 90 a1 3d
       0.023039034 0.08493791 0.07156708 0.07888883
000060 10 5d 1f bc d8 fc 99 3d ea de e1 bc 33 32 e9 3d
       -0.009726778 0.07518929 -0.027572114 0.11386528
000070 e3 c7 71 3d 14 da 55 3d c1 1e f6 3d 53 f0 4a bd
       0.059028517 0.05220993 0.120175846 -0.049545597
000080 82 24 9b 3c 3b f8 c3 bb 90 a1 b3 3c a2 f7 3f bd
       0.018938307 -0.005980519 0.021927625 -0.04686702
000090 95 1d 69 3d 42 a2 5a 3d d7 27 c5 bb 5d 61 06 3d
       0.056912977 0.053377397 -0.006016712 0.032807697
0000a0 04 e9 e3 3c 8f 71 46 3b e2 3f d1 3d 2e 6e 2d bd
       0.027821071 0.0030280089 0.10217263 -0.042341404
0000b0 3d 51 03 3e d8 ca 10 3d 88 94 53 bd e3 7a 21 3d
       0.12823959 0.035349697 -0.051655322 0.039423835
0000c0 93 fc cd 3c 1d 4d 29 3d 0f a0 60 bd 39 c5 de bc
       0.02514485 0.041333307 -0.054840144 -0.027193652
0000d0 28 57 45 3c 5d 50 f6 3c e9 c4 53 3d 2f 9c 47 3d
       0.012044705 0.030067617 0.05170146 0.048732933
0000e0 33 6e 83 bc 3f 09 9d 3c 88 9d 14 bd 34 dd bc 3a
       -0.016043758 0.019169448 -0.036283046 0.0014409185
0000f0 a4 ae 86 3d 2f 1f 95 3c 62 9d 57 3d de 57 cc ba
       0.06576279 0.018203346 0.052640326 -0.0015590151
000100 ba 8c 97 3d f1 38 15 3d 35 39 89 bd bf a3 7e bc
       0.07399888 0.036431257 -0.067003645 -0.01554197
000110 3c aa a4 3a 4a c1 7f bc e7 9f 65 bd f8 3e 1e bd
       0.0012562941 -0.015610049 -0.056060698 -0.03863427
000120 b6 39 4f bd 5c 33 33 3d 66 75 c4 3d 40 fb 28 3d
       -0.050592147 0.043750152 0.095927045 0.041255236
000130 f9 6c 0a bd 75 64 69 3d 26 da 62 3c c3 07 1b 3d
       -0.03379533 0.05698057 0.013845956 0.0378492
000140 dd ab 6d 3c bd e5 b3 bb 7a b1 dc 3b 42 02 0d bd
       0.014506307 -0.0054900334 0.006735024 -0.03442598
000150 10 7f 2e 3d 5a d0 ad 3d 85 ad 7b 3d c5 7b 94 bc
       0.042601645 0.084870055 0.061444778 -0.018125424
000160 8d 47 78 3d ec 15 62 bd 74 49 29 bd b2 ff de bc
       0.06061511 -0.055196688 -0.041329816 -0.027221534
000170 c7 48 70 3d 4a 32 4d 3d 82 c7 b9 bc 9e ca 81 3b
       0.058663156 0.050096788 -0.02267814 0.0039609214
000180 66 c7 de 3d 87 9b 1d 3d 3e 50 3e bd f8 b3 21 3e
       0.10877876 0.0384784 -0.046463244 0.15791309
000190 99 28 47 bc 35 75 aa 3c 2a 11 18 bd 80 0e 63 3d
       -0.012155675 0.020807842 -0.037125744 0.05543375
0001a0 bc 20 b0 bb 25 05 72 bd e2 e5 87 bd cc a0 2a 3e
       -0.005374996 -0.059086937 -0.066356435 0.16662902
0001b0 30 53 1a ba 67 78 16 3d db c6 4c bd 73 65 83 3b
       -0.00058870297 0.03673592 -0.04999433 0.0040098964
0001c0 9c ff 19 3d b9 ad 1a 3d c8 83 88 3c 93 8d 87 3c
       0.037597284 0.03776333 0.0166644 0.016547
0001d0 dc e2 9a 3c a6 92 01 3d b8 74 8f 3c 3b ac 4b 3d
       0.018907003 0.031633995 0.01751171 0.0497248
0001e0 32 f0 be 3d 5a cb 1b 3e e1 fd 56 bd 26 8a 3b bd
       0.09323157 0.15214291 -0.05248821 -0.045786045
0001f0 a9 ab d7 3c 95 eb 26 bd 20 39 1e 3d d1 9c 5d bc
       0.026326971 -0.040752012 0.038628697 -0.0135261575
000200 6e 58 9a bc 2b 9e 0c 3e a1 4a c1 3a dc 1c c1 bc
       -0.018840995 0.13732211 0.0014746973 -0.023573332
000210 03 33 61 3d 3d 64 d6 bc cc aa 27 3d e5 ab 2f 3d
       0.05498029 -0.026170844 0.04093437 0.04288854
000220 fd 1c 0b bc 9b eb c2 bc 8a e7 6f bd 6a c1 1e bc
       -0.008490798 -0.023793986 -0.058570422 -0.009689668
000230 ae 37 af bc 0b 7a 02 3d 06 2d 6c 3c 67 f3 81 bc
       -0.021388855 0.03185467 0.014415031 -0.015863134
000240 97 33 7c bd a3 fa 55 3c 34 83 76 bd e7 c2 65 bd
       -0.061572637 0.013060245 -0.06018372 -0.056094076
000250 13 76 ba 3d 3d 5b 1c 3d 7e 8f 04 3e 10 f4 ae 3d
       0.09104552 0.03817295 0.12945363 0.08542645
000260 bc 99 b9 3d 54 cf 32 3d ff 38 34 3d 4b eb 08 bd
       0.09062526 0.043654755 0.04399967 -0.033427518
000270 9e d7 b4 3b e0 b1 1e bc ba f3 e2 3d 7e d0 9c bc
       0.0055188676 -0.009685963 0.110816434 -0.019142386
000280 77 3e 80 bd 8f 54 5f 3d 30 e0 e3 bc 4d f4 c4 3b
       -0.06261914 0.054524 -0.027816862 0.0060105682
000290 55 47 30 3c 68 3d 08 bd eb fd 1a 38 5f 9a 49 bd
       0.010759194 -0.033261687 3.695294e-05 -0.049219485
0002a0 f8 e0 3e 3d d7 91 65 bc 45 fa cd 3d 87 64 89 3d
       0.046601266 -0.014011822 0.10057501 0.06708627
0002b0 9c c2 85 3d f6 5d 29 3c c9 66 a4 3d 0e eb c6 3d
       0.065312594 0.010337343 0.08027417 0.09712802
0002c0 fe 9d e7 3c 65 d6 5b 3d 6d a0 05 3e fc 72 3e bd
       0.028273579 0.05367126 0.13049479 -0.046496376
0002d0 d7 70 a7 3d 24 e4 3c 3d d6 e7 80 3c ab 63 fc 3d
       0.08175819 0.04611601 0.015735548 0.12323698
0002e0 88 a5 20 3e dd 17 84 bd 1a 88 07 bd 9b 79 ae 3d
       0.15688145 -0.06449864 -0.03308878 0.08519288
0002f0 cc 72 ea bc 7a 80 a1 3d 7b 96 86 bb 6c a1 ed 3d
       -0.028619193 0.07885833 -0.004107294 0.116030544
000300 ba ba 47 bd 13 84 23 3d 83 0e 89 bd ce 08 9c bc
       -0.04876206 0.039920878 -0.06692221 -0.019047167
000310 f1 e5 fb bc f5 6b 45 3c cc 03 02 3d 4a ad d2 3c
       -0.030749293 0.012049665 0.031741902 0.025717396
000320 18 b2 63 3c 38 dd a5 3c eb fa 8b bd 8f 54 c5 3d
       0.013897441 0.020247087 -0.06834968 0.09635269
000330 93 a0 c4 bc 74 da ee 3d 79 de 1f 3d c2 32 62 bc
       -0.024002349 0.116627604 0.039030526 -0.013806047
000340 ae 7f 10 3d d8 65 c2 3c 50 1f 19 bd f4 d2 f3 3c
       0.035278015 0.023730204 -0.037383378 0.029763676
000350 5d 40 cd 3d de e5 65 3d a0 ee 83 3b a4 78 d3 ba
       0.10022042 0.05612742 0.004026249 -0.0016133976
000360 6f eb 10 3d c6 21 09 3e 58 7d 64 bc f8 f8 b2 3d
       0.035380777 0.1339179 -0.0139459 0.08738893
000370 19 2c 6e bd a8 ab 30 3d 77 f8 0c 3d 6b 46 73 bd
       -0.058147524 0.043132454 0.034416642 -0.059393328
000380 7b f4 10 3d 29 c4 be bc 9c cc 12 3e 12 3e 82 3d
       0.035389405 -0.023286896 0.14335865 0.06359495
000390 60 b2 e2 3b c7 62 17 bd fe 1f d5 3c a6 40 69 3d
       0.0069182366 -0.036959436 0.026016232 0.05694642
0003a0 42 95 66 bd b9 d5 59 3c dd 4f 6c 3d d4 72 ed 3b
       -0.056294687 0.013295584 0.05769335 0.0072463546
0003b0 16 44 61 bd aa 86 a3 3d f0 83 6c bb 78 2e 2a bd
       -0.054996572 0.079846695 -0.0036089383 -0.041548222
0003c0 8c 86 f6 bc 7b 2d 83 3d 0a cb b1 3b ed 60 d3 bb
       -0.030093454 0.06405159 0.0054258155 -0.0064507634
0003d0 1c 2c af 3d c5 fd 42 3d 1a d4 30 3d 89 15 4b bc
       0.08553335 0.047605295 0.043171026 -0.012395271
0003e0 77 f0 b7 39 5c 04 ac 3b 0b f8 16 3e c3 d1 87 3c
       0.0003508364 0.005249543 0.14743058 0.016579514
0003f0 27 65 35 3e 19 f4 40 bd 40 0d 14 bd 9d 0a c0 3b
       0.17714368 -0.04710779 -0.03614545 0.00586064

linear3.weight f4 [1, 512]
000000 61 51 36 3c f2 0e 8c 3b 7f 1e 15 3e c6 ae 12 bd
       0.011127801 0.0042742426 0.14562415 -0.03581121
000010 c1 a0 0f 3d 81 d7 8f bc 99 d5 65 3c 94 d3 ce 3c
       0.035065416 -0.017558815 0.014027976 0.025247373
000020 15 66 4f 3d 1f 8f 7b bb 56 0c 34 3d 98 3b 02 bd
       0.050634462 -0.0038384867 0.043957077 -0.031795114
000030 b3 12 1b 3d 8d 67 25 3d e0 23 06 bc d0 da 4c 3d
       0.03785963 0.040381957 -0.008187264 0.050013363
000040 0d 2a 95 bc b0 01 25 bd 1a f9 25 3d f2 6c 76 bc
       -0.018208528 -0.040284812 0.040520765 -0.015040623
000050 de cc 58 3d 37 70 01 3d 38 f3 17 3d 42 a0 01 3d
       0.05292975 0.031601157 0.037097186 0.031646974
000060 41 6b 70 3d 2f d7 08 3e 33 44 37 bb 34 ed 14 3e
       0.058696035 0.13363336 -0.0027964234 0.14543611
000070 03 b3 30 3d 38 21 18 3d 1f dd 11 3e 87 c7 0f bd
       0.04313947 0.037141055 0.14244507 -0.035102393
000080 92 ae 37 3c 9c 5c ef bc 13 9b d7 3c 43 d6 82 bc
       0.011211054 -0.029218964 0.026319062 -0.015971309
000090 f7 75 5b 3d 90 88 06 3e 82 b5 9f bc 75 13 81 bb
       0.053579297 0.13138032 -0.01949573 -0.003939087
0000a0 71 b3 0d 3d 3f 53 72 bb b6 ec 1a 3e ab fa e2 3c
       0.034594957 -0.0036975888 0.1512936 0.027707418
0000b0 63 ee 0b 3e 24 2c a9 bc b0 c6 86 bc 90 7f 09 3d
       0.13665156 -0.02065093 -0.016452163 0.03356892
0000c0 fe 28 6f 3c e2 87 d5 bb 73 1c 0b bb 7a 2f 13 3d
       0.014597176 -0.0065164426 -0.0021226674 0.03593395
0000d0 7c 8a a4 bc 62 ab cf bb 8b 92 85 ba 4f ee 2b 3e
       -0.020085566 -0.006337569 -0.0010190768 0.16790126
0000e0 fd a0 f6 bb 5d 75 ff 3c 82 f6 9c 3c 7d 70 bf bc
       -0.0075265155 0.031183893 0.019160513 -0.023369068
0000f0 6b 8b b2 3c 08 96 ea bc 47 ad ee bc 6f e5 f0 bc
       0.021794995 -0.028635994 -0.02913536 -0.029406277
000100 cf 9b 66 3d 19 74 bf bc 54 5d 38 bc 0d 4d 26 3d
       0.056300934 -0.02337079 -0.01125272 0.040600825
000110 97 34 da bc 76 c0 69 bb a8 fa 97 bc d9 2b 1f bd
       -0.026636405 -0.0035667694 -0.01855214 -0.038860176
000120 0c fd 1e bd 7d 9d 68 3c 33 d9 09 3d e9 30 c1 3c
       -0.038815543 0.014197704 0.033654403 0.023582892
000130 67 86 02 3b 6f f4 6c 3c a6 f0 bb bc f6 9f 4c bb
       0.0019916536 0.014462574 -0.022941899 -0.0031223274
000140 1a d5 c8 bb fa 0f f6 bc fb 09 b6 bb 4d 3f 07 bb
       -0.0061289193 -0.030036915 -0.005555389 -0.0020637095
000150 75 c9 bd bc ec 22 67 3d 41 ef 9e 3d f9 75 e8 3c
       -0.023167351 0.05642979 0.07760478 0.028376566
000160 bf 14 2c 3d b8 a4 dd 3b 20 0e 65 bc 64 e1 21 bd
       0.042011973 0.006764021 -0.013980418 -0.03952159
000170 ec 01 3f 3d 14 6e 1b bd 3c aa f1 bc e2 6e 4e bc
       0.046632692 -0.037946776 -0.02950012 -0.012599679
000180 ed 22 80 3d 9d 13 20 bd 22 24 92 bb 2b 2f 01 3e
       0.062566616 -0.039081205 -0.004459874 0.1261565
000190 3b fb 18 3d c1 f7 2d bd c9 7a b2 bc a0 11 13 3d
       0.037348967 -0.042472605 -0.021787064 0.03590548
0001a0 a8 e3 11 bd a1 72 87 bc ed 95 03 bc 12 70 08 3e
       -0.0356175 -0.016534152 -0.008031351 0.13324001
0001b0 41 6d 22 3d e2 27 c1 bc 84 d3 36 bc 60 e3 b1 ba
       0.039654974 -0.023578588 -0.011158828 -0.0013571791
0001c0 3e ef 14 3d 68 f9 90 bb 88 10 19 bc e7 0c 59 bc
       0.03636097 -0.004424263 -0.00934232 -0.013247705
0001d0 18 6d 09 bd e9 0f b9 bc b4 65 49 bc bd 25 d1 bb
       -0.033551306 -0.022590594 -0.012292314 -0.0063826726
0001e0 b9 43 47 3d 15 b8 33 3e 61 38 a1 b9 53 b7 2b bd
       0.04864857 0.1755069 -0.0003075032 -0.04192288
0001f0 dc 85 6e bc b6 7e cd bc 8e 69 a1 3c 77 1f 5d 3d
       -0.014558282 -0.025084835 0.019703653 0.053985085
000200 89 f8 82 bb 84 86 8e 3d 22 42 09 bd 9c c1 48 bc
       -0.003996913 0.069592506 -0.033510335 -0.012253191
000210 74 f9 82 3c bd f9 0b 3d 5a a2 0a bd ab 0e 89 ba
       0.01598809 0.034173716 -0.033846237 -0.0010456642
000220 2f 9c 06 bd f6 76 a6 39 1b 0f c1 bc 09 21 68 bc
       -0.032863792 0.0003175062 -0.023566773 -0.014168032
000230 21 b8 ef bc 1e 17 60 3d 83 72 af 3c e9 55 02 bd
       -0.029262604 0.054709546 0.021416908 -0.03182021
000240 f6 30 27 bd 59 18 36 bc b5 7b 1f bb 67 f3 93 bb
       -0.040818177 -0.011114203 -0.002433521 -0.0045151
000250 a2 d2 72 3d 30 97 01 bd 1e 24 ba 3c 19 11 6f 3d
       0.059282906 -0.031638324 0.0227223 0.058365915
000260 60 28 52 3d 89 a9 95 3c 41 d1 02 bd f4 a5 d8 bb
       0.051308036 0.018269317 -0.03193784 -0.00661158
000270 3c 55 06 bd b4 a5 81 3d 93 21 0e 3e 2c f2 c4 bc
       -0.03279613 0.063304335 0.13879995 -0.024041258
000280 b2 af e2 bc fd 25 4a 3d 52 d2 f0 bc af ef 1e 3d
       -0.027671669 0.049352635 -0.029397164 0.0388028
000290 3a c3 48 3d 47 65 d6 bc 12 00 40 3d e7 ad 08 bd
       0.049014308 -0.02617134 0.046875067 -0.03336897
0002a0 29 e1 96 bb 8b e8 32 3c 4d ea 82 3c e4 61 06 3d
       -0.004604478 0.0109197 0.015980864 0.0328082
0002b0 50 8c a2 3c 8b a4 24 3d e6 bb 5a 3d 16 ca 7d 3d
       0.019842297 0.040195983 0.05340185 0.061960302
0002c0 55 01 b4 3c b1 fe e4 3c 7c 9b 08 3e 7b ee 88 3a
       0.021973291 0.027953478 0.13340563 0.0010447049
0002d0 bd 6a a4 3c e3 b2 87 bb 3b 24 18 ba 16 05 e3 3d
       0.020070428 -0.004141198 -0.00058037386 0.110849544
0002e0 de 8a 0d 3e 99 66 ab bc f0 9b 76 bb 7e 3f 6f 3c
       0.13822505 -0.020922946 -0.0037629567 0.01460254
0002f0 5c 29 5a 3d 52 f4 1a 3e ab ad 0f 3a d9 fd fd 3d
       0.0532621 0.15132263 0.00054808956 0.12401933
000300 58 41 03 bd 50 e8 5f 3d a1 eb a0 bc 00 24 20 3d
       -0.03204474 0.05466491 -0.019643607 0.039096832
000310 69 b0 5d 3d c0 e6 ee 3c 16 a8 b3 3a db bc 3f bc
       0.054123316 0.029162765 0.001370671 -0.0117027415
000320 53 1e b7 3c 3d eb 8c bc f6 ad e8 bc 49 0f b7 3c
       0.022353327 -0.017202014 -0.028403264 0.022346156
000330 15 08 77 3d 7a 1e 44 3d c3 a9 37 3d 93 eb d3 bc
       0.060310442 0.047880627 0.04483963 -0.025869166
000340 e9 7d 6f 3d a8 29 0a 3d 68 56 99 bb ab 69 10 bd
       0.058469687 0.033731133 -0.00467949 -0.035257023
000350 58 53 16 3e 81 24 c0 3c 83 0c 1b 3d cf ac b3 3c
       0.1468023 0.023454906 0.03785373 0.021932987
000360 30 e0 c9 bc 62 40 ab 3d 66 cf c8 bc a2 c6 50 3d
       -0.024643034 0.083618894 -0.024512958 0.05097068
000370 dd 3e da 3c 20 9b b9 3c 00 a9 43 3d b5 5d 65 bc
       0.026641304 0.022656977 0.047768593 -0.013999392
000380 28 51 10 bd 6a 48 30 bc d1 be 0e 3e a8 80 d9 3c
       -0.035233647 -0.010759452 0.13939978 0.026550606
000390 43 e0 0c 3d f2 8e 09 bd ed 87 06 bd 6a dd ce bc
       0.03439356 -0.03358359 -0.032844473 -0.025252063
0003a0 7f 90 af 3c 08 c5 06 ba d5 2e bf 3c f3 23 fe bc
       0.021431206 -0.0005141054 0.023337761 -0.031023001
0003b0 6e e9 e4 ba 60 af ea 3c 4e eb 03 bd 48 77 5a bc
       -0.0017464587 0.028648078 -0.032206826 -0.013334103
0003c0 eb ce 47 bc 71 50 c3 3d 1f 59 8f bc 3e 86 9d 3c
       -0.012195329 0.09536827 -0.017498551 0.01922905
0003d0 43 8e e8 3c ba 67 03 3d 5d 0a ea 3c e9 b5 01 3d
       0.028388148 0.032081343 0.028569395 0.031667624
0003e0 a9 60 3e 3d f5 10 8e bc 52 6a c0 3d 90 45 9e bc
       0.0464789 -0.01734207 0.09395279 -0.01932028
0003f0 81 5b 14 3e 26 1d ac bc da a5 a1 3c 7e 3f c9 bc
       0.14488031 -0.021009993 0.019732405 -0.024566408
